results/7DoF-7R-Panda/ResMLP_7DoF-7R-Panda_layers_1_neurons_128_batch_250000_Adam_l2_1_qlim_scale_10_samples_1000000/epoch_10.pth (torch, 90425 bytes, 20 tensors)

blocks.block0.fc1.weight f4 [128, 6]
00000000: a6f6 1cbd 2bbc 433e f933 b1be 0d4d 9abe
00000010: 9e56 05be 515f 043e 5c68 923c 8f67 a93e
00000020: 5063 93bd 6446 cd3d a9a3 cebd f7e3 a0bd
00000030: 7a72 d7be 75eb 89be ebbb 36be e9dd c23c
00000040: 0366 373e 94f1 583e 7f59 90be 4207 31be
00000050: 0225 343e 2b8a b03e 92bd ccbd a6fb 973e
00000060: cb1e 1abd 621c 993d 87d6 b03e 24e2 cebe
00000070: 61b7 74be 0ad6 e9bd 74cf 14be 956d b43e
00000080: 5e5f 87be 5142 51be ad64 8dbe 632c c1be
00000090: 0012 8bbe 8b3b bf3e a8cb 393e 8a9e 2b3e
000000a0: cad8 0e3c ba4f 45be 2ce3 163d e571 b1be
000000b0: 2d0f 9abe 5776 65be 5c86 8a3e 3224 673e
000000c0: b8e1 32be e4ec 9f3c 2a86 833e 1027 d43e
000000d0: 3dbd 203e 9968 2a3d 7ad7 813e 2f04 5ebe
000000e0: 18ec 693d e769 99be ead0 9cbe ab80 75be
000000f0: d158 623e 5b00 253e 6419 80be b6b1 dd3d
00000100: 3e8a 783e bd18 0bbd 8007 21bc ba44 953d
00000110: 272d 8a3e 9849 c13e 317d a2be 9134 30be
00000120: 56e8 0b3e 76e4 ad3e b1ec b63e 95e3 b43e
00000130: 6780 be3d d592 bdbe ca43 1f3d e6da 85be
00000140: 62be bbbe c955 bb3e 7801 973e 3d24 dabe
00000150: c3d2 783d da48 1ebd 0ccd 8bbd 0d90 56be
00000160: 3fe4 103e bb07 81be c4d1 103e 32fd 4b3e
00000170: 2f4a 953e 1073 233e 7b79 d5be 12ed 84be
00000180: 9482 6b3e e85a a13d cb67 acbe bdc4 74be
00000190: b481 b03e 1c2d 863e 8ab4 48be ec41 09be
000001a0: 5f8a c6be d6c8 be3c 8106 98be 6152 a1be
000001b0: 2561 4fbd dbbe 1a3d be1e 17be 74be 713e
000001c0: 7ee1 64be 52dc c43e 3e81 8c3e cce7 bbbe
000001d0: 3386 9fbd 8a6c fc3a c079 9c3d e3a6 a33d
000001e0: 55fa 453e 5f33 2e3c 7cbc 3cbe dad3 4e3e
000001f0: c695 cdbe 577a 68be b95d c6bd 39fe 2fbe
00000200: 2146 24be 2dbc a7be 22a9 e2bd 01ab bd3d
00000210: 75bf 8ebe 8f79 42bd 5cd6 833e 3fd1 50bc
00000220: c756 4d3b dc02 45bd ef6f 893d ad26 653e
00000230: 7ece b93e 39f3 933e c59a cf3e b2d4 22bd
00000240: 2edf b7be 195d 57be 42d5 953e 1ad9 a9bc
00000250: c46c 3ebe cd9d 9cbe d6a2 cfbe 5814 acbe
00000260: f691 8cbd aa6f 813e 588a 4b3e bd4d c5be
00000270: f3e8 683e af5a b9be edac c2bd 8589 0cbe
00000280: beeb c4bd 5bf9 c7bd 25b3 cbbe 0c9e b5be
00000290: 1118 a6bd f99c 7abc 0eeb 1dbe 7f52 153e
000002a0: 7276 c8be 7680 02bd 175d ba3e c3e6 4bbe
000002b0: b2d0 af3e ce5f 133e f4b2 c5be 6dce 843e
000002c0: 44a9 75bd 1142 21be 3647 a03e f74a abbe
000002d0: 9674 5a3d b387 49bd d3f8 9c3e b273 be3d
000002e0: 12d8 3a3e 544f 163e ecfb f6bd 230f cdbd
000002f0: ea85 a3be 1f56 663e 2147 a73e c932 8f3e
00000300: 5b2d 85be 08de 343d c993 8dbe 6324 77be
00000310: 8df4 87be f502 223e fd28 60be 4a1e 29bd
00000320: aad0 1f3d 6dc7 883e 82fe 9bbe 55ea 9dbe
00000330: 14f8 5bbe d71f a23e b264 21be 9ed9 b63e
00000340: 70c7 0e3e c028 5a3d 77c1 ecba 44ec 58bd
00000350: 73bf 953d 0461 bebd b3f2 fa3a 784b 253d
00000360: 91b3 b3be 067f 6cbe 17b7 b53e 2a06 9ebe
00000370: eac8 fabc f139 c23e 1dfb 2f3e 735e bc3c
00000380: 7cd7 b8be 5d59 3b3e 3e1f 8dbe 3041 01be
00000390: 403c f1bd aafd 20bd 18e7 e43b 0550 c03e
000003a0: 17ca 0a3d 2577 a73e bd54 7a3e 6e57 7fbe
000003b0: 8644 313e 8a67 98be 39c6 32be 05b7 e93d
000003c0: b209 0a3e 22ff a93e 0073 04be b50e 513c
000003d0: fe3e 393e 588d c7be f669 a83e e200 b2be
000003e0: 91cb 8cbb 1012 76bd 8622 31be bad7 943d
000003f0: 3b99 9b3e 2d9f ecbd 591f 72be 6491 27be
-0.03832116 0.19114749 -0.34609964 -0.3013691 -0.13021323 0.12926985 0.017872028 0.3308682
-0.07196677 0.100231916 -0.100898094 -0.07855981 -0.42079526 -0.26937452 -0.17845123 0.023787456
0.17910008 0.21185905 -0.2819328 -0.17287925 0.17592242 0.34480414 -0.09997095 0.2968418
-0.037627023 0.07476117 0.3453867 -0.40406907 -0.23898079 -0.11417778 -0.14532262 0.35239854
-0.26439947 -0.20435454 -0.27615872 -0.37729177 -0.2716217 0.37350115 0.18144095 0.16759697
0.008718679 -0.19268695 0.03683774 -0.34657207 -0.30089703 -0.22408424 0.27055633 0.22572401
-0.17468917 0.019522138 0.25688297 0.41436052 0.15697189 0.04160366 0.25359708 -0.21681283
0.057109922 -0.2996361 -0.3062814 -0.23974864 0.22104193 0.16113417 -0.25019372 0.10824911
0.24271485 -0.03395914 -0.009828448 0.07288499 0.26987574 0.3775146 -0.31736138 -0.17207552
0.13662848 0.33963364 0.35727456 0.3532988 0.093018346 -0.37026086 0.038883008 -0.2614357
-0.36668688 0.36588886 0.29493308 -0.42605773 0.060747873 -0.038643695 -0.06826219 -0.20953389
0.14149569 -0.2520121 0.14142519 0.19920805 0.2915816 0.15961862 -0.41694245 -0.2596212
0.2299903 0.07878667 -0.33672938 -0.23903175 0.34473956 0.2620629 -0.1960012 -0.13404053
-0.38777444 0.023289125 -0.29692462 -0.31508163 -0.050629754 0.03777967 -0.14757821 0.23607808
-0.22351643 0.3844934 0.27442354 -0.36700284 -0.07789268 0.0019258421 0.076404095 0.079908155
0.19333775 0.010632365 -0.18431276 0.20198002 -0.4015333 -0.22702919 -0.09685845 -0.17186822
-0.16042377 -0.32760754 -0.11067416 0.09261132 -0.27880445 -0.04747921 0.2574948 -0.012745201
0.003133224 -0.04809843 0.06710803 0.22378035 0.36290354 0.28896502 0.40547767 -0.039753623
-0.3591246 -0.21031608 0.29264265 -0.020733405 -0.18596178 -0.30589142 -0.4055392 -0.3360927
-0.06863777 0.25280505 0.19876993 -0.38535872 0.22745113 -0.36202 -0.09505639 -0.13724335
-0.09615277 -0.09764358 -0.39785114 -0.35472143 -0.08110059 -0.015296214 -0.15421697 0.14582251
-0.39152867 -0.03186079 0.36399147 -0.19912247 0.3433891 0.14392015 -0.38613093 0.2593874
-0.059975877 -0.15747859 0.3130433 -0.3345563 0.05333384 -0.04920168 0.30658588 0.09299411
0.18246487 0.14678699 -0.12059769 -0.10012653 -0.31938106 0.2249379 0.32671455 0.27968433
-0.26011166 0.044157058 -0.27651814 -0.24134974 -0.26553765 0.1582144 -0.21890636 -0.04128865
0.039017357 0.2671465 -0.30467612 -0.30842844 -0.21481353 0.31664917 -0.15761068 0.35712904
0.13943267 0.05326152 -0.0018063028 -0.052959695 0.07311907 -0.09295848 0.0019145816 0.040355176
-0.35097936 -0.2309533 0.3549125 -0.30864078 -0.030613381 0.3793483 0.17185636 0.022994256
-0.36101902 0.18295808 -0.27562898 -0.12622523 -0.1177907 -0.039304413 0.0069855563 0.3756105
0.033884134 0.32708088 0.24446388 -0.24935696 0.17311296 -0.29766494 -0.17458428 0.11411861
0.13480261 0.33202463 -0.12934494 0.012759854 0.18090436 -0.38975024 0.32893342 -0.347663
-0.004296728 -0.06007582 -0.17298326 0.07267709 0.30390343 -0.11553798 -0.2364477 -0.16364056

blocks.block0.fc1.bias f4 [128]
00000000: cf66 a1be b884 f9bd 5ed3 0b3e fcc0 b6be
00000010: 9388 663e f582 583e 142b 7a3e c8f2 87be
00000020: 0551 cb3e c705 6fbe 1653 d03e 9190 cabe
00000030: 193d b7be 71a0 803e b32b 413d 838a e33c
00000040: 895b 65be 5860 3abe d587 f1bd cd53 c9be
00000050: 53d1 1d3c ffa9 763d d84e 823b c330 043e
00000060: 60bb c63e a838 d33d f860 09be f723 32be
00000070: 0025 82be 4812 98be 6bd4 83bd 3a9c 86bd
00000080: df0e 2f3e 5d2b 3ebe 28b9 a13e 9520 89be
00000090: ceea bf3b c425 b83e 1da6 ce3e 4a34 79be
000000a0: 1c02 9a3d ecb8 4a3d b81b 4cbe 383a 12be
000000b0: 8ed7 f33d 45e5 8bbe 4df2 863d 77d7 343e
000000c0: 97ed 2cbe e326 ab3e 8bdd 02bd 3cc7 473e
000000d0: 36d2 cc3e 1c36 ebbd 4d46 6d3e c14c dfbd
000000e0: 74b4 37bd 0c4a 8abd c553 95bb 212f 16be
000000f0: c706 c83d bcb8 c33c f9c5 833e 1d8f bdbd
00000100: ecaa 023d 1182 29be d7ba afbe de6e 2e3e
00000110: 00d4 383d 1102 34be 07c2 09be e39b d23d
00000120: 1e05 99bd 1730 8b3e d9d7 d43c dec2 203e
00000130: a1d3 333e c808 bcbd 2d47 2e3e 38a9 993e
00000140: c61e 803c f783 b13d 79aa 1a3c 5a20 963e
00000150: d549 2dbe df8f 65be 12fd 2a3e 5dca b5be
00000160: e702 d33b 382a 31be 17ab 8b3e 29fd c7be
00000170: a436 813e c997 d33e 194b b73d 06fd 1ebd
00000180: eb11 d13e b370 2fbe 8787 f8bc ae5c 37be
00000190: 911e 5fbd 15ba d13d 24f0 8f3d 57ff 94bd
000001a0: 5919 d0be ee61 e13b 8ca7 95bb 4dac 5b3d
000001b0: 17db a03e 744d ce3e bce3 79be 0899 d7bc
000001c0: 2901 2dbe bf98 c3be 501e 9cbe 1d00 c63e
000001d0: 2c26 703e e524 573e 8a0a 713e ce8b acbe
000001e0: 6937 2a3d 142b ba3e f093 6cbe b749 b83e
000001f0: df4d d73d ff27 983e c1f8 2abe 94c1 493e
-0.3152375 -0.12183517 0.13654849 -0.3569411 0.22513036 0.21143706 0.24430496 -0.26552415
0.3971025 -0.23342048 0.4068839 -0.3956342 -0.357888 0.25122407 0.047160815 0.027776008
-0.22398199 -0.18200815 -0.11793486 -0.39321747 0.009632426 0.060220715 0.003976684 0.12909226
0.3881483 0.10313541 -0.13415897 -0.17396532 -0.25418854 -0.29701447 -0.06437 -0.065727666
0.17095517 -0.1857123 0.31586576 -0.2678267 0.0058568483 0.35966313 0.4036111 -0.24336353
0.075199336 0.04949276 -0.19932449 -0.14280021 0.11906348 -0.27323356 0.06589184 0.17660318
-0.16887508 0.33428106 -0.03194956 0.19509596 0.40004128 -0.1148493 0.23171349 -0.109033115
-0.044849828 -0.067524046 -0.0045571052 -0.14666416 0.09766918 0.0238918 0.2573698 -0.09255812
0.031901285 -0.16553523 -0.34322235 0.1703448 0.045124054 -0.17578913 -0.13452922 0.10283639
-0.07471679 0.27185127 0.02598183 0.15699336 0.17561199 -0.091813624 0.17019339 0.30011916
0.015639674 0.086677484 0.009440058 0.29321557 -0.16922696 -0.22418164 0.16698101 -0.35505953
0.006439555 -0.17301261 0.2727897 -0.39060333 0.25237 0.4132674 0.089498706 -0.03881552
0.40833983 -0.17132835 -0.030338062 -0.17906448 -0.05447251 0.102405705 0.07028225 -0.07275265
-0.4064434 0.006878129 -0.0045670923 0.053631116 0.31417152 0.40293467 -0.2440328 -0.026318088
-0.16894974 -0.38202474 -0.30491877 0.3867196 0.23452061 0.21010168 0.23539177 -0.33700413
0.04155675 0.3636099 -0.23103309 0.3599374 0.105128996 0.29718015 -0.16696455 0.1970275

blocks.block0.bn1.weight f4 [128]
00000000: c5d8 7e3f d62e 803f ce9d 823f 8f1a 813f
00000010: 0268 7e3f 05f1 793f bcda 813f bbd0 7c3f
00000020: 6ba1 813f 3f99 813f 5ad2 7e3f f88e 7b3f
00000030: 1948 7a3f b7bd 803f bcba 803f 7cdb 783f
00000040: 7f02 813f fcfc 7b3f 5805 793f d4c7 813f
00000050: becf 783f f2e3 793f 2e23 823f 778c 813f
00000060: 7f92 7d3f a521 7e3f 804e 833f fd6d 7e3f
00000070: a965 843f 78e9 793f 6325 7f3f b95b 7d3f
00000080: e404 7a3f 95c0 7b3f e7c7 823f 888a 833f
00000090: f913 823f e0b7 813f 5e28 823f 893e 7c3f
000000a0: 1543 7c3f ff53 803f 972b 7b3f 07dd 7b3f
000000b0: 2e8f 7b3f 8e34 823f 3072 7c3f 1019 803f
000000c0: bfad 7d3f 8e64 813f 0fcb 7c3f 0008 763f
000000d0: 6def 803f 2a61 823f 7b59 7c3f 069c 823f
000000e0: 85aa 783f b776 7c3f ef53 823f f3c5 813f
000000f0: c6d0 7a3f cca6 823f d40d 813f 9047 823f
00000100: 2aed 813f 8873 763f 8608 7c3f 5291 7c3f
00000110: 59e6 813f 4966 7a3f 686d 803f 691c 7d3f
00000120: dd7d 7f3f dde0 813f a5a9 803f 78bb 7e3f
00000130: 5864 7d3f c76b 833f 46a0 813f a26c 7f3f
00000140: 627a 7c3f e6fc 7d3f 8143 7d3f 875e 7c3f
00000150: bcb6 7b3f b517 7c3f a7d1 823f e1c3 7f3f
00000160: 24e9 803f e9c9 823f c4f6 7b3f 8b28 793f
00000170: dec3 7d3f cebc 7c3f 60b1 7d3f f1e0 823f
00000180: fc15 7d3f 46fe 803f fab5 793f 9354 7e3f
00000190: 1717 803f 7121 853f d92d 793f 89be 7a3f
000001a0: 731c 803f 72db 823f 7870 813f 6096 813f
000001b0: e271 803f b87d 793f 88f8 7e3f d6ba 833f
000001c0: 949b 813f f09d 7b3f 0e7c 7b3f 576e 7f3f
000001d0: b1cc 813f 92bb 833f b717 833f dbd5 823f
000001e0: 5d14 803f d7ec 833f 183f 7d3f 60db 803f
000001f0: 4ade 803f f4d4 763f f7ba 813f 8516 7b3f
0.99549514 1.0014293 1.0204408 1.008623 0.99377453 0.9763339 1.0144877 0.98756
1.0127386 1.0124892 0.9953972 0.9826503 0.9776626 1.0057896 1.0056987 0.97209907
1.0078887 0.984329 0.9727378 1.0139108 0.9719199 0.9761344 1.0166986 1.0120991
0.9905166 0.9927009 1.0258331 0.9938658 1.0343524 0.9762187 0.9966642 0.9896808
0.9766371 0.9834073 1.0217255 1.0276651 1.0162345 1.0134239 1.0168569 0.9853292
0.9853986 1.0025634 0.9811339 0.98384136 0.9826535 1.0172288 0.98611736 1.0007648
0.9909324 1.0108812 0.9874734 0.9610596 1.0073067 1.0185902 0.98574036 1.0203865
0.9713519 0.98618644 1.0181865 1.0138534 0.97974813 1.0207152 1.0082345 1.0178089
1.0150502 0.96270037 0.98450506 0.9865924 1.0148422 0.97812325 1.0033388 0.98871475
0.9980143 1.0146748 1.0051771 0.99504805 0.9898124 1.0267266 1.0127037 0.99775136
0.9862424 0.9921402 0.9893113 0.9858174 0.98325706 0.98473674 1.0220231 0.9990826
1.0071149 1.0217868 0.9842341 0.9732749 0.99126995 0.98725593 0.9909878 1.0224897
0.9886167 1.0077598 0.975433 0.993478 1.0007046 1.040083 0.9733558 0.97946984
1.0008682 1.0223219 1.0112448 1.0124016 1.0034754 0.97457457 0.9959798 1.0291393
1.0125604 0.9828787 0.9823617 0.9977774 1.0140592 1.0291617 1.0241612 1.0221514
1.0006214 1.0306653 0.989244 1.0066948 1.0067837 0.9641869 1.0135182 0.9808124

blocks.block0.bn1.bias f4 [128]
00000000: 5790 6fbc 7a03 963c 2fad e73c 2b08 62ba
00000010: b9e7 58bb 4a4c 1fbc 6439 e93b dfdf acbc
00000020: 592d 363c 38a3 3d3c 3584 60ba a21b 533b
00000030: 9a44 e3bc 22ee 7fbb dd64 a03c 42ac ecbc
00000040: f4f0 0c3c 8cfe 5bbc 5205 1dbd 52ca a4bc
00000050: 2b42 f4bc 338c 9bbc 70d6 603c 57ce ab3c
00000060: c219 643c 3ba0 1abc 2101 c03c 90d3 59bb
00000070: 7b4c b53b ed56 b0bc dffc 063c 13b4 06bc
00000080: 8433 a7bc ace4 49bc 406d ac3c 4218 593c
00000090: aaa6 b73c a798 923c ea3c b93c 7ad7 55bc
000000a0: b5ad 67bc 95fb 913c 5f7b c7bc a8bd 46bc
000000b0: a8cc 2ebc ecdd 8c3c 940b a6bc 3380 ff3b
000000c0: fd6f 79bc 7249 913c 2321 f1bb e147 f1bc
000000d0: 4b72 ce3c 9c6f ae3c c508 96bc 32fe 973c
000000e0: e57b 9dbc 8861 a3bc 7154 863c aad5 563c
000000f0: afae c93c ca6b 913c ca15 f7ba 85d9 5f3c
00000100: 6e09 b93c d3d5 b0bc a355 70bc dad9 463c
00000110: 0827 813c 196b 9fbc 2187 823a 74f6 36ba
00000120: f3e8 c33c 61fd da3b fe77 b43c feed 95bc
00000130: ffe4 a7bc 021b 8d3c 7d5d b73c d5fb 623c
00000140: 706e 133d f8e1 d8bb 75df a53b 289d b5bc
00000150: 7bb3 ddbc 6ce0 a8bc d389 6a3b c173 c03a
00000160: 6ac3 a93b fd6f c63c d6ee 503c 3a43 e2bc
00000170: 08fa 18bc 53bf b6bb 0d49 47bc 1f50 933c
00000180: be6b cebc 5236 2e3c b381 a2bc d3d0 823c
00000190: d41e d33c 4fa5 d8bc 373b d6bc 321a 893a
000001a0: f06e 4e3c 9977 4a3c 0aed 9a3c 7fee b73c
000001b0: cbce 853c 7a93 0fbc c224 2dbc b565 c33c
000001c0: ce9d 833c 32ff b93c f77f e8bb d9b7 97bc
000001d0: 00ce 2b3c 2857 de3c bc22 f43c af90 b13c
000001e0: 9ff1 a23c 632a f13c 4495 9bba 45f9 f53b
000001f0: 411f 903c b0d2 9c3c 2a84 803c 4acd a9bc
-0.014621816 0.018312205 0.028280823 -0.0008622433 -0.0033097102 -0.009722779 0.007117437 -0.021102844
0.01111921 0.011574559 -0.0008564622 0.0032212515 -0.027742673 -0.003905185 0.019579345 -0.028890733
0.00860237 -0.013427388 -0.038335152 -0.020116005 -0.029816708 -0.01898775 0.013723001 0.020972414
0.013922157 -0.009437616 0.023438038 -0.0033237673 0.005532799 -0.021525824 0.008239 -0.008221644
-0.020410307 -0.012322586 0.021048188 0.013250412 0.022418339 0.017895056 0.022612054 -0.013051862
-0.014140536 0.017820159 -0.02435082 -0.0121301785 -0.010668911 0.017195664 -0.020269193 0.007797265
-0.015224454 0.017735217 -0.0073586865 -0.02945322 0.025200984 0.021293454 -0.018314729 0.018553827
-0.019224117 -0.019943967 0.016397687 0.013112465 0.024619428 0.017751593 -0.0018851098 0.013662701
0.022587504 -0.021586334 -0.014668855 0.012136901 0.015765682 -0.019460248 0.0009958484 -0.00069794734
0.02391479 0.006683037 0.022029873 -0.01830196 -0.020494936 0.017224792 0.022383446 0.013853987
0.035993993 -0.0066187344 0.0050620385 -0.022169665 -0.027063122 -0.020614825 0.0035787716 0.0014682935
0.005180766 0.024223322 0.012752255 -0.027619947 -0.009336956 -0.005577007 -0.012163413 0.01798254
-0.02519786 0.010633068 -0.019837236 0.015968716 0.025771536 -0.026446013 -0.026151283 0.0010460077
0.012599692 0.012357616 0.018911857 0.022452591 0.016333958 -0.0087631885 -0.010567846 0.023852209
0.016066458 0.022704694 -0.0070953327 -0.018520283 0.010486126 0.027141169 0.029801719 0.021675436
0.019890605 0.029439157 -0.0011870046 0.007506522 0.017593028 0.019143432 0.01568802 -0.020727772

blocks.block0.bn1.running_mean f4 [128]
00000000: 4223 0ebf 4226 bbbc e28c acbd d74b 6dbe
00000010: 1a84 233d d5dd 7abe 358e c43e b787 dcbe
00000020: e040 3f3f 117c 1abf 81be 1e3f 9514 8dbe
00000030: 0171 ce3d e984 913d 16b4 07be 854a a83d
00000040: 8c28 52bd f5bc 52bf 2d7a cf3a 7747 cdbe
00000050: 2a97 47be 31a6 a5be 1d21 5dbd 0efa 473f
00000060: b1c8 b9bb 66d1 89be 76d7 d2be 764a 17bf
00000070: 4ec6 0bbe d4a8 f0be c10b 993e a752 a23d
00000080: 9aaf 7ebe 8dc5 eebe 7412 0e3f 1b53 91be
00000090: 3b9b b0bd d141 263e a015 2f3f 3c2d adbe
000000a0: a1f5 133e 7549 58bd 4cc9 cbbe 84e5 f6bd
000000b0: 44cc a93e b4c0 6bbf a3c1 9f3c ae35 d03e
000000c0: 8bdc 60be 8237 453e bfe8 8ebe dca5 2c3e
000000d0: f37b f83e 07a8 14be 1f60 373f 9434 45be
000000e0: 3ec7 073f 98bb e73e 8d3b b33d 147f 54bd
000000f0: 122e c13d ffe3 15be 613e 913c 0c3f 1a3f
00000100: a5d9 143f 4740 eebe 1356 6dbd b927 0c3f
00000110: b0a5 e73d cd1c 8ebe d00e 6cbe ac2a 4cbe
00000120: 99c7 5abe c7e9 03be 0c51 47be 6002 443f
00000130: 04e7 3dbe 6888 28be de39 a23e 19c5 833d
00000140: 146f 2abe 3895 6a3e ccef 2abe 3d0e 523f
00000150: 42d2 2c3d 40ea 2ebe 4738 463e ab20 05bf
00000160: 4b8a 09bd 21c0 0bbf 4261 6b3e 8346 49bf
00000170: 0a2a 6e3e 5968 6c3e 9bac a93e 728b 5e3e
00000180: 558e 7d3e a220 96be bb0d 243d e0d0 cd3e
00000190: 8dd3 debe 5e6a 1dbe 8a06 0d3f f991 3f3d
000001a0: 9ead 2ebf 3a3b 933e e357 e5be 2503 883e
000001b0: a147 0a3e b765 a93e 6c80 10be 4ba6 79bc
000001c0: 300d d53c 116c 76be 8c7d 0fbe 035e f53e
000001d0: 2ed4 9e3e 307c e43d 258f 48be 10a2 3a3e
000001e0: d65e 1fbe 050c 053f 526e bfbe 5af1 543e
000001f0: 4c64 b03e 8a10 003f 48ff 3cbe 71a4 823e
-0.5552255 -0.022845391 -0.08425309 -0.23173462 0.039920904 -0.24498685 0.38389745 -0.43072292
0.74708366 -0.6034556 0.62009436 -0.27554765 0.100801475 0.07105429 -0.13252291 0.082173385
-0.0513082 -0.82319576 0.0015829258 -0.40093586 -0.19491258 -0.32353356 -0.053986657 0.7811593
-0.0056696762 -0.2691757 -0.4118001 -0.59097993 -0.13649866 -0.47003806 0.2989178 0.07925921
-0.24871674 -0.46635094 0.5549691 -0.28383717 -0.08623358 0.16236044 0.6839237 -0.33823574
0.14449169 -0.05280443 -0.39802015 -0.120554954 0.33163655 -0.92090917 0.019501513 0.40665954
-0.2195913 0.19259456 -0.27911946 0.16860145 0.48532066 -0.14517222 0.71631044 -0.19258338
0.53038394 0.4526031 0.08751593 -0.051879004 0.09432615 -0.14637755 0.01772994 0.6025245
0.581446 -0.46533415 -0.057943415 0.5474811 0.11310899 -0.27756348 -0.23052526 -0.19938153
-0.21365203 -0.12882148 -0.1946451 0.76566124 -0.18545157 -0.16458285 0.31684774 0.06434078
-0.16643935 0.22908485 -0.16693038 0.82052976 0.042192705 -0.17081547 0.19357406 -0.5200297
-0.033579152 -0.5459004 0.2298632 -0.7862322 0.23258224 0.2308668 0.331395 0.21732882
0.24761327 -0.29321772 0.040052157 0.4019842 -0.43520775 -0.15372607 0.550881 0.04677007
-0.6823367 0.28756124 -0.44793615 0.265649 0.13503887 0.33085415 -0.14111489 -0.015237401
0.026007265 -0.24064662 -0.14012736 0.47923288 0.31021255 0.111564994 -0.19585855 0.18225884
-0.15563521 0.51971465 -0.37388855 0.20795193 0.3445152 0.50025237 -0.18456757 0.25516084

blocks.block0.bn1.running_var f4 [128]
00000000: b294 cb3c 0e86 783c 33f3 c33c bfe2 023d
00000010: 8b69 003d af71 113d c4ab bc3c 87f1 e93c
00000020: 9194 ea3c 037b f53c 59ee 933c 53bd 003d
00000030: 408b 253d 8182 3f3d a187 a13c d357 f93c
00000040: 383c 013d b074 ef3c 2be7 f33c aa6d 8d3c
00000050: 909d df3c 5e3d b43c cb55 733c c7be fc3c
00000060: 262d e33c 379f 1a3d 8da2 973c 02bb b03c
00000070: 98d9 f33c 1b7e 053d 0f29 8e3c 8c45 f43c
00000080: f479 ca3c 7883 ef3c 77b8 dc3c eaf8 303c
00000090: a217 233d c1b2 bc3c 9f55 fc3c b2ad c83c
000000a0: a6c8 e93c e103 9b3c 85cc e63c 4e60 fa3c
000000b0: c0f9 963c aa19 043d 79d5 bc3c c5b1 e93c
000000c0: 27b4 683c ea67 cd3c 687b ac3c fd3f 913c
000000d0: 8a06 ab3c 5959 843c 3037 bf3c 7593 0e3d
000000e0: ffe8 063d 9774 093d c61d c03c 795a 9f3c
000000f0: 3f33 3c3d 1295 f83c 1f87 183d fd8f 0c3d
00000100: 9c8f d53c 0ca6 ce3c 93cb d43c 224b 233d
00000110: 43f4 a13c 84a0 d13c 9023 eb3c b6a4 ac3c
00000120: 8b43 d63c 4bc3 203d a30f fe3c c50e 163d
00000130: bc0c ca3c 00dd c13c ccb1 f33c bb3e ed3c
00000140: 346a f33c b8a0 7b3c 1666 df3c afac 1a3d
00000150: bd5c a43c 16fc 893c 528e 6d3c d430 d13c
00000160: 9cb1 343d 6a89 a23c c8b5 c83c 4d1d 3e3d
00000170: 5e7a 953c 4bb1 df3c 290c ce3c 5b12 003d
00000180: f811 223d 79fc a43c 452c 3b3d 0d7b 373d
00000190: 93bd 073d 1ff4 ae3c 0086 ec3c 69f8 263d
000001a0: 97f5 c63c b5de 723c 09d9 c53c b7b6 173d
000001b0: 132a f13c 2fb9 f33c 6dfd 083d 4999 f93c
000001c0: a57b a93c 8ff4 bd3c 4e99 ce3c a3a2 233d
000001d0: 53dc 9d3c d05b d43c 3097 053d 1259 ee3c
000001e0: 093f cb3c 39ba 083d 92b2 f93c 3c5e ba3c
000001f0: 5cff b83c 0d72 ea3c 8f8f df3c 980b 143d
0.024851177 0.01516868 0.023919677 0.031954523 0.031350654 0.035508808 0.023031123 0.028557552
0.028635295 0.029965883 0.018057989 0.031430554 0.040416002 0.046755318 0.019717993 0.030437386
0.03155157 0.029230446 0.029773315 0.017264206 0.027296811 0.022001918 0.014851998 0.030852688
0.02773149 0.037749495 0.018510127 0.021573547 0.029766843 0.032590967 0.017353563 0.029818319
0.024716355 0.029237494 0.026943428 0.010801533 0.03981746 0.023034455 0.030802546 0.024496887
0.02853806 0.018922748 0.028173694 0.0305635 0.018429637 0.032251038 0.02305101 0.02852715
0.014203108 0.025073964 0.021054938 0.017730707 0.020877142 0.016155886 0.023341745 0.034808595
0.032937046 0.033558454 0.023451697 0.01945232 0.04594731 0.03034452 0.037238237 0.034317005
0.026069455 0.025225662 0.025975978 0.039866574 0.019769793 0.025589235 0.028703481 0.021074634
0.026155254 0.039248746 0.031013316 0.03663518 0.024664275 0.023664951 0.029747866 0.028960576
0.029713728 0.015358143 0.027270358 0.03776234 0.020063752 0.016843837 0.014499264 0.025535978
0.044114694 0.019840915 0.024500743 0.046414662 0.018246826 0.02730622 0.025152283 0.031267505
0.039567918 0.02013992 0.045696516 0.044795085 0.033139776 0.02135664 0.02887249 0.040764246
0.024287028 0.014823605 0.024151342 0.037039485 0.029439008 0.029751388 0.03344481 0.0304686
0.020688841 0.023187904 0.025219586 0.039950024 0.019270098 0.025922686 0.032614887 0.029095206
0.024810331 0.03338072 0.030480657 0.022750013 0.022582702 0.028618837 0.027290134 0.03614387

blocks.block0.fc2.weight f4 [128, 128]
00000000: d875 92bd f8af 273c bb52 b13c d848 d73c
00000010: 4ff1 c23d a44f cf3d 608c c33d 48ca 3d3d
00000020: 4b52 b83d aafc bc3c be18 3bbd 3873 86bc
00000030: 034c 0f3c 23a6 0cbd 92be 883d da2d 413d
00000040: 4f56 213b ce77 f73c eea8 923d b5ae 703c
00000050: b31c 82bd fe1c 90bd f42f 563d 5b99 123d
00000060: 2503 4a3d 4d9e a3bd ae8f bfbd 57db 173d
00000070: cfcf 933d 95b4 82bd cb4f ab3c ba84 94bd
00000080: 6363 8c3d bdc6 0a3d 9842 e53d e701 d0bd
00000090: a0ba ccbd ebfa a13d 1f52 a83d 3a1b 213d
000000a0: 62b2 9b3d 9f41 b9bd a1d8 503d 3f74 bcbd
000000b0: 6032 973b 8841 51bd de58 59bc bb1e 253d
000000c0: cd2a 36bc c4f9 1d3c e63b 96bd 67b4 8cbd
000000d0: 2c6a bf3c f35d 47bd 6906 0bbd 50fd 53bd
000000e0: dd13 49bd 6f8c 8bbd c02b b13d 1a4c 843d
000000f0: 3d50 573b d4a4 81bd 677b bd3c 3a34 49bc
00000100: 261b e6bc d499 e93b 7e7f a83d cb5d b1bd
00000110: 5faa 88bd 6aed 553b 774e a63d 107e 8cbd
00000120: c375 2e3d 24cc 4d3d 840b 1c3d 2be1 f83b
00000130: a080 d43d f3d6 8d3d 158b 00bd 38b8 a7bb
00000140: 1380 293d ed99 8c3d 2aeb 9fbd 2408 4b3d
00000150: e71c 29bd 1cdb 9cbd 077e 133d d84c 68bd
00000160: dfae c23c 837f 42bd 0f10 94bd 75c5 1bba
00000170: 5a5c 33bd eec3 2a3d 9ea2 f43c f9ec 643d
00000180: 8968 bb3c 5374 5cbc 8f04 463d 9d10 843b
00000190: 239a b43c 1166 03bc 1d09 22bc ab77 02ba
000001a0: 84ac e6bc e362 3dbd 2eeb 92bc 73a3 9fbd
000001b0: f20d 50bb ba11 4f3d 8e97 9ebd b1ee 2ebd
000001c0: c508 893a b4fb 12bd b383 df3b 89de 003d
000001d0: d82f e93c 7443 62bd 61be e63b 62ae 053d
000001e0: 8fe7 7e3d 83b2 c6bc eed0 23bd 78cb 853c
000001f0: 300d 903d dbce 01bd ca4c 48bd d205 373d
00000200: e563 b8bc 6a40 dfbd d57d 5abd f420 943c
00000210: 5108 4bbd 1c35 0c3d 169f 3d3d 1345 ec3c
00000220: f5fa 9cbb 76e5 24bd 3a05 3cbc e1c8 b23c
00000230: b1ec cabd d361 a4bc e4f0 c6bd 5dfa 023d
00000240: 3b25 8fbd 994a 873d d6e1 97bb 25fc 6bbd
00000250: b35e 283d 2377 d5ba 8eeb 223d 8139 9c3c
00000260: 0e8e 8fbd b92d 853d db2a d7bc 7a09 76bd
00000270: f5a9 363d 7657 443d bf14 d0bd 4319 d73b
00000280: d6d5 5b3d 23fa 083d 4725 a93d 184a 31bd
00000290: 7a25 80bd 2e18 8c3d 4200 4a3d 801d 983d
000002a0: b394 85bd 781a aabc b320 283c 8e76 95bd
000002b0: 865a 2e3d bd79 6d3d b147 8a3c 65c9 f6bb
000002c0: 1b00 3b3d 0d21 6ebd 53ab b73d 720e d1bd
000002d0: 50f2 afbd 1821 6b3c cc40 4d3d 7ea8 86bc
000002e0: f406 2e3c 05c4 4fbd 6f9a 183d dad7 fc3a
000002f0: 3b8c 293d f9a5 b03d 40ac 5f3d fc18 c8bc
00000300: 2916 39bc fac3 62bd 2feb 01bd 5121 393d
00000310: 2ba2 2bbd 0cf2 393d 79e6 e5bc 3446 25bd
00000320: f090 e7bc d955 b1bd 1c2e debb 2a43 6fbc
00000330: e5e6 0ebd fdf2 69bc 9140 953d 83aa 513d
00000340: 26cb 83bd 03e1 bd3c 5577 29bd e852 87bd
00000350: 3bfd 353d 30a2 39bc 2b7c 60bd 810c a4bd
00000360: f287 f3bc 5d25 4b3c 26c1 bebd 24e7 b3bd
00000370: 0816 d7bb 35e5 a0bd fa72 aabd 0562 45bd
00000380: 3877 44bc bc6c bcbd bf6b 94bd 3e76 bc3c
00000390: e7d2 bcbd c3eb d6bc 45f3 5ebd 7462 7cbd
000003a0: 170f dd3c feb8 babd cc5a b5bd bd45 853d
000003b0: a6f7 403d 8d69 773d e07a 14bd c449 29bd
000003c0: 56d9 fabb 46e2 afbc 4ceb 493d b96a b3bd
000003d0: 700e 7f3c 5e1f 133d 7961 91bd 29c6 c5bc
000003e0: 98ba 4a3d ea07 adbd a7db ab3c 8d28 90bd
000003f0: da88 b93c 66c9 b6bd 689d 223d e0ca cabd
-0.07151383 0.010234825 0.021645894 0.026279852 0.09518682 0.10122612 0.09548259 0.04633549
0.09000071 0.023069698 -0.045677893 -0.016412362 0.00874615 -0.034338128 0.066769734 0.047162868
0.0024618094 0.030208495 0.07161127 0.014690091 -0.0635313 -0.0703678 0.052291825 0.035790782
0.049319405 -0.07989178 -0.093535766 0.037074413 0.07217371 -0.063820995 0.020912072 -0.07251878
0.06854894 0.033880938 0.111943424 -0.10156613 -0.099965334 0.07909187 0.08218788 0.039332606
0.07602383 -0.09045719 0.050987843 -0.0920186 0.0046141595 -0.051087886 -0.0132658165 0.04031251
-0.011118603 0.009642068 -0.073356435 -0.068703465 0.023366056 -0.04867358 -0.03394166 -0.05175525
-0.04909121 -0.06813895 0.08650923 0.06459828 0.0032854222 -0.063302666 0.023130132 -0.012280518
-0.028089117 0.0071289334 0.08227442 -0.08660468 -0.06673121 0.003264273 0.08120435 -0.06859982
0.042592775 0.05024351 0.03809692 0.0075952015 0.10376096 0.06925764 -0.03138264 -0.005118396
0.041381907 0.068652965 -0.07808526 0.04956831 -0.04128733 -0.07658979 0.03600886 -0.05671391
0.023765026 -0.047484886 -0.072296254 -0.0005942204 -0.043789245 0.04169076 0.029862698 0.055890057
0.022876995 -0.013455468 0.04834419 0.004030301 0.022046154 -0.00801994 -0.009889868 -0.00049769384
-0.028158434 -0.046236884 -0.017934408 -0.07794847 -0.0031746593 0.050554015 -0.077437505 -0.042708103
0.0010454884 -0.035884574 0.0068211197 0.031462226 0.028465196 -0.05524011 0.007041738 0.032637008
0.06223255 -0.024255043 -0.039994173 0.016332373 0.07033765 -0.031691413 -0.048901357 0.044683285
-0.02250857 -0.10900958 -0.05334266 0.01808212 -0.049568478 0.034230337 0.046294294 0.02884153
-0.0047906586 -0.040257894 -0.0114758555 0.021824302 -0.099084266 -0.020066177 -0.09713915 0.031977046
-0.06989523 0.06606025 -0.004635076 -0.05761351 0.041105937 -0.0016286116 0.039775424 0.019070389
-0.07009517 0.065028615 -0.026265552 -0.06006763 0.044595677 0.04793497 -0.10160207 0.0065642907
0.053670727 0.033441674 0.08259063 -0.043283552 -0.06257148 0.068405494 0.049316652 0.07427502
-0.06522503 -0.020764574 0.010261702 -0.07298003 0.0425668 0.057977427 0.016879888 -0.0075313323
0.045654397 -0.05813699 0.089682244 -0.10207833 -0.08591139 0.014351152 0.050110623 -0.016437765
0.010621775 -0.05072405 0.037256654 0.0019290403 0.0413935 0.08625407 0.05460763 -0.024425976
-0.011296787 -0.05536268 -0.03171843 0.04519779 -0.041902702 0.04539685 -0.028064 -0.040350154
-0.028267354 -0.08658952 -0.006780399 -0.0146034155 -0.034888167 -0.014279124 0.07287706 0.051188003
-0.06435232 0.023178583 -0.04137357 -0.0660761 0.044430953 -0.011330172 -0.054805916 -0.080101974
-0.02972791 0.012399045 -0.09314184 -0.08784321 -0.0065639056 -0.07856218 -0.08322711 -0.04818918
-0.011991315 -0.09200427 -0.072471134 0.023005601 -0.09219914 -0.026235467 -0.05443122 -0.06161733
0.026984734 -0.09117316 -0.08855209 0.06507442 0.047111176 0.060403395 -0.036249995 -0.041330114
-0.007655303 -0.0214702 0.049296662 -0.0876059 0.015567407 0.035918586 -0.070986696 -0.024142342
0.049494356 -0.08448775 0.020978762 -0.070389844 0.022648264 -0.089251325 0.039700896 -0.099019766

blocks.block0.fc2.bias f4 [128]
00000000: f6e3 f7bc 3ca0 87bc 9487 3c3d 0c61 36bd
00000010: e302 a3bd d630 b4bd b96f 59bb 3463 073d
00000020: 4a0e 2b3d 8ad7 12bd d096 df3b 7f83 3e3c
00000030: 2893 4c3d 963c 60bd 6128 843d 8663 a8bc
00000040: d3f5 0a3d a865 95bd abb7 ffbc 9fb4 42bd
00000050: 88e9 41bd 71ba 88bd 69c7 973c e402 a63d
00000060: 56ad 863d fe0b 59bd cfa5 11bc 3a56 c8bc
00000070: 59dd 1cbd 1dbf 07bd af86 8b3c 6bea 2fbd
00000080: 4324 78bd d7a8 6d3c 460d a33d 46ed 5fbb
00000090: 4c46 a13d d57e 65bd 8594 a63d 45e2 8dba
000000a0: 908f 4f3d bf4c 943c 2d14 e93c b921 96bd
000000b0: dde5 82bc d5f9 dbbb 080e 60bc dd89 683d
000000c0: cb94 01bd e872 0fbd f39a 85bd a17d 023d
000000d0: ce78 9a3d e1b5 463c 7937 4bbd 700c 283d
000000e0: dfd7 4b3c 3e86 643d 3ce5 073a 9fdf b83d
000000f0: 6757 a33d be09 66bd fc50 903d b5dd 10bd
00000100: 2370 a9bd d5a1 ab3d 6868 33bd b39f 753c
00000110: 5b12 a83d 1265 4cbd 352c 833d 60e6 743c
00000120: 5d17 a93b 208a 2a3d d160 48bd 051b 1ebd
00000130: 301a 9dbd b34d 923d dd51 01bd 0c62 833d
00000140: 3e1a f83b 392b 0fbb 57a5 913d 2d86 2f3d
00000150: d7e5 3c3d 5f3c 02bc 8877 e23c fc44 9ebd
00000160: 8011 263b c30c 783a 94b7 95bd f193 e3bb
00000170: a238 fe3c bf8e 633d 18ba 883b c266 0abd
00000180: 468a 3fbd 1e0d 81bd 9fb5 1ebd 7cf4 30bd
00000190: f635 86bd 3039 cd3c e556 78bd c524 2cbb
000001a0: 3e1b 603d 94c2 55bd c065 603d 8a80 95bd
000001b0: f8e9 98bd a34d b13d 83c3 23bd 5070 9f3d
000001c0: 2e6f a43d 5351 af3c 7353 3fbd ce92 e53c
000001d0: 0e05 2e3c 999c d53c 18e8 293c 7918 b93d
000001e0: f576 283c 7b26 3a3d ca69 21bd c3b3 f5bc
000001f0: 1173 9a3d 605d 14bc 210e 0b3d 5f02 22bd
-0.030260067 -0.016555898 0.046027735 -0.044526145 -0.07959535 -0.08798377 -0.0033178164 0.03305359
0.041761674 -0.035850085 0.006823398 0.011628031 0.049945027 -0.05474528 0.06453014 -0.020555269
0.033925842 -0.0729478 -0.03121551 -0.047535535 -0.047341853 -0.06676186 0.018527703 0.0810602
0.0657603 -0.052989952 -0.0088896295 -0.024455179 -0.03829703 -0.033141244 0.017031996 -0.042948168
-0.060581457 0.014505587 0.07961516 -0.0034168526 0.07874736 -0.05602916 0.081337966 -0.001082488
0.05067402 0.018103002 0.028452003 -0.07330651 -0.015978748 -0.006713132 -0.01367522 0.0567721
-0.03163604 -0.035021693 -0.06523695 0.03185809 0.07542573 0.012128324 -0.04961345 0.041027486
0.012441604 0.055792086 0.0005184 0.09027027 0.07975655 -0.056161635 0.070466965 -0.035367686
-0.082733415 0.083804764 -0.04380074 0.014991689 0.08206626 -0.049901076 0.06404916 0.014947504
0.005160256 0.041635633 -0.048920456 -0.038599987 -0.076710105 0.07143726 -0.03157221 0.06415185
0.0075714877 -0.002184583 0.07111614 0.04285257 0.04611763 -0.007948964 0.027644888 -0.077280015
0.002534002 0.0009462351 -0.073104054 -0.006945126 0.031032864 0.055556055 0.0041725747 -0.033789404
-0.046762727 -0.0630133 -0.038747426 -0.04320191 -0.06553261 0.025051683 -0.060629744 -0.0026267034
0.05471348 -0.052187517 0.054784536 -0.072999075 -0.07466501 0.08657386 -0.039981376 0.07785094
0.08029018 0.021401083 -0.046710443 0.028024103 0.010621322 0.026075648 0.010370277 0.09037871
0.010282268 0.045446854 -0.03940753 -0.029992944 0.075414784 -0.009055465 0.03394902 -0.039553043

blocks.block0.bn2.weight f4 [128]
00000000: a152 7c3f 8d81 813f c82c 823f 56c3 7d3f
00000010: 900f 833f 2e02 813f ffb3 7b3f 0aef 7b3f
00000020: 70fc 7f3f c093 813f b5b5 7f3f 2d97 823f
00000030: a956 7a3f 19ba 813f 4ba0 7d3f 8a24 7d3f
00000040: 7c34 813f f6c4 7e3f b20f 833f 738e 803f
00000050: 96c1 7b3f 35a2 823f 831e 7d3f a24f 823f
00000060: 8606 7f3f 1871 823f 2f6d 7c3f 61e7 7d3f
00000070: f910 813f 7657 833f 8e47 823f 8da6 7c3f
00000080: ac8b 833f ac52 803f 91f9 813f d5fa 823f
00000090: 94e9 823f 1656 7a3f c1c4 7c3f d365 803f
000000a0: 423c 833f 1bc0 823f 5f5f 7d3f e4f8 7f3f
000000b0: 1cdf 803f 2f2e 813f 327f 7b3f 55d9 823f
000000c0: 24c7 7c3f c204 803f ac33 823f 80e2 7b3f
000000d0: f1ff 813f d73b 7d3f eb14 7c3f a86d 7c3f
000000e0: a304 823f e82c 7c3f 0bf2 823f 339a 7a3f
000000f0: 13f5 7c3f 1a92 823f bd42 7d3f f85d 823f
00000100: 5feb 813f 2d86 7b3f a6fc 823f d0bc 7b3f
00000110: 7a01 7e3f b113 7d3f d7f5 813f 702a 7c3f
00000120: da99 813f 8bbc 823f d848 833f 32a9 7e3f
00000130: 1d26 803f cdeb 7f3f e085 7b3f 86f5 803f
00000140: ffd9 823f 8d08 7b3f 26d4 7b3f a030 7b3f
00000150: bdb7 813f 2ea6 813f 7383 833f a46a 7b3f
00000160: 4c05 7d3f 145e 823f 9607 7c3f af4b 843f
00000170: 80c6 7b3f 90db 813f 0f68 823f 7f8a 783f
00000180: 2982 813f 49b8 7a3f 601e 823f 99b9 823f
00000190: a825 7a3f 91a8 833f 1621 7c3f ddd0 7f3f
000001a0: f8f6 823f fb38 823f aa90 7f3f 9b31 7f3f
000001b0: 8f17 813f f911 833f 4cd5 833f 6005 7c3f
000001c0: b3d1 7e3f 34d7 813f bdca 843f 1082 823f
000001d0: 84ef 813f e672 823f d542 823f 75bb 7b3f
000001e0: 5a31 7e3f 8ddc 7f3f 97f4 813f b3e9 7d3f
000001f0: 056e 813f 2161 833f f22e 7d3f 8d7b 7e3f
0.9856358 1.0117661 1.0169916 0.99126184 1.0239124 1.007879 0.9832153 0.9841162
0.99994564 1.0123215 0.9988664 1.0202385 0.9778848 1.0134917 0.9907271 0.9888388
1.0094142 0.9951929 1.0239165 1.0043472 0.98342264 1.0205752 0.9887468 1.0180552
0.9961933 1.0190763 0.986041 0.9918118 1.0083305 1.0261066 1.0178087 0.98691636
1.0277 1.002523 1.0154287 1.0232798 1.0227532 0.97787607 0.9873772 1.0031074
1.0252764 1.0214876 0.9897365 0.9998915 1.0068088 1.0092219 0.9824096 1.0222574
0.98741364 1.0001452 1.0172019 0.98392487 1.0156232 0.98919433 0.9846942 0.9860482
1.0157665 0.9850602 1.0230116 0.9789154 0.98811454 1.0200837 0.9892996 1.0184927
1.0149955 0.9825161 1.0233352 0.9833498 0.99221003 0.9885817 1.0153149 0.98502254
1.0125077 1.0213789 1.0256605 0.9947692 1.0011631 0.9996918 0.9825115 1.0074928
1.0222777 0.9805992 0.9837059 0.9812107 1.0134197 1.0128839 1.027449 0.98209596
0.9883621 1.018496 0.98449075 1.0335597 0.9834976 1.014513 1.0188006 0.9708633
1.0117847 0.97937447 1.016552 1.021289 0.9771371 1.0285817 0.98487985 0.99928075
1.0231619 1.0173639 0.99830115 0.99685067 1.0085315 1.023986 1.0299468 0.984457
0.99538726 1.01438 1.0374371 1.0195942 1.0151219 1.0191314 1.0176646 0.9833291
0.99294055 0.9994591 1.0152768 0.9918472 1.01117 1.0264016 0.9889976 0.99407274

blocks.block0.bn2.bias f4 [128]
00000000: fc1d 94bc 72ec df3b 7d20 a23c ea4b 32bc
00000010: 3ace 003c c8aa 11bc f9d1 acbc 4ae5 85bc
00000020: 0489 8e3c b9eb 8a3c 0ea1 a63a df68 933c
00000030: 241f 84bc 547f b3bb 0ac2 37bc 196a 76bc
00000040: 6ff7 803c 569a 63bc ffad b53c dea5 8a3c
00000050: 03cf f8bc 57d7 38bc 28ae 5ebc 8910 813c
00000060: 15ce bbbb e8bf 893c 8295 95bc ff50 363c
00000070: 9a24 113c d710 c43c 89b7 803c 9840 c7bc
00000080: 0db3 a83c ad06 74bc 4214 213c 3cb8 2e3a
00000090: 5a03 9a3c 8f1d 90bc fa8e 66bc 7c67 4b3c
000000a0: c325 9a3c 9d7c a53c 7892 45bc a2b0 54bb
000000b0: f283 193c 3d0e 7e3c b587 82bc 8fb7 8fbc
000000c0: c5ad 58bc 3a2d e4bb 0381 a23c 74a7 92bc
000000d0: 1392 973c eafb 8fbc 928b 80bc c1cb 86bc
000000e0: 1853 123c daed 8dbc 94cd af3c 9fc9 9cbc
000000f0: b8cb 35bc af62 873c d9eb 90bc b889 903c
00000100: d2c7 953c a70f a8bc bd4a 6b3c 624f c9bc
00000110: f88e 6fbc db41 95bc a106 9f3c 183e b0bc
00000120: d833 8a3c 91a9 a53c 10ef 903c c53c 133c
00000130: 0a33 37bc ebea 69bc 866e 7fbc 8ece a8bc
00000140: 50ba a83c 8017 98bc 3b2f 8ebc 5084 80bc
00000150: 0f4a 8f3c 7a0f 963c 3139 aa3c b73e 78bc
00000160: 4337 6abc 0bbe 24bc c0a4 82bc 0c86 b93c
00000170: 46fa 87bc 65a8 943c 33c3 a03c a06d a8bc
00000180: b72e 423c 7db9 9dbc 92cd 923c b51c 923c
00000190: 1369 afbc 762d ac3c d7d5 28bc 6cf9 23bc
000001a0: 64e8 9e3c 7dba 833c a703 41bc 275e 2cbc
000001b0: 7f7e 513c e85d 7f3c 43ce 9e3c d2b1 84bc
000001c0: 0dc1 8cbc 8ee3 723c 69f5 35bc e678 8c3c
000001d0: 66fc 903c 14a4 9b3c b156 f53b 1c62 83bc
000001e0: 9a9f 84bc f278 44bb 50b1 903c 3743 033c
000001f0: 4e85 833c e77b a33c 622e a8bc e33b 93bc
-0.018080704 0.0068336064 0.019790882 -0.010882357 0.007861668 -0.008890815 -0.021096217 -0.016344685
0.017399319 0.016958104 0.0012712793 0.017994342 -0.01612813 -0.005477825 -0.011215696 -0.015039944
0.015742986 -0.013891777 0.022177694 0.016924795 -0.030372148 -0.01128181 -0.013591327 0.015754955
-0.005731354 0.01681514 -0.018259767 0.011127709 0.008858824 0.023933811 0.015712516 -0.024322793
0.02059319 -0.01489417 0.00983149 0.00066650263 0.018800426 -0.01759222 -0.014072174 0.012414809
0.018816834 0.020201022 -0.012058847 -0.0032453914 0.009369837 0.015506324 -0.01593385 -0.017543582
-0.013225024 -0.0069633992 0.019836908 -0.017902113 0.01850227 -0.017576177 -0.015691552 -0.01645458
0.008930944 -0.01732533 0.021460332 -0.01913911 -0.011095934 0.016526548 -0.017690586 0.017643794
0.018283758 -0.020515276 0.014361081 -0.024573985 -0.014621489 -0.018219879 0.01941234 -0.021513984
0.016870424 0.020222457 0.017692119 0.008986657 -0.011181602 -0.0142772 -0.015590316 -0.020606305
0.020596653 -0.018565893 -0.017356506 -0.015688092 0.017491369 0.018317927 0.020779224 -0.015151671
-0.014295402 -0.010055075 -0.0159477 0.022646926 -0.016598832 0.018146703 0.019624328 -0.020560086
0.011851958 -0.019253487 0.01792029 0.017835954 -0.021412408 0.021017771 -0.01030489 -0.010008197
0.019397922 0.016080135 -0.011780656 -0.010520495 0.012786507 0.015586354 0.019385463 -0.016198073
-0.017181898 0.014824761 -0.011105874 0.017147493 0.017698478 0.018999137 0.007487141 -0.016037993
-0.016189385 -0.0029979316 0.017662674 0.008011631 0.016054776 0.019956542 -0.02052993 -0.017972892

blocks.block0.bn2.running_mean f4 [128]
00000000: 7cb0 0f3d 6b8a 28bf 2182 c8be 2e4e 033e
00000010: fac2 58be a0aa 3b3e 764a babe baf1 ab3e
00000020: 518e e1bd e453 a6be 4456 4f3e 75c2 bcbe
00000030: ab11 03bf e15d d83e 1c4c 59bd fcc7 b93d
00000040: 8a85 a93d 1854 ffbe 642a 32bd 8f0c cebe
00000050: 9333 42bf 7187 c2be 6485 8bbc 06a3 4e3e
00000060: ea8c 923e cf53 863d b0b4 4c3e 6644 28bf
00000070: 3954 1ebf b33f 73bf d7b1 58bd d7e2 c7be
00000080: caa9 0ebc fd77 a53e abea 593e f4e9 123e
00000090: 945d f13c 274e 2abd 6a75 e23e 08af 7ebe
000000a0: 2eef e13e 7221 07bf a0f5 7e3e 728c 15bf
000000b0: 92d7 febe 9f3c 20be eefc 113d c998 1dbd
000000c0: 736c 3dbd 3778 8fbe 947c b9be 5ffa 6b3e
000000d0: 8038 aabe 84bc 913e 11c0 283e e23f db3e
000000e0: da21 79be 68db 5e3e 5d5d b63c c50c ad3e
000000f0: 602a 413f a400 94be bd39 f73e 639c e6bd
00000100: e0e5 08bf 6388 ae3e d185 a0be d39d c0bd
00000110: 171c bfbd b048 2cbe c73d 18be 1dc8 3cbe
00000120: 3046 bdbe 466d cebe f510 b83d 60e8 23bf
00000130: 389b 393e 8aa5 1bbf 2441 5f3e 13c6 ba3e
00000140: 791d d93d 6fdb 173e 9c1d 163e 7c06 8d3d
00000150: e887 113d e479 1cbf c356 c53e 5d6d 4e3e
00000160: f8d5 d43c b169 41bb 5ec9 a13e 9995 e4be
00000170: a715 7d3b a9ec b1be e1b5 493d bad8 bb3d
00000180: 94de 803e e7c6 f4bd d713 803d 35ea 15be
00000190: 220d 46be 9d47 63be c2a2 bdbe cb85 833e
000001a0: 82f5 b13e d59e a1be 1029 e63d 6301 893c
000001b0: 090c f6be 6079 d2be 92ce 84be 5ba0 7d3d
000001c0: 2f86 883e 30cb d0be daa4 a53e bbcc 8bbe
000001d0: 62ca 833e aed8 15bf 5710 da3e 35e1 653e
000001e0: 3b5d 3abd eede 57be bb9a 913e fb59 7c3d
000001f0: 5429 24bd f12e 8bbe 0a41 cf3d da74 cabd
0.035080418 -0.6583621 -0.3916178 0.12822792 -0.21168128 0.18326807 -0.36384934 0.3358286
-0.11013473 -0.32485878 0.20247751 -0.3686711 -0.51198834 0.42259124 -0.0530511 0.09071347
0.08277424 -0.49868846 -0.043497458 -0.40243956 -0.75859946 -0.3799396 -0.017031379 0.20179376
0.28623134 0.06558954 0.19990802 -0.6572937 -0.61847264 -0.9501907 -0.052903976 -0.39040253
-0.008707473 0.32318106 0.21280925 0.14347059 0.029463567 -0.041578438 0.44230205 -0.24871457
0.44127792 -0.5278541 0.24898386 -0.5841743 -0.49773842 -0.15648125 0.035641603 -0.038475785
-0.046246003 -0.28021404 -0.36227858 0.23044728 -0.3324623 0.28464139 0.16479518 0.42822176
-0.2432932 0.21763384 0.022261316 0.33798805 0.75455284 -0.2890674 0.48286238 -0.11260297
-0.5347576 0.3408843 -0.31352094 -0.094051026 -0.093315296 -0.16824603 -0.14867316 -0.18435712
-0.3696761 -0.40317744 0.08987609 -0.6402645 0.18125618 -0.6079947 0.21802193 0.36479244
0.106013246 0.14829801 0.14659733 0.068860024 0.03553 -0.6112349 0.38542756 0.20158906
0.025980935 -0.002951246 0.31598943 -0.44645384 0.0038617642 -0.3475087 0.04924572 0.09172197
0.25169814 -0.11952 0.06253784 -0.14640124 -0.19340947 -0.22195287 -0.37038237 0.25688013
0.3475762 -0.31566492 0.11238301 0.016724294 -0.48056057 -0.41108227 -0.2593885 0.061920505
0.26664874 -0.4078002 0.32352334 -0.27304634 0.25740343 -0.5853375 0.4259059 0.22449191
-0.045499068 -0.21081135 0.28438362 0.06160925 -0.040078476 -0.2718425 0.10119827 -0.09885569

blocks.block0.bn2.running_var f4 [128]
00000000: e5c4 213e fbfc c43d 4165 633e 8a9f fa3d
00000010: 026b 073e bb65 373e b2db 883e a838 4b3e
00000020: 427c 263e fcca a03e 4495 983d 9f01 473e
00000030: 262b 8b3e e427 2b3e f142 6c3e fd6b 863e
00000040: 80f2 853e b0c6 fc3d e962 093e 3d7c a63e
00000050: 9f1a cc3e 4b63 273e dd4f 163e e796 cc3e
00000060: 9def e53d 5c9d df3d e6b5 773e 634d 303e
00000070: 88c3 473e 9b18 043e 67f9 eb3d 52c5 603e
00000080: af0e 123e 1780 fe3d f465 473e d5c6 6b3e
00000090: 3ff4 3f3e 920a 6d3e 7b95 773e 4095 0e3e
000000a0: cfee 1a3e 28eb 543e 588c 303e 4ead 3a3e
000000b0: 9b5f 313e ea8a 2a3e da71 753e 0bd7 823e
000000c0: 2d3d 4d3e c2da 353e ac12 9a3e ae32 033e
000000d0: cb15 0f3e 4ea2 0e3e cf0f 613e 4f50 1b3e
000000e0: cdf9 f23d 4d36 163e f915 303e f7d1 8a3e
000000f0: 1192 5d3e 1477 903e aeb2 0b3e 5f3f 773e
00000100: c6c8 233e 9bde 8d3e 2d94 553e 3ce0 9a3e
00000110: 5506 a63e f31e 9d3e f6bb 383e 6645 293e
00000120: 91e4 e23d 0c6d b53d 93a0 1a3e 73cf 043e
00000130: d245 1b3e 0b0e c93d 14f1 763e 060e 5c3e
00000140: 6085 bf3d 4c41 aa3e a365 373e 1c5a 0e3e
00000150: a10c 3d3e 002a da3d 633e ed3d bf04 983e
00000160: 90cf 7f3e 7699 083e eb76 573e 43ed b33d
00000170: a986 953e 47fe b83e b655 0e3e c45e 0f3e
00000180: 90dc 0c3e 6551 933e 0682 383e 9c54 053e
00000190: dadb 3a3e b6d5 c63d f94f 353e 2c3c 183e
000001a0: 901b 0d3e 80b1 5a3e 272b 723e c680 0d3e
000001b0: 638d 353e a41a 473e dee2 843e f96e 843e
000001c0: 0e21 263e 754d b93e e717 a43d 286c 033e
000001d0: 41cf 093e c86b 263e 9c61 2a3e 37c7 683e
000001e0: eaa6 2a3e 066f 6c3e 8197 963e d019 3a3e
000001f0: 0ddf 713e 78ff 113e 22e9 353e 0a50 8e3e
0.15797766 0.09618565 0.22206594 0.12237461 0.13224414 0.17909901 0.26730114 0.19845831
0.16258338 0.31404865 0.07450345 0.19434212 0.27181357 0.16714436 0.23072411 0.26254264
0.26161575 0.12342584 0.13416637 0.3251666 0.3986406 0.16346471 0.14678903 0.3995888
0.11227343 0.10918686 0.24190482 0.1721702 0.19508183 0.12900011 0.11522179 0.21950272
0.14263414 0.12426775 0.19472486 0.23025067 0.18745516 0.23148564 0.24178116 0.13924122
0.15130161 0.2079283 0.17241037 0.18230173 0.17321627 0.16654554 0.23969212 0.2555469
0.20042868 0.1775923 0.3009237 0.12812302 0.13973157 0.13929102 0.21978687 0.15167354
0.11864052 0.14669152 0.17195882 0.27113315 0.21637751 0.2821585 0.1364238 0.24145268
0.15994558 0.27708897 0.20857306 0.30249202 0.32426706 0.30687675 0.18040451 0.1653038
0.11078752 0.0885869 0.15100317 0.1296976 0.15163353 0.098171316 0.24115402 0.21489725
0.09351611 0.33252943 0.17909865 0.13901561 0.18461849 0.10652542 0.11584165 0.2969112
0.24981523 0.1333979 0.21041457 0.087854885 0.292043 0.36131498 0.13899884 0.14000994
0.13756013 0.28773037 0.1801835 0.13020557 0.18247929 0.09708731 0.17706288 0.14866704
0.13780046 0.21356773 0.23649274 0.13818654 0.17729716 0.19443756 0.25954336 0.25865915
0.16223547 0.36191908 0.080123715 0.12834227 0.13457967 0.16252053 0.16638798 0.22732244
0.16665235 0.23089227 0.29412463 0.18173909 0.23620243 0.1425761 0.17764714 0.2779544

blocks.block0.shortcut.0.weight f4 [128, 6]
00000000: 1a86 8b3d d191 a4be 6963 863d 1d73 973d
00000010: 5b83 8cbc 7b79 263e 3d4a 3b3e adfe 8d3e
00000020: d868 c5be cafb 63bc 6b7b 843e ada1 903e
00000030: 5470 9bbe d71b 83bb df71 49bb 90b8 a9bd
00000040: 6f44 373e 5acd 2f3e 5367 c3be 8f4a 933d
00000050: f8cc 5bbe 16e9 473e 8c32 18bd 5f0d 5f3d
00000060: bf57 91bd dee9 a13e 0c7f a2be c856 363e
00000070: d156 d53e 6049 31be 56be 9a3d 1306 6fbe
00000080: 2e5b 64be 8cbf 53be 719b 363e c6a3 833e
00000090: 4dac 84bc 48d5 b0bd cb85 9dbe fced 523e
000000a0: 7f50 2f3e 5790 6dbc 8a44 5ebe 37ca 4e3e
000000b0: 1c4f 83be a41f 973e ebc5 98be 2a4e 253e
000000c0: b92a a2be 233d ac3d f4f0 ce3e 9558 8c3e
000000d0: e655 99be fab8 d3bd 3129 493d 5a5a 23be
000000e0: 01ed 85bd 1799 933e c258 9bbe b802 acbe
000000f0: 6053 b7be 9263 38bc aa36 73bd 8d5e cc3d
00000100: 5f18 46be 4384 5abe 0cde 22be 3c62 1b3e
00000110: b0e1 c23e 8e88 b9be 334b 5c3e e22d 993e
00000120: fdbf 82be 4e7e 4ebe bace a53e 46ac 2dbe
00000130: faf9 813e 8a4c 863c f316 c4be 654e 5f3e
00000140: 373c 6c3d 223f 74be b13b b63d 1556 14be
00000150: d951 58be 88c4 d5bd 1b74 a4be c3c1 cfbe
00000160: c97e edbc e3ac 88be a47e 2f3e 1cc9 953e
00000170: 747a 04bd fd21 b3be c850 b5be 7206 543e
00000180: a6dd 2d3d d515 b3be b408 3abe dda9 123e
00000190: 14d1 ab3c 516a 423e 63d5 c13e 915c f7bd
000001a0: 8481 e1bd 9a2a d7be d421 cd3e 4971 03bd
000001b0: 5a5a c3bd f949 2cbc e258 4bbe 235c 3f3d
000001c0: 4a69 923e 433a 173e c699 d93d 99dc 43be
000001d0: f344 5f3e 38d8 d23e 1458 b2be 33e9 62be
000001e0: e310 d53e 7c04 a83e 5f79 0d3e d487 b63e
000001f0: 55cc 803c d13a cb3d 7476 2c3e a8b6 b83e
00000200: 713c 96be c52c 493e d475 393e b6b4 4bbe
00000210: e540 0bbe c805 283e d827 67be 91a5 703e
00000220: 9a64 923e 4bbd 453e 62db 44be 0918 bb3e
00000230: 1c14 313e 3206 d9be 0c68 bdbe d812 243e
00000240: d76b 4e3e 7e99 c63e ccec a43e db6f 723e
00000250: 5973 c8bd 04d7 96bc 5433 8cbe cb9d 1abc
00000260: 3dd4 c63d f743 2e3e 8317 8b3d 8e98 8a3d
00000270: 96c0 8f3c 9623 90be 10c6 3fbe 0127 ccbd
00000280: 6c59 073e c19c cd3b 2a71 81be 1889 64be
00000290: d095 e5bd 9339 b43e d531 763e 15e3 a3be
000002a0: ab7b 4fbe bfe9 063e 153e 18be 678b 07be
000002b0: d5e9 b1be 57f0 86bd 3dcf f63d 815c ad3e
000002c0: cb5a 10be 3d48 3fbe d51d 3d3d bb52 d13c
000002d0: 37d1 7c3d 19d5 cfbe 5b02 993e 8f71 903b
000002e0: 2a45 2ebd c4c8 e9bd 67cd b3be a096 ccbd
000002f0: 7099 b8be 29b8 263e 9a41 77be 1439 cabe
00000300: f2af 70be 3a27 473e ed46 81be 521c 94be
00000310: 2b2a 29be 3f01 b63e cad1 853e 10d0 f73d
00000320: f424 afbd 4220 39be 72ae 943d d551 8c3e
00000330: bdf7 adbe a0ae b53e 4a2a b5be 15df b1be
00000340: a7f0 d1be d00d cb3d 52b2 4a3c a88b 0f3e
00000350: 2f05 99be 9c81 78be 87f1 3b3e ef8d 8d3e
00000360: a09c c0be 216f 3d3d b996 3fbd dd7c e3bd
00000370: 1f26 ed3d 2382 8fbe 5c19 443e b7bc 37be
00000380: 8775 8d3e c83e f5bd e128 8a3e 324e 8bbe
00000390: 4866 c7be 7111 d13e 483d 02be 787b b6bb
000003a0: 9619 973e 87a4 b23e f181 c93d afe1 b7be
000003b0: fd2a 8abe 7dfd 863e 63f9 003e 4a7c 5c3e
000003c0: e0a9 00be e99c d1be 7c84 adbd 9d9b 0e3e
000003d0: bb4e 853e ab96 80be 3ab6 39be ab68 b73e
000003e0: ce95 b43e ae83 be3e 6622 9d3e 8141 c53d
000003f0: 5499 78bc f29e 98be b9c2 1ebe b07b c9be
0.06812687 -0.321425 0.0656193 0.07395003 -0.017152479 0.16257279 0.18290038 0.27733365
-0.38556552 -0.013915012 0.2587541 0.2824835 -0.30359137 -0.0040011215 -0.0030738038 -0.08287156
0.17897199 0.17168179 -0.38164768 0.07191955 -0.21464908 0.19522509 -0.03715758 0.05445611
-0.07096814 0.3162374 -0.31737554 0.17806542 0.41667798 -0.17313147 0.07555835 -0.23342161
-0.22300407 -0.20678538 0.17832734 0.25710887 -0.01619544 -0.0863443 -0.30766138 0.20598596
0.1712055 -0.014499745 -0.21705833 0.20194326 -0.25646293 0.29516327 -0.298385 0.16143098
-0.3167322 0.084100984 0.40418208 0.27411333 -0.29948348 -0.10338016 0.04911155 -0.15952435
-0.065393455 0.28827736 -0.30341154 -0.33595824 -0.35805798 -0.011254208 -0.059378304 0.09978972
-0.19345234 -0.21339516 -0.15905017 0.15174192 0.3806281 -0.36236995 0.21513061 0.29917818
-0.255371 -0.20165369 0.32384282 -0.16960248 0.2538603 0.016393919 -0.3829876 0.21807249
0.057674613 -0.23852208 0.08898104 -0.14485963 -0.21124972 -0.10437876 -0.3211983 -0.40577516
-0.02899112 -0.26694402 0.17138153 0.29254997 -0.032343343 -0.34986869 -0.35413194 0.20705584
0.04244771 -0.34977594 -0.18167382 0.1432261 0.02097372 0.18985869 0.37858114 -0.120782025
-0.11011031 -0.4202469 0.4006487 -0.03209046 -0.095387176 -0.010515683 -0.19858125 0.046718728
0.28595954 0.14768319 0.10625033 -0.1912712 0.21803646 0.41180587 -0.34832823 -0.22159271
0.41614446 0.3281592 0.1381583 0.35650504 0.015722433 0.09923328 0.16842061 0.36076856
-0.29342988 0.19645984 0.18111354 -0.19893155 -0.13598974 0.16408455 -0.22573793 0.23500659
0.28592378 0.19310491 -0.19224313 0.36541775 0.17292827 -0.4238754 -0.36993444 0.16022813
0.20158325 0.3878898 0.32211912 0.23675482 -0.09787626 -0.018413074 -0.2738291 -0.009437035
0.0970845 0.17018114 0.06791594 0.06767379 0.017547887 -0.2815215 -0.18727899 -0.09968377
0.13217705 0.00627479 -0.2528165 -0.22317922 -0.11210215 0.35200176 0.24042447 -0.32009187
-0.2026202 0.13175105 -0.14867432 -0.13236772 -0.34748712 -0.0658881 0.12051246 0.33859637
-0.14097135 -0.186799 0.04617103 0.025552144 0.06172296 -0.40592268 0.2988461 0.0044080685
-0.04254643 -0.11415246 -0.35117647 -0.09989667 -0.36054564 0.16281189 -0.24146119 -0.39496672
-0.23504618 0.19448557 -0.25249425 -0.28927857 -0.16519992 0.35547826 0.2613662 0.12100232
-0.0855197 -0.18078712 0.07259835 0.27406183 -0.33978072 0.3548479 -0.35383826 -0.3474051
-0.41003916 0.09914744 0.012371616 0.14018118 -0.29886767 -0.24268192 0.18353854 0.2764735
-0.37619495 0.04624856 -0.0467746 -0.111078 0.11579537 -0.28028974 0.19150299 -0.17943083
0.2762873 -0.11974865 0.26984313 -0.27208096 -0.38945222 0.4083362 -0.1271869 -0.005568918
0.29511708 0.3489115 0.098392375 -0.3591437 -0.26985922 0.2636527 0.12595133 0.21531788
-0.12564802 -0.40940025 -0.08472535 0.1392655 0.2603663 -0.2511495 -0.1813592 0.35822043
0.35270542 0.3720984 0.30690306 0.096316345 -0.015173275 -0.29808766 -0.15503968 -0.3935218
