results/7DoF-7R-Panda/ResMLP_7DoF-7R-Panda_layers_1_neurons_128_batch_250000_Adam_l2_1_qlim_scale_10_samples_1000000/epoch_110.pth (torch, 90450 bytes, 20 tensors)

blocks.block0.fc1.weight f4 [128, 6]
0	0xbcbeb5c2	-0.023280028
1	0x3c249499	0.010045194
2	0xbe831206	-0.25599688
3	0xbee9b488	-0.45645547
4	0xbd924488	-0.071419775
5	0x3e2154a3	0.15754943
6	0x3c799412	0.015233057
7	0x3e8a4bb5	0.27010885
8	0xbe23dc3b	-0.1600198
9	0x3e194214	0.14966613
10	0xbcf7060f	-0.030154256
11	0xbda9e4bf	-0.08295583
12	0xbf02d4ab	-0.51105756
13	0xbe55efca	-0.20892254
14	0xbe1c0cb6	-0.15239224
15	0xbc473ea8	-0.0121609345
16	0x3e49f8c0	0.19723797
17	0x3e41265b	0.18862288
18	0xbe120df6	-0.14263138
19	0xbe289bae	-0.16465637
20	0x3e5b4b9e	0.21415564
21	0x3ec62deb	0.38706908
22	0x3c98a612	0.018633876
23	0x3ea0d7a8	0.31414533
24	0xbd0a89fc	-0.033823
25	0x3e3123fa	0.1729888
26	0x3e590dcb	0.21196668
27	0xbf047070	-0.51734066
28	0xbe33f12f	-0.17572473
29	0xbd8c0576	-0.06836979
30	0x3cddd8fb	0.027081003
31	0x3e89d31d	0.2691888
32	0xbe5dd93e	-0.21664903
33	0xbe924272	-0.2856632
34	0xbe6aff3c	-0.22948927
35	0xbee014a7	-0.43765756
36	0xbe207fc0	-0.15673733
37	0x3ec12cf3	0.37729606
38	0x3dbd09c1	0.09230376
39	0x3e6ed4da	0.23323384
40	0x3d12354e	0.035695367
41	0xbe6211ce	-0.22077104
42	0x3df1a918	0.1179983
43	0xbe670ed5	-0.22564252
44	0xbe907ba2	-0.28219324
45	0xbe73d104	-0.23810202
46	0x3e5344ee	0.20631763
47	0x3ea3759d	0.3192567
48	0xbe0b0b2d	-0.13578482
49	0x3a84c1d3	0.0010128565
50	0x3e39210b	0.18079011
51	0x3edc8bdf	0.43075463
52	0x3e323e86	0.17406663
53	0x3e02ce00	0.12773895
54	0x3e0818a5	0.13290651
55	0xbe86c04b	-0.26318583
56	0x3d93e0ee	0.07220636
57	0xbeb35821	-0.35028175
58	0xbe56502e	-0.20929024
59	0xbe92806b	-0.286136
60	0x3e25e27f	0.16199683
61	0x3e116453	0.14198427
62	0xbe720d8f	-0.23637985
63	0x3e21d5b9	0.15804185
64	0x3e630709	0.22170652
65	0xbd1f77d7	-0.038932648
66	0x3d0d748e	0.034534983
67	0x3df17789	0.11790378
68	0x3e82ef27	0.25573084
69	0x3ec7c1ad	0.3901495
70	0xbe7bc382	-0.24586299
71	0xbe585cde	-0.21129176
72	0x3e3acf85	0.18243225
73	0x3e56a88a	0.2096273
74	0x3e920a78	0.28523612
75	0x3ef30dae	0.47471374
76	0xbc86437d	-0.016389603
77	0xbed389a8	-0.4131596
78	0xbde86e46	-0.11349158
79	0xbe55009f	-0.20801018
80	0xbecdaf61	-0.40172866
81	0x3ee25f54	0.44213355
82	0x3e4c04f5	0.19923766
83	0xbec342eb	-0.38136992
84	0x3d4aad0a	0.04948143
85	0x3dbcd865	0.092209615
86	0xbde589ab	-0.11207899
87	0xbe6e228c	-0.23255366
88	0x3e1b22ee	0.15150043
89	0xbe61b3ed	-0.22041292
90	0x3df069d6	0.117389366
91	0x3e2a0c3c	0.1660623
92	0x3e8d062c	0.2754377
93	0x3e0754c1	0.13215925
94	0xbedb2b12	-0.42806298
95	0xbea07c79	-0.31344965
96	0x3e57101e	0.21002242
97	0x3d610649	0.054937635
98	0xbe9edde2	-0.31028658
99	0xbe9b996e	-0.30390495
100	0x3e307ead	0.17235823
101	0x3eb3ace9	0.35092857
102	0xbe359046	-0.17730817
103	0xbe42655e	-0.18983981
104	0xbef8b4c6	-0.4857542
105	0xbdab6b00	-0.08370018
106	0xbe4eb07b	-0.2018451
107	0xbe8b2aba	-0.27181035
108	0xbdd222e3	-0.1026056
109	0xbde80d19	-0.11330623
110	0xbe50a3ed	-0.20375033
111	0x3e50c6a7	0.2038828
112	0xbe50200b	-0.20324723
113	0x3ec265f9	0.37968424
114	0x3e6d2f15	0.23162492
115	0xbec6d17b	-0.38831696
116	0xbdeb4f06	-0.11489682
117	0x3d45f63b	0.048330527
118	0x3d0d35f1	0.03447527
119	0x3d4c6804	0.049903885
120	0x3e24ea99	0.16105117
121	0x3bec1e96	0.0072057946
122	0xbe5567de	-0.20840403
123	0x3e4d78ab	0.20065562
124	0xbeab6c21	-0.33480933
125	0xbe935817	-0.28778145
126	0xbd45a5f2	-0.04825396
127	0xbdd3efac	-0.10348448
128	0xbdf7bea0	-0.12096906
129	0xbecc4520	-0.39896488
130	0xbda08ca9	-0.07839329
131	0x3cd4e649	0.025988715
132	0xbe8a65b9	-0.27030733
133	0xbd8e700e	-0.069549665
134	0x3e84782a	0.25872928
135	0xbd9a4244	-0.075321704
136	0x3cbfd6ae	0.023417797
137	0xbcc9aa86	-0.024617445
138	0x3d4db302	0.050219543
139	0x3e14f5ef	0.14546941
140	0x3ebc178b	0.36736712
141	0x3ec39e9a	0.3820694
142	0x3e5c565b	0.21517317
143	0x3ccda661	0.02510375
144	0xbed1cbb0	-0.40975714
145	0xbe6da337	-0.23206793
146	0x3e802efb	0.25035843
147	0xbd069fb6	-0.032867156
148	0xbe0e6063	-0.13903956
149	0xbebc3781	-0.36761096
150	0xbe80915b	-0.25110897
151	0xbeb010d1	-0.3438783
152	0xbd10f9de	-0.035394542
153	0x3e3a34bf	0.18184184
154	0x3e521ec8	0.20519555
155	0xbf005e51	-0.50143915
156	0x3e37ad22	0.17937139
157	0xbeb158ed	-0.34638157
158	0xbdf795f1	-0.12089146
159	0xbe1bb9a9	-0.15207542
160	0xbd751bcb	-0.05984096
161	0xbe0a0670	-0.13479018
162	0xbee7e224	-0.4528972
163	0xbea283c5	-0.31741157
164	0xbd824c89	-0.06362254
165	0xbc959ad4	-0.018262304
166	0xbdf8aec8	-0.12142712
167	0x3dfd14a3	0.12357452
168	0xbebf09f0	-0.3731227
169	0xbcc3defa	-0.023910034
170	0x3ee0e59a	0.43925172
171	0xbe86c232	-0.26320034
172	0x3ea623e8	0.3244927
173	0x3d51ac80	0.0511899
174	0xbeb3450a	-0.3501361
175	0x3de4d5c2	0.111735836
176	0xbdda39a6	-0.10655527
177	0xbe567897	-0.20944439
178	0x3e8dc294	0.27687514
179	0xbeca6224	-0.39528
180	0xbc1d389b	-0.009596015
181	0x3ba01ce7	0.004886258
182	0x3ecb4312	0.39699608
183	0xbd21d97f	-0.03951406
184	0xbb0dd4f4	-0.0021641823
185	0x3d917fe5	0.07104472
186	0x3d16f8e5	0.036858458
187	0xbe093d28	-0.13402236
188	0xbe9485ca	-0.29008323
189	0x3e94b29d	0.2904252
190	0x3e8db22b	0.27674994
191	0x3e9bd2cc	0.30434263
192	0xbe452851	-0.1925366
193	0x3c808456	0.015688103
194	0xbe7f0382	-0.24903682
195	0xbe9e40f0	-0.30908918
196	0xbe5ac5a7	-0.21364461
197	0x3e604c49	0.219041
198	0xbdcdbb00	-0.10045433
199	0xbe931518	-0.2872703
200	0x3da6d719	0.08146495
201	0x3e867462	0.26260668
202	0xbe33bdee	-0.17552921
203	0xbeb29282	-0.34877402
204	0xbe224fdd	-0.15850778
205	0x3e421544	0.18953425
206	0xbe33c5fc	-0.17555994
207	0x3efde128	0.49585843
208	0x3e43849f	0.1909356
209	0x3d311d8f	0.04324108
210	0xbc392ed9	-0.011302673
211	0xbd74d46d	-0.059772898
212	0x3d07a349	0.033114705
213	0xbe11dd73	-0.14244632
214	0x3bfa6856	0.0076418323
215	0x3d91852a	0.07105477
216	0xbe8206c8	-0.253958
217	0xbe563453	-0.20918398
218	0x3ec337c3	0.3812848
219	0xbe644d3f	-0.22295092
220	0xbc83cdcb	-0.01608934
221	0x3eee971d	0.46599665
222	0x3d93e92e	0.0722221
223	0x3d800a5d	0.06251977
224	0xbec8cf12	-0.39220482
225	0x3e77b9d2	0.24191979
226	0xbe46065c	-0.19338363
227	0xbe65fd26	-0.2245985
228	0x3df636b0	0.120221496
229	0x3d9866b0	0.07441461
230	0x3e29d362	0.16584542
231	0x3eab288c	0.33429372
232	0x3a79bd7a	0.00095268304
233	0x3eaacd60	0.33359814
234	0x3e18bc97	0.14915691
235	0xbe56e359	-0.20985164
236	0x3e17eb05	0.14835747
237	0xbea026ed	-0.31279698
238	0xbdb67866	-0.08909683
239	0x3e3a575d	0.18197389
240	0x3e0e60f6	0.13904175
241	0x3e50e3d2	0.20399407
242	0xbe016634	-0.12636644
243	0xbd3a03bf	-0.04541373
244	0x3e1f0230	0.15528178
245	0xbee997ed	-0.45623723
246	0x3e7f15f8	0.24910724
247	0xbec9e0d6	-0.3942935
248	0xbccef749	-0.0252644
249	0xbd9cf0ff	-0.07663154
250	0xbe32f14d	-0.17474861
251	0x3dbc66f7	0.091993265
252	0x3ea664f5	0.324989
253	0xbd783a03	-0.0606022
254	0xbe593a4f	-0.21213649
255	0xbe158b80	-0.14603996

blocks.block0.fc1.bias f4 [128]
0	0xbe9a809e	-0.30176252
1	0xbdea0904	-0.11427501
2	0x3dfd1427	0.123573594
3	0xbeb531a2	-0.3538943
4	0x3e65a979	0.2242793
5	0x3e5eb1c7	0.21747504
6	0x3e753455	0.23945744
7	0xbe8ba12f	-0.2727141
8	0x3ed56454	0.41678107
9	0xbe80685a	-0.25079614
10	0x3edea912	0.43488365
11	0xbece6518	-0.40311503
12	0xbeb3b129	-0.350961
13	0x3e7b161f	0.24520157
14	0x3d51bc45	0.05120494
15	0x3d170e33	0.036878776
16	0xbe625b7e	-0.22105214
17	0xbe3878e2	-0.18014863
18	0xbdf4b5cf	-0.1194874
19	0xbecee97e	-0.40412515
20	0x3bb8b547	0.0056368443
21	0x3d91545c	0.070961684
22	0x3a5c1b77	0.00083964266
23	0x3e1af18a	0.15131202
24	0x3ec78da0	0.3897524
25	0x3dccce02	0.1000023
26	0xbe3094d5	-0.17244275
27	0xbe4ec16c	-0.20190972
28	0xbe852d1f	-0.26010987
29	0xbe941c37	-0.28927776
30	0xbdc4a1d5	-0.096011795
31	0xbd7aa505	-0.06119253
32	0x3e317837	0.17331015
33	0xbe3607d2	-0.1777642
34	0x3eac7f25	0.33690754
35	0xbe867b01	-0.2626572
36	0x3c074b54	0.008257706
37	0x3eb566b8	0.3542993
38	0x3eb0d2e8	0.3453591
39	0xbe813490	-0.25235415
40	0x3da2b555	0.079447426
41	0x3d3108e5	0.043221373
42	0xbe4e61ab	-0.20154445
43	0xbe0c35cb	-0.13692395
44	0x3e0c3932	0.13693693
45	0xbe8c9e1d	-0.2746438
46	0x3d83a26a	0.064274624
47	0x3e34d984	0.176611
48	0xbdd1b663	-0.10239866
49	0x3eaab9c1	0.33344844
50	0xbbd90265	-0.0066226
51	0x3e498a1c	0.19681591
52	0x3ec48fe7	0.3839104
53	0xbdfffa3b	-0.124988995
54	0x3e7ce162	0.24695352
55	0xbde66766	-0.112501904
56	0xbd040594	-0.032231882
57	0xbd8319c0	-0.06401396
58	0xbce23cd4	-0.027616896
59	0xbe1b466f	-0.15163587
60	0x3dca6faa	0.098845795
61	0x3cb01444	0.021494038
62	0x3e81f7d8	0.25384402
63	0xbdc8285e	-0.097733244
64	0x3bf51bfb	0.007480142
65	0xbe2c014e	-0.16797373
66	0xbeb32415	-0.34988466
67	0x3e436e8b	0.19085138
68	0x3d733aec	0.059382364
69	0xbe2f6167	-0.17127
70	0xbdfffe9c	-0.12499735
71	0x3d9ec8d5	0.077531494
72	0xbd52e5f6	-0.05148884
73	0x3e9040d6	0.28174466
74	0x3c95892e	0.018253889
75	0x3e298259	0.1655363
76	0x3e32f19c	0.17474979
77	0xbdccc2a5	-0.09998063
78	0x3e2d4ad6	0.16923079
79	0x3e97c509	0.29642513
80	0x3c587eeb	0.013213853
81	0x3db0a4be	0.08625172
82	0x3c2f0103	0.010681394
83	0x3e96b31f	0.29433534
84	0xbe279c9c	-0.16368335
85	0xbe6de4ee	-0.23231861
86	0x3dfb0b65	0.12258033
87	0xbebb0398	-0.3652618
88	0x3c5520d2	0.013008313
89	0xbe2e978b	-0.17049997
90	0x3e87fe65	0.26561275
91	0xbecea4d5	-0.40360132
92	0x3e90e0b7	0.28296444
93	0x3ed64c55	0.41855112
94	0x3dc63f78	0.096800745
95	0xbd09acfb	-0.033612233
96	0x3ec6339f	0.3871126
97	0xbe46c4c9	-0.19411005
98	0xbc886f3a	-0.0166546
99	0xbe3905ee	-0.18068668
100	0xbd8ab915	-0.06773583
101	0x3dc7006a	0.09716876
102	0x3d7632bc	0.060106978
103	0xbd876551	-0.066111214
104	0xbed8dc86	-0.42355746
105	0x3d049714	0.03237064
106	0xbc6c2a97	-0.014414451
107	0x3d8ce83a	0.06880231
108	0x3ea05574	0.31315196
109	0x3ec65dcb	0.38743433
110	0xbe83e56f	-0.2576098
111	0xbcad0d12	-0.021124396
112	0xbe2ca22d	-0.1685874
113	0xbec86b46	-0.39144343
114	0xbe9782da	-0.2959202
115	0x3ec789e8	0.38972402
116	0x3e6b5bab	0.22984187
117	0x3e50a20a	0.20374313
118	0x3e6ee518	0.2332958
119	0xbeb1b730	-0.34710073
120	0x3d0a849d	0.033817876
121	0x3eb9a653	0.36259708
122	0xbe65121f	-0.22370194
123	0x3ebfde56	0.37474316
124	0x3e12e3a5	0.14344652
125	0x3e914a69	0.28377083
126	0xbe2b6ef9	-0.16741551
127	0x3e4d44f5	0.20045836

blocks.block0.bn1.weight f4 [128]
0	0x3f8474c1	1.034813
1	0x3f6f6c32	0.9352447
2	0x3f69a83e	0.9127234
3	0x3f875ac4	1.0574574
4	0x3f804ccd	1.0023438
5	0x3f8810b9	1.0630103
6	0x3f83452d	1.0255486
7	0x3f6c127c	0.92215705
8	0x3f7a67fe	0.9781493
9	0x3f7b931b	0.9827134
10	0x3f723ce7	0.9462418
11	0x3f869809	1.0515147
12	0x3f853246	1.0405967
13	0x3f8af664	1.0856442
14	0x3f86b67b	1.0524439
15	0x3f7350a5	0.9504493
16	0x3f76df05	0.9643405
17	0x3f796668	0.97421885
18	0x3f83cbf0	1.0296612
19	0x3f7b3342	0.9812509
20	0x3f6f382a	0.93445075
21	0x3f809f35	1.0048586
22	0x3f7121f0	0.9419241
23	0x3f64689b	0.89222115
24	0x3f6db3d8	0.92852545
25	0x3f7f00c1	0.99610525
26	0x3f6f7082	0.9353105
27	0x3f6a9889	0.91639
28	0x3f808770	1.0041332
29	0x3f7d8762	0.990347
30	0x3f8e8ffd	1.1137692
31	0x3f7b6241	0.981968
32	0x3f7aaf5c	0.9792383
33	0x3f7f21db	0.99661034
34	0x3f75a5de	0.9595622
35	0x3f86898d	1.0510727
36	0x3f7c7f44	0.9863169
37	0x3f81525f	1.0103263
38	0x3f9c5bf8	1.2215567
39	0x3f7c1d1d	0.98481923
40	0x3f84ca5a	1.0374253
41	0x3f5f32b7	0.8718676
42	0x3f7c74ec	0.9861591
43	0x3f7cc56a	0.9873873
44	0x3f651c46	0.89496267
45	0x3f7e3db8	0.99312925
46	0x3f796b5a	0.9742943
47	0x3f84b977	1.0369099
48	0x3f8a3a8e	1.079912
49	0x3f80b231	1.005438
50	0x3f88c09e	1.0683782
51	0x3f769631	0.96322924
52	0x3f8a27c3	1.0793384
53	0x3f6e0f0c	0.9299171
54	0x3f75061a	0.95712435
55	0x3f792090	0.9731531
56	0x3f7370a7	0.9509377
57	0x3f834663	1.0255855
58	0x3f8a2bff	1.0794677
59	0x3f752669	0.95761734
60	0x3f849cff	1.0360411
61	0x3f80270c	1.0011916
62	0x3f78fde9	0.97262436
63	0x3f8170cb	1.0112547
64	0x3f882d0a	1.0638745
65	0x3f79fbeb	0.9765002
66	0x3f7e8ba2	0.9943181
67	0x3f5a78e1	0.85340697
68	0x3f750401	0.95709234
69	0x3f7f2521	0.9966603
70	0x3f7d0d48	0.9884839
71	0x3f6b7aef	0.91984457
72	0x3f8a706e	1.0815561
73	0x3f818ca0	1.012104
74	0x3f7da6be	0.99082553
75	0x3f721924	0.9456961
76	0x3f750f03	0.9572603
77	0x3f864b43	1.0491718
78	0x3f7ffe27	0.9999718
79	0x3f7c00de	0.98438823
80	0x3f6c2211	0.9223948
81	0x3f752295	0.95755893
82	0x3f748cd7	0.95527405
83	0x3f7465b5	0.9546769
84	0x3f72ad7b	0.9479596
85	0x3f792015	0.9731458
86	0x3f8ef0a6	1.116719
87	0x3f7a04ba	0.9766346
88	0x3f7d2856	0.9888967
89	0x3f82c062	1.021496
90	0x3f734b3b	0.9503667
91	0x3f85269e	1.040241
92	0x3f5defcc	0.86694026
93	0x3f79271e	0.97325313
94	0x3f6fa035	0.9360383
95	0x3f81cd8c	1.0140853
96	0x3f84d64d	1.03779
97	0x3f698412	0.9121715
98	0x3f8157ab	1.0104879
99	0x3f8427c3	1.0324634
100	0x3f81b085	1.0131994
101	0x3f83f5d4	1.0309396
102	0x3f7dc08d	0.99121934
103	0x3f846117	1.034213
104	0x3f75dd23	0.9604055
105	0x3f77f51c	0.9685838
106	0x3f707e64	0.93942857
107	0x3f813430	1.0094051
108	0x3f7af51d	0.98030263
109	0x3f83c3ee	1.0294168
110	0x3f89b77a	1.0759118
111	0x3f84844b	1.0352873
112	0x3f7eb66e	0.99497116
113	0x3f69ad91	0.91280466
114	0x3f8159cc	1.0105529
115	0x3f7a562d	0.97787744
116	0x3f827add	1.0193745
117	0x3f7e74d9	0.99397045
118	0x3f8442ee	1.0332925
119	0x3f84a4d0	1.0362797
120	0x3f7c92be	0.9866141
121	0x3f85f737	1.0466069
122	0x3f867b3e	1.050636
123	0x3f6478bb	0.8924672
124	0x3f6c524e	0.92313087
125	0x3f84876b	1.0353826
126	0x3f7f3f09	0.9970556
127	0x3f7eb22c	0.9949062

blocks.block0.bn1.bias f4 [128]
0	0x3dc632a7	0.0967763
1	0x3e0f93e4	0.1402126
2	0x3de32a73	0.11092081
3	0xbdc28ae0	-0.094991446
4	0x3dbed175	0.093172945
5	0xbd9c09a5	-0.07619027
6	0xbd32fc64	-0.04369773
7	0xbd919520	-0.071085215
8	0xbd3d41ea	-0.04620544
9	0xbe1bdf12	-0.15221813
10	0xbd86814f	-0.065676324
11	0x3d8c0e13	0.06838622
12	0x3cb059b8	0.021527156
13	0xbd5cfb85	-0.053950805
14	0xbe3ae364	-0.18250805
15	0xbe889889	-0.26678875
16	0x3dfd931b	0.12381574
17	0x3d89698b	0.06709584
18	0xbe36963c	-0.17830747
19	0xbdbfc45b	-0.09363624
20	0xbc286751	-0.010278539
21	0x3da00158	0.07812756
22	0x3e11054c	0.14162177
23	0x3e616ff0	0.22015357
24	0x3da11f4f	0.078673
25	0x3d28470f	0.04108339
26	0x3d6b01db	0.057374816
27	0x3d186086	0.037201427
28	0xbdcc0784	-0.09962371
29	0xbdd88398	-0.105719745
30	0x3ded0b87	0.11574464
31	0xbe088010	-0.13330102
32	0x3e5dfecf	0.21679233
33	0x3e11746d	0.14204569
34	0x3d5cbebc	0.053892836
35	0xbdd981b6	-0.106204435
36	0xbc98445d	-0.018587286
37	0x3e378d35	0.1792496
38	0x3e44007e	0.19140813
39	0x3b85836f	0.004074506
40	0xbd9eba18	-0.07750338
41	0x3dd85676	0.10563366
42	0xbd14fd56	-0.036374412
43	0x3e148f62	0.14507821
44	0xbe3bbff6	-0.18334946
45	0x3cd4636b	0.025926312
46	0xbc290d45	-0.010318105
47	0x3dcb2b57	0.09920376
48	0xbd2155fe	-0.03938865
49	0x3db2fc94	0.08739582
50	0x3d08543c	0.033283457
51	0xbcea9806	-0.028636944
52	0x3d5dad11	0.054120127
53	0x3d27895a	0.040902473
54	0x3c178f70	0.009250507
55	0x3d8a6893	0.06758227
56	0x3e5e6291	0.21717288
57	0xbebd9cfa	-0.37033826
58	0xbe4fc9f7	-0.20291887
59	0x3bf05ed0	0.0073355213
60	0x3dc59ce7	0.09649067
61	0x3d416fa2	0.047225602
62	0x3d5ff074	0.054672673
63	0x3a8edb61	0.001089912
64	0xbdbd1491	-0.09232438
65	0xbe0a5335	-0.13508303
66	0xbb00e05d	-0.001966498
67	0x3d178fe7	0.03700247
68	0xbd00512b	-0.031327408
69	0xbd137092	-0.035996027
70	0xbdbb75f4	-0.09153357
71	0xbe27dc59	-0.1639265
72	0x3c438fd6	0.011936149
73	0xbdfdd786	-0.123946235
74	0xbc11a4c8	-0.008889385
75	0xbe17c35d	-0.14820619
76	0xbcd4a849	-0.02595915
77	0xbd580de2	-0.052747615
78	0x3d6ff00e	0.058578543
79	0x3ddeb558	0.10874432
80	0xbe07f056	-0.13275275
81	0xbda50362	-0.08057286
82	0x3c85102a	0.01624306
83	0x3c34af71	0.011028157
84	0x3cb5c9e1	0.02219099
85	0x3d95328d	0.072850324
86	0x3e2e06d9	0.169948
87	0x3c8b5a05	0.017010698
88	0x3d956bfd	0.07295988
89	0x3cfb7241	0.030694129
90	0x3ec2c695	0.3804213
91	0xbd86161b	-0.06547185
92	0xbda2046f	-0.07911002
93	0xbdaeaf03	-0.085294746
94	0xbd173d7f	-0.03692388
95	0xbc241bd8	-0.010016404
96	0xbe1f16cd	-0.15536042
97	0xbd267904	-0.040642753
98	0xbd97a591	-0.07404626
99	0xbe03e7bd	-0.1288137
100	0x3de7f008	0.11325079
101	0xbea0a11b	-0.31372914
102	0xbd35b7a9	-0.044364605
103	0xbe3855b8	-0.18001449
104	0x3c2583a9	0.010102191
105	0xbe082bac	-0.1329791
106	0x3dcd6126	0.10028295
107	0x3dfca7c9	0.1233669
108	0x3df2d139	0.11856312
109	0xbd0ef14b	-0.034898084
110	0xbded8553	-0.11597695
111	0xbbd0b22d	-0.0063688965
112	0xbdc15a55	-0.094410576
113	0xbe30639f	-0.17225502
114	0xbd32c29d	-0.04364263
115	0xbe4958b4	-0.19662744
116	0xbd5ba13f	-0.053620573
117	0x3de3b2da	0.111180976
118	0x3da6c9f3	0.081439875
119	0xbbf4d9cd	-0.007472253
120	0x3ce40c94	0.027838029
121	0x3d8f4756	0.06996028
122	0xbd069f10	-0.032866538
123	0xbd4de99f	-0.050271627
124	0xbdc7e08d	-0.097596265
125	0xbdaa708c	-0.08322248
126	0x3d806ec0	0.06271124
127	0x3d5894f5	0.05287643

blocks.block0.bn1.running_mean f4 [128]
0	0xbf1f8f60	-0.6232815
1	0xbceeb09a	-0.029136945
2	0xbdfe782a	-0.12425263
3	0xbd2bbb88	-0.04192689
4	0x3cb5d825	0.022197792
5	0xbe5d0986	-0.21585664
6	0x3ed7402f	0.42041156
7	0xbea8a3b9	-0.3293741
8	0x3f4ea943	0.8072702
9	0xbf3473bc	-0.70489097
10	0x3f23ce79	0.6398693
11	0xbe6d7720	-0.23189974
12	0x3c363ca2	0.011122854
13	0x3c4228d4	0.0118505545
14	0xbdae0955	-0.08497874
15	0x3c81e895	0.015857974
16	0xbe0b850f	-0.13624977
17	0xbf62d3d8	-0.886045
18	0xbe0fe5ec	-0.14052552
19	0xbef3377e	-0.47503275
20	0xbe65e62f	-0.2245109
21	0xbe96076b	-0.29302534
22	0xbd9d22cf	-0.07672655
23	0x3f3f628c	0.74759746
24	0xbd9bb23e	-0.076023564
25	0xbe8a56ac	-0.2701925
26	0xbefb72f5	-0.49111143
27	0xbf207c8e	-0.62690055
28	0xbe3a2320	-0.18177462
29	0xbf1f65f2	-0.6226493
30	0x3deb3563	0.11484792
31	0x3e354131	0.1770065
32	0xbe452600	-0.19252777
33	0xbeefa032	-0.46801907
34	0x3f21fa95	0.6327298
35	0xbea1de97	-0.31615135
36	0x3d9c8243	0.07642033
37	0x3e0e9845	0.13925274
38	0x3f5bc12f	0.8584165
39	0xbea35949	-0.31904057
40	0x3c8821f3	0.01661775
41	0xbdfdce28	-0.12392837
42	0xbe94c82b	-0.29058966
43	0xbcaaf380	-0.020868063
44	0x3ebffeaf	0.37498996
45	0xbf702551	-0.9380694
46	0x3da4c080	0.08044529
47	0x3edbd5b5	0.42936483
48	0xbe71f1d9	-0.23627414
49	0x3e45f256	0.19330725
50	0xbe9eca2a	-0.31013614
51	0x3e069005	0.13140877
52	0x3edef427	0.43545648
53	0xbd9a6efb	-0.07540699
54	0x3f5487e6	0.83019865
55	0xbdae3e2b	-0.08507951
56	0x3f1301a9	0.5742441
57	0x3edcf840	0.4315815
58	0x3e4266b3	0.18984489
59	0xbd8339f3	-0.06407537
60	0x3e698f03	0.22808461
61	0xbe344619	-0.17604865
62	0x3cd5fd9e	0.02612191
63	0x3f048ec1	0.51780325
64	0x3efad6ac	0.48991907
65	0xbed29a2b	-0.41133246
66	0xbe15ea48	-0.14640152
67	0x3efac3cc	0.48977506
68	0x3dbc0d8a	0.0918227
69	0xbdce1fa2	-0.10064627
70	0xbe6c43f1	-0.23072793
71	0xbe8c23ac	-0.27370965
72	0xbf05a413	-0.5220348
73	0x3dcd7f7a	0.1003408
74	0xbe635c0d	-0.22203083
75	0x3f556cb7	0.8336901
76	0xbe455349	-0.19270052
77	0xbd673e40	-0.05645585
78	0x3ec212a9	0.37904862
79	0x3e42f722	0.19039586
80	0x3bcda3f9	0.0062756506
81	0x3ea81323	0.328271
82	0xbe037fc1	-0.12841703
83	0x3f641071	0.8908759
84	0x3d8f85cf	0.07007944
85	0xbe5ac6aa	-0.21364847
86	0x3e9f865e	0.31157202
87	0xbf01f648	-0.5076642
88	0xbe487488	-0.19575703
89	0xbf025767	-0.50914615
90	0x3e70f83b	0.23532192
91	0xbf410d92	-0.7541133
92	0x3ec34081	0.3813515
93	0x3e8324f7	0.2561414
94	0x3ea9d0c4	0.33167088
95	0x3d0bcb26	0.034129284
96	0x3ebffda1	0.3749819
97	0xbe7bce55	-0.24590428
98	0x3d5d979b	0.05409966
99	0x3eb94de0	0.36192226
100	0xbea20f9e	-0.3165254
101	0xbeaa6ac0	-0.3328457
102	0x3f02749a	0.5095917
103	0x3cc002a6	0.023438763
104	0xbf3377fe	-0.7010497
105	0x3e8a6035	0.27026525
106	0xbee90e36	-0.45518655
107	0x3ea52771	0.32256654
108	0x3e03a6cd	0.12856598
109	0x3ec37fb9	0.38183382
110	0xbe97d607	-0.29655477
111	0xbb64b449	-0.0034897497
112	0x3cdea4ee	0.027178254
113	0xbeb2369d	-0.34807292
114	0xbe70865e	-0.23488757
115	0x3ee864c2	0.45389372
116	0x3eb5abb1	0.35482553
117	0x3e9bdfef	0.30444285
118	0xbe9b373b	-0.30315575
119	0x3dfc970b	0.12333497
120	0xbe4e593d	-0.20151229
121	0x3f0b5be5	0.54437095
122	0xbebe9c6a	-0.3722871
123	0x3e2958ad	0.16537733
124	0x3ed6199f	0.41816422
125	0x3f0c4614	0.5479443
126	0xbe927214	-0.2860266
127	0x3eaa3ee8	0.3325112

blocks.block0.bn1.running_var f4 [128]
0	0x3cb55a64	0.022137828
1	0x3bbc605a	0.0057487907
2	0x3c7a7252	0.015286045
3	0x3cc477fb	0.023982992
4	0x3cdc2639	0.026873695
5	0x3cefe7c4	0.02928532
6	0x3c69df63	0.014274451
7	0x3ca52071	0.02015707
8	0x3ca49c7d	0.02009415
9	0x3cb4bed5	0.022063652
10	0x3c03e65c	0.008050527
11	0x3cb580c4	0.022156127
12	0x3d1d946e	0.03847163
13	0x3d1bd798	0.038047403
14	0x3c2bb3e1	0.010479898
15	0x3cb664ca	0.022264857
16	0x3cc76596	0.024340432
17	0x3c9f7660	0.019465625
18	0x3ca18086	0.019714605
19	0x3bf36149	0.007427369
20	0x3c931b79	0.017957436
21	0x3c6f3958	0.014601074
22	0x3bb3b414	0.0054841135
23	0x3ca4fcdb	0.020140102
24	0x3cafdcb9	0.021467553
25	0x3d00212b	0.03128163
26	0x3c135704	0.008992914
27	0x3c41985c	0.01181611
28	0x3cb8a7a8	0.022540882
29	0x3ccc3e9b	0.024932196
30	0x3bd0dfea	0.006374349
31	0x3cb46f9f	0.022025881
32	0x3c8ff876	0.01757453
33	0x3ca78f61	0.02045411
34	0x3cd18812	0.025577579
35	0x3b1588d4	0.0022817152
36	0x3cfdfddd	0.03100484
37	0x3c89dad9	0.016827988
38	0x3ca5e79d	0.020252043
39	0x3c697f88	0.014251597
40	0x3cad34b9	0.021143304
41	0x3c1c4c1a	0.009539628
42	0x3ca91f0f	0.020644693
43	0x3ca8d6c3	0.020610219
44	0x3c18376b	0.009290556
45	0x3cc88c36	0.02448092
46	0x3c5c10bc	0.013431724
47	0x3ca50f05	0.020148763
48	0x3b84607e	0.004039823
49	0x3c9bf52c	0.019037805
50	0x3c46841a	0.012116456
51	0x3c23f930	0.010008141
52	0x3c80991d	0.01569801
53	0x3bc76141	0.0060845916
54	0x3c64d31c	0.013966348
55	0x3cdc75db	0.026911667
56	0x3cc25045	0.023719916
57	0x3cce604e	0.025192406
58	0x3c571aff	0.013128995
59	0x3c24ef02	0.0100667495
60	0x3d1a9378	0.037738293
61	0x3cb30e3d	0.021857375
62	0x3cf87329	0.03032835
63	0x3ceb6763	0.028735822
64	0x3c8f1053	0.017463839
65	0x3c869e5c	0.016432934
66	0x3c83287f	0.016010521
67	0x3cfed57a	0.031107653
68	0x3c3d9dd6	0.011573276
69	0x3c9c25fc	0.019061081
70	0x3c96cdf6	0.018408757
71	0x3c736ef3	0.014857995
72	0x3ccf84ea	0.025331933
73	0x3d0e73b9	0.03477833
74	0x3cb2ef1b	0.02184253
75	0x3cdc2f3f	0.026877997
76	0x3c79496e	0.015215261
77	0x3c8eae86	0.017417204
78	0x3cebb5d2	0.028773222
79	0x3ca82f49	0.02053036
80	0x3ca8293a	0.02052747
81	0x3bc18e92	0.0059068883
82	0x3c8a6d64	0.016897865
83	0x3cdaa00f	0.02668765
84	0x3c3631f9	0.011120313
85	0x3be0aba5	0.006856399
86	0x3bacb439	0.0052705077
87	0x3c717fc8	0.014739938
88	0x3d1728c9	0.03690413
89	0x3c2dedf5	0.010615815
90	0x3c661107	0.014042146
91	0x3d164a49	0.036691938
92	0x3c14034e	0.009033991
93	0x3c9ab290	0.018883973
94	0x3c80d63b	0.015727153
95	0x3cc39445	0.023874411
96	0x3d0a8fa1	0.03382838
97	0x3c227e71	0.009917841
98	0x3d19a22b	0.03750817
99	0x3d1c116b	0.03810255
100	0x3cf39c05	0.029737482
101	0x3c6f17d7	0.014593086
102	0x3cb48d54	0.022040047
103	0x3d047879	0.032341454
104	0x3c861e27	0.0163718
105	0x3b9e46e5	0.0048302286
106	0x3c6b8534	0.01437502
107	0x3cf311b5	0.02967153
108	0x3cb0979d	0.02155667
109	0x3cc82aba	0.024434436
110	0x3cc286bb	0.023745885
111	0x3cafc957	0.021458311
112	0x3c3ca73b	0.01151448
113	0x3c8890c1	0.016670587
114	0x3ca9b72d	0.020717228
115	0x3d0132c8	0.03154257
116	0x3c2f0c79	0.010684126
117	0x3caa5ad2	0.02079526
118	0x3cdb70cf	0.02678719
119	0x3cc32a95	0.023824016
120	0x3c607e0d	0.013701928
121	0x3cd64642	0.026156548
122	0x3ca84567	0.020540906
123	0x3c5735cf	0.013135388
124	0x3c510d9b	0.012759591
125	0x3caba160	0.020950973
126	0x3c9d44a3	0.019197768
127	0x3ce01dcf	0.027357964

blocks.block0.fc2.weight f4 [128, 128]
0	0xbdb42ecc	-0.08797988
1	0x3a424eef	0.0007412275
2	0x3cb56637	0.022143466
3	0x3ceba826	0.028766703
4	0x3df94596	0.121714756
5	0x3dc3cda8	0.0956071
6	0x3db96ca3	0.09053924
7	0x3d96d066	0.073639676
8	0x3d27ca56	0.040964447
9	0x3d7f4a84	0.062326923
10	0xbd36a7f3	-0.044593763
11	0xbb21e214	-0.0024701403
12	0x3c00b13d	0.007854757
13	0xbd22d8ef	-0.039757665
14	0x3dacd6c5	0.084394015
15	0x3d4fadfb	0.05070303
16	0x3d05f8b0	0.03270787
17	0x3cfef19c	0.031121068
18	0x3db989ba	0.090594724
19	0x3d1f3658	0.038870186
20	0xbd781561	-0.060567264
21	0xbd594508	-0.05304435
22	0x3d608ed9	0.05482373
23	0xbaa9ea63	-0.001296353
24	0x3d2a8d26	0.041638516
25	0xbd94e014	-0.07269302
26	0xbd9e09a8	-0.077166855
27	0x3cb8f3b4	0.022577144
28	0x3dd3399c	0.103137225
29	0xbd60cada	-0.054880954
30	0x3d1703bf	0.036868807
31	0xbd0419b2	-0.032251067
32	0x3c305d7e	0.010764478
33	0x3d1d6fef	0.038436826
34	0x3dd39241	0.1033063
35	0xbd974348	-0.0738588
36	0xbde2a531	-0.11066664
37	0x3cfc94b3	0.030832624
38	0x3e0a7ad6	0.1352342
39	0x3d7747f8	0.06037137
40	0x3d8b0539	0.067881055
41	0xbd898df4	-0.067165285
42	0x3d67cc44	0.056591287
43	0xbd6c0876	-0.057625256
44	0x3d068d67	0.032849696
45	0xbd4db792	-0.050223894
46	0x3b9a5955	0.0047103562
47	0x3b74acd9	0.003733447
48	0x3cf5dd0f	0.030012636
49	0x3dec0b85	0.11525635
50	0xbda9c736	-0.082899496
51	0xbd8a0607	-0.06739431
52	0x3d34d8e2	0.044152148
53	0xbca832ca	-0.02053203
54	0xbd3d250d	-0.046177913
55	0xbd798890	-0.06092125
56	0xbd78e22e	-0.060762577
57	0xbd813c46	-0.06310324
58	0x3d888ec3	0.06667855
59	0x3daa5583	0.08317091
60	0x3d15a5b1	0.03653497
61	0xbd5061f5	-0.05087467
62	0x3d3ad4f5	0.045613248
63	0x3c08ba2e	0.00834517
64	0xbdbb9c53	-0.09160676
65	0x3baee7c4	0.005337687
66	0x3ddf67c8	0.109084666
67	0xbc42c5c6	-0.011887973
68	0xbd24faf5	-0.040278394
69	0x3bd3087e	0.0064402213
70	0x3d9099cd	0.07060585
71	0xbd8065c6	-0.06269412
72	0x3d09be90	0.033629
73	0x3d8e3c68	0.06945115
74	0x3d0b1d91	0.033963744
75	0x3adfe1ac	0.0017080805
76	0x3d99cf0d	0.07510195
77	0x3d72385e	0.059135787
78	0xbd7ebfd8	-0.062194675
79	0x3cec5ca6	0.028852772
80	0x3db58985	0.088641204
81	0x3d91a64d	0.071117975
82	0x39039e00	0.00012551993
83	0x3d28cf08	0.041213065
84	0xbce5a260	-0.028031528
85	0xbd422a3f	-0.04740357
86	0x3d14df9d	0.036346067
87	0xba9f409a	-0.001214999
88	0x3d011c50	0.03152114
89	0xbdb4a8bf	-0.08821248
90	0xbd533e11	-0.051572863
91	0xbb1c0127	-0.0023804398
92	0xbb70ab72	-0.0036723283
93	0x3d12ff77	0.03588816
94	0x3d8dae91	0.069180615
95	0x3d908851	0.0705725
96	0x3cbba64b	0.022906443
97	0xbc9728eb	-0.018452128
98	0x3d626ba7	0.055278447
99	0x3ca22b46	0.019796025
100	0x3bbfcdd4	0.005853394
101	0xbbc43aa0	-0.005988434
102	0xbc1060d7	-0.008812151
103	0xbd169cb2	-0.03677053
104	0xbca752f7	-0.020425303
105	0xbd294bb6	-0.04133197
106	0x3bac064f	0.0052497755
107	0xbd6f412a	-0.058411755
108	0x3c9166db	0.01774924
109	0x3d6d80d1	0.057984177
110	0xbd9bcc33	-0.07607307
111	0xbcd73876	-0.02627204
112	0xbc140ba4	-0.0090359785
113	0x3c8aa94b	0.016926428
114	0x3d1a6ea2	0.037703164
115	0x3ceee881	0.0291636
116	0x3d423e4d	0.047422696
117	0xbd429b4c	-0.047511384
118	0x3c44a1b3	0.012001443
119	0x3d2abb19	0.041682336
120	0x3d918daf	0.07107102
121	0xbc73e5db	-0.014886345
122	0xbd38b908	-0.045098335
123	0x3d4bc211	0.049745623
124	0x3daf903c	0.085724324
125	0xbdc11f35	-0.094297804
126	0xbd039f28	-0.032134205
127	0x3ca5d336	0.020242315
128	0xbd154612	-0.036443777
129	0xbcb268b3	-0.02177844
130	0xbd06a6c6	-0.03287389
131	0x3dc67fc5	0.09692339
132	0x3b712bfa	0.0036799894
133	0x3cb23a98	0.021756455
134	0x3d8058fe	0.06266974
135	0x3dafd8d8	0.085862815
136	0xbc5afd4b	-0.013366054
137	0xbd3d514f	-0.04622012
138	0xbce40c57	-0.027837915
139	0x3dae083b	0.084976636
140	0xbe05fd1f	-0.1308484
141	0x3bba68a7	0.005688745
142	0x3a545f7d	0.0008101387
143	0x3c75a689	0.014993318
144	0x3d100ccc	0.035168454
145	0x3cd568ab	0.026050886
146	0xbcf68584	-0.030092962
147	0xbd8802c0	-0.066411495
148	0x3d81b190	0.063326955
149	0xbcb3ce1c	-0.021948867
150	0x3d22af35	0.03971787
151	0xbb8540a6	-0.0040665446
152	0xbd3b6b0d	-0.04575639
153	0x3d93830d	0.0720273
154	0xbd1f7e0a	-0.03893856
155	0xbcb3d01b	-0.021949818
156	0x3d50b089	0.050949607
157	0x3c6328a8	0.013864674
158	0xbe107319	-0.14106406
159	0xbc6946a9	-0.014238038
160	0x3d852297	0.06500738
161	0x3cce6298	0.025193498
162	0x3d412976	0.04715868
163	0xbd3db5a5	-0.046315808
164	0xbc86db27	-0.016461922
165	0x3dc73e5e	0.097286925
166	0x3dd1cc06	0.102439925
167	0x3db5d23b	0.08877989
168	0xbd44d000	-0.048049927
169	0x3db0921b	0.086216174
170	0xba20821e	-0.00061229046
171	0xbd2a6a69	-0.041605387
172	0x3c319ebd	0.010841069
173	0xbabe3cfe	-0.0014514027
174	0x3ccf9ccf	0.025343327
175	0x3d14ffe2	0.03637684
176	0x3d209860	0.039207816
177	0x3d96f052	0.07370056
178	0x3d73d035	0.059524734
179	0xbdbd2bbf	-0.092368595
180	0xbe40cff7	-0.18829332
181	0x3d55a167	0.05215588
182	0x3d526c74	0.05137296
183	0x3d6247e5	0.055244345
184	0x3d356869	0.044289026
185	0xbaf431bd	-0.0018630546
186	0x3ce5d991	0.028057845
187	0xbd05307c	-0.03251694
188	0x3d89e4f2	0.06733121
189	0x3d865d67	0.06560784
190	0x3d65238c	0.055942103
191	0xbd652452	-0.05594284
192	0xbc25ba1a	-0.010115171
193	0xbdaea396	-0.08527295
194	0xbc2d084c	-0.01056106
195	0x3d8fb68b	0.07017239
196	0xbd748974	-0.059701398
197	0x3c81eada	0.015859056
198	0x3bfe2896	0.007756303
199	0xbd291914	-0.041283682
200	0x3c79ece0	0.015254229
201	0xbc76d3c3	-0.015065136
202	0x3caea734	0.021319963
203	0xbcab60cb	-0.020920178
204	0x3c09006f	0.00836192
205	0x3d774061	0.06036413
206	0xbc1ca79d	-0.0095614465
207	0x3bffdbc5	0.007808181
208	0xbd83f1df	-0.064426176
209	0xbc952f01	-0.01821089
210	0xbc97a10f	-0.018509416
211	0xbd9e86ea	-0.077405766
212	0x3dcc07d6	0.09962432
213	0xba5012d2	-0.0007937375
214	0xbdb85d3e	-0.090021595
215	0xbd275893	-0.040855955
216	0x3cbe1ec5	0.023208031
217	0x3c5848c6	0.013200944
218	0xbe090899	-0.13382186
219	0xbdd3b48a	-0.103371695
220	0xbbca8a5e	-0.0061810454
221	0xbd5c780b	-0.05382542
222	0xbd8f7ae6	-0.07005863
223	0xbcaf4ffe	-0.021400448
224	0x3df50782	0.119643226
225	0xbd8ab2e2	-0.067724004
226	0xbdc5c48d	-0.0965663
227	0x3d671a8a	0.056421794
228	0xbdf97e9d	-0.12182353
229	0x3d008b12	0.031382628
230	0xbd7a153e	-0.061055414
231	0xbd52be00	-0.05145073
232	0x3da94f4c	0.08267078
233	0xbc1c7c24	-0.009551082
234	0xbc9c9e76	-0.019118529
235	0x3da23d35	0.079218306
236	0xbce8daa9	-0.028424578
237	0x3c812c2c	0.015768133
238	0xbd13d2fb	-0.03608988
239	0xbc798248	-0.015228815
240	0xbd7086fa	-0.058722474
241	0x3d739754	0.05947049
242	0x3d5afcd5	0.053463776
243	0xbd853e5a	-0.06506033
244	0xbd070ea5	-0.03297295
245	0x3d83c5b8	0.06434196
246	0xbdb73758	-0.08946103
247	0xbd566726	-0.052344464
248	0x39aa3a66	0.00032468437
249	0xbd41290f	-0.047158297
250	0xbd2e0018	-0.04248056
251	0xbd8e173a	-0.06938024
252	0x3cd01d26	0.025404524
253	0xbdd84f77	-0.10562032
254	0x3dc15ddf	0.094417326
255	0xbc9c72b4	-0.019097663

blocks.block0.fc2.bias f4 [128]
0	0xbd3c31e4	-0.045946017
1	0x3d3f551c	0.046712026
2	0x3d69ff10	0.057128012
3	0xbd799f24	-0.060942784
4	0xbda70879	-0.08155913
5	0xbdcddddd	-0.10052083
6	0x3c6be357	0.014397464
7	0x3d052d8f	0.03251415
8	0x3d2fa111	0.042878214
9	0xbcfa5caf	-0.030561773
10	0xbba37d97	-0.0049893367
11	0x3cb6c4c3	0.02231062
12	0x3d4d41f8	0.05011174
13	0xbdc986ec	-0.098401874
14	0x3db4f978	0.08836645
15	0xbcbec1b9	-0.023285734
16	0x3d53a56e	0.051671438
17	0xbd479d0d	-0.04873376
18	0xbcf37b34	-0.029721834
19	0xbd354a56	-0.044260345
20	0xbcc1f9cf	-0.023678688
21	0xbd105cc4	-0.03524472
22	0x3c6ef7b6	0.014585426
23	0x3da64098	0.08117789
24	0x3d76797a	0.060174443
25	0xbd559b99	-0.052150343
26	0xbcfc3075	-0.030784825
27	0x3bbfaa9e	0.0058491966
28	0xbd021d0d	-0.031765986
29	0x3ad93e3a	0.0016574331
30	0xbca8e7f3	-0.020618415
31	0xbd2e1041	-0.04249597
32	0xbd798a57	-0.060922947
33	0xbaddc688	-0.0016920129
34	0x3d96a98d	0.07356558
35	0xbc02f8e9	-0.007993915
36	0x3da9a22f	0.08282887
37	0xbcfa360c	-0.03054335
38	0x3d900f47	0.07034164
39	0xb9a44389	-0.00031330835
40	0x3d4799c3	0.048730623
41	0x3cfbd30e	0.030740287
42	0x3c90f77d	0.017696137
43	0xbcdee3dd	-0.027208263
44	0x3ac9e04e	0.0015401931
45	0xbbbee914	-0.005826125
46	0xbc661ed3	-0.014045435
47	0x3d753c9c	0.059872255
48	0xbcf8b5fe	-0.030360218
49	0xbcd5c708	-0.026095882
50	0xbd5cc505	-0.05389883
51	0x3cd3f04e	0.025871422
52	0x3d9c27c5	0.07624773
53	0xbcae3c29	-0.021268921
54	0xbd5036be	-0.050833456
55	0x3cd30762	0.025760356
56	0x3cfe301e	0.031028803
57	0x3d1b1031	0.03785724
58	0xb99f347f	-0.00030365956
59	0x3db0a245	0.086247005
60	0x3d8530a4	0.06503418
61	0xbd6742d7	-0.056460228
62	0x3d82699f	0.06367802
63	0xbd0a1f44	-0.033721223
64	0xbdc64bab	-0.09682401
65	0x3d969e38	0.073543966
66	0xbd3c9284	-0.046038166
67	0x3bea12b6	0.007143344
68	0x3da7cbd1	0.08193172
69	0xbd0e8833	-0.03479786
70	0x3d3f3f83	0.04669143
71	0x3d28d027	0.041214135
72	0x3c6ea88e	0.014566554
73	0x3d89381b	0.067001544
74	0xbd5687de	-0.052375667
75	0xb996ebbc	-0.00028785865
76	0xbd91b396	-0.071143314
77	0x3da9f523	0.08298709
78	0xbd0314d1	-0.032002274
79	0x3d80d7c3	0.06291153
80	0x3c08549d	0.008320955
81	0xbbd3dca4	-0.0064655114
82	0x3d85ad80	0.06527233
83	0x3d3ce0bf	0.046112772
84	0x3d4616db	0.04836164
85	0x3c55a769	0.013040402
86	0x3ca02099	0.019546794
87	0xbd994b8c	-0.074851125
88	0x3b8af7f8	0.004240986
89	0x397241ff	0.00023103504
90	0xbda1be1e	-0.0789759
91	0xbd48afe9	-0.048995886
92	0x3d00ad1a	0.031415083
93	0x3d6b39d9	0.057428215
94	0x39a912cc	0.00032248197
95	0xbd07216c	-0.032990858
96	0xbd91024b	-0.070805155
97	0xbd88d8a7	-0.06681948
98	0xbce3e45c	-0.027818851
99	0xbd2cbac5	-0.042170305
100	0xbd844525	-0.06458501
101	0x3d19cbee	0.037547998
102	0xbd762c08	-0.060100585
103	0xbb92c113	-0.0044785826
104	0x3d567bef	0.052364286
105	0xbd38f49f	-0.045155164
106	0x3d3d88e7	0.04627314
107	0x3c3c65d9	0.011498892
108	0xbd952b03	-0.072835945
109	0x3db5c1f3	0.088748835
110	0xbd20ac80	-0.03922701
111	0x3da54b0a	0.08070953
112	0x3d9b1638	0.07572597
113	0x3cd316e8	0.025767758
114	0xbde43cea	-0.11144431
115	0x3c4133a5	0.011792098
116	0x3cb32592	0.0218685
117	0x3d55da46	0.052210115
118	0x3b671310	0.0035259165
119	0x3db8be29	0.09020645
120	0x3c2843f8	0.010270111
121	0x3d5289dd	0.051401008
122	0xbd69cb45	-0.05707862
123	0xbc959e06	-0.018263828
124	0x3d97157c	0.07377145
125	0xbbea5d7d	-0.007152258
126	0x3d1399f9	0.03603551
127	0xbd243d22	-0.040097363

blocks.block0.bn2.weight f4 [128]
0	0x3f867426	1.0504196
1	0x3fa2d092	1.2719901
2	0x3f8c4b09	1.0960399
3	0x3f8bc085	1.0918127
4	0x3fab2928	1.3371935
5	0x3f968c85	1.1761633
6	0x3f8c96fd	1.0983578
7	0x3f80b585	1.0055395
8	0x3f8557cd	1.041742
9	0x3f8623e6	1.0479705
10	0x3f9d55e0	1.2291832
11	0x3f8981ec	1.0742774
12	0x3f7b15ef	0.98080343
13	0x3fa384c7	1.2774895
14	0x3f9b7b3c	1.2146983
15	0x3f83e3fa	1.0303948
16	0x3f908acf	1.1292361
17	0x3f988ce5	1.1917998
18	0x3f8bf5a8	1.0934343
19	0x3f878377	1.0586995
20	0x3fa0f6eb	1.2575353
21	0x3f9f516a	1.2446721
22	0x3f8247e6	1.0178192
23	0x3f86d878	1.0534811
24	0x3f918f11	1.1371785
25	0x3f8e4a3c	1.1116405
26	0x3f84ed2b	1.0384878
27	0x3f8fe10d	1.1240555
28	0x3f915c32	1.1356261
29	0x3f9900fa	1.1953423
30	0x3f8d383f	1.103279
31	0x3f8c0e23	1.0941814
32	0x3f87cb04	1.060883
33	0x3f8ff5cb	1.1246885
34	0x3f8c5c9d	1.0965763
35	0x3f933ba9	1.1502582
36	0x3f8995bd	1.0748821
37	0x3f855cb6	1.0418918
38	0x3f832ec3	1.0248646
39	0x3f970d09	1.1800853
40	0x3f8609f3	1.0471786
41	0x3f92d2f0	1.1470623
42	0x3f8e0598	1.1095457
43	0x3f9d7920	1.230259
44	0x3fa295a1	1.2701913
45	0x3f871c00	1.055542
46	0x3f7d9a18	0.99063253
47	0x3f992ed3	1.1967415
48	0x3f82523c	1.0181346
49	0x3f9ed53c	1.2408824
50	0x3f886857	1.0656842
51	0x3f863491	1.0484792
52	0x3f8b5e08	1.0888071
53	0x3f90352f	1.126623
54	0x3f7e1270	0.99246883
55	0x3f89b901	1.0759584
56	0x3f95aad3	1.1692756
57	0x3f8449d2	1.0335028
58	0x3f8b408f	1.0879077
59	0x3f848f62	1.0356257
60	0x3f96fe92	1.1796439
61	0x3f83c773	1.0295242
62	0x3f899951	1.0749913
63	0x3f8713ae	1.0552881
64	0x3f913098	1.1342955
65	0x3f85726a	1.0425541
66	0x3f920820	1.140873
67	0x3f9dccba	1.2328103
68	0x3f8e6d93	1.1127189
69	0x3f8bc8f9	1.0920707
70	0x3f8a2ef5	1.079558
71	0x3f94ce25	1.162541
72	0x3f89f502	1.0777895
73	0x3f8ae573	1.0851272
74	0x3f8ac269	1.0840579
75	0x3f9d7f82	1.2304537
76	0x3f96c2f7	1.1778249
77	0x3f914b31	1.1351072
78	0x3f7c75b6	0.9861711
79	0x3f87e264	1.0615964
80	0x3f95cd27	1.1703233
81	0x3f88e66d	1.069532
82	0x3f817dc7	1.0116509
83	0x3f8c7469	1.0973026
84	0x3f8b4058	1.0879011
85	0x3f926f6f	1.1440257
86	0x3f8fe2c6	1.1241081
87	0x3f7f441d	0.9971331
88	0x3f80c59a	1.0060303
89	0x3f7baa3b	0.98306626
90	0x3f8b87c7	1.0900811
91	0x3f9ec4f9	1.2403861
92	0x3f81c0c7	1.0136956
93	0x3f87908b	1.0590986
94	0x3f87f8bf	1.0622786
95	0x3f8d12ec	1.10214
96	0x3f93526e	1.150953
97	0x3f807237	1.0034856
98	0x3f8a9e72	1.0829604
99	0x3f879c9e	1.0594671
100	0x3f88ac95	1.0677668
101	0x3f89d387	1.0767678
102	0x3f8799fb	1.0593866
103	0x3f8e2e77	1.110793
104	0x3f8bceb7	1.0922459
105	0x3f8555e3	1.0416836
106	0x3f9a9207	1.2075814
107	0x3f9f330b	1.2437452
108	0x3f907461	1.1285516
109	0x3f8e22e3	1.1104397
110	0x3f88cbc1	1.0687181
111	0x3f805cfa	1.0028374
112	0x3f85b032	1.0444396
113	0x3f888087	1.0664223
114	0x3fa4f67b	1.288772
115	0x3f88601c	1.065433
116	0x3f898cc7	1.0746087
117	0x3f8f7751	1.1208287
118	0x3f8f629c	1.1201968
119	0x3f87c5a8	1.0607195
120	0x3f825e6b	1.0185064
121	0x3f901391	1.1255971
122	0x3f8ccd33	1.1000122
123	0x3f92d7c3	1.1472095
124	0x3f824995	1.0178705
125	0x3f8a95b7	1.0826939
126	0x3f8a8fdd	1.0825154
127	0x3f86afc2	1.0522387

blocks.block0.bn2.bias f4 [128]
0	0xbc61d852	-0.013784485
1	0x3dbd6575	0.09247867
2	0x3ca46adf	0.020070491
3	0xbd0cb3ce	-0.034351163
4	0xbd2ceeaf	-0.042219814
5	0x3c61f788	0.013791926
6	0xbd503e51	-0.05084068
7	0xbc7714d6	-0.015080651
8	0x3c8cc0ac	0.017181717
9	0x3c65bd07	0.014022118
10	0xbd91fa19	-0.071277805
11	0x3c4b9614	0.012425918
12	0xbcf455bb	-0.029826036
13	0xbdb0d528	-0.08634406
14	0xba403687	-0.0007332344
15	0xbc4d069d	-0.012513784
16	0x3cdb2bbc	0.026754253
17	0x3cf17471	0.029474469
18	0x3cfed0ee	0.031105485
19	0x3c383bfc	0.01124477
20	0xbc7a0ba5	-0.015261565
21	0x3cfb957c	0.030710928
22	0xbc9a56ab	-0.018840155
23	0x3a910c87	0.0011066356
24	0xbc93721b	-0.017998746
25	0x3d367e96	0.044554316
26	0xbcc418a0	-0.023937523
27	0x3d27023d	0.04077362
28	0x3beb6752	0.0071839476
29	0x3d493c32	0.049129672
30	0xbbc995c1	-0.0061518853
31	0xbd69b518	-0.05705747
32	0x3c4fdf80	0.012687564
33	0xbce09bfe	-0.027418133
34	0xbc9c1f2f	-0.019057838
35	0x3a4f0f7d	0.0007898731
36	0x3d153df5	0.03643604
37	0xbb1fba19	-0.0024372397
38	0xbc30ae30	-0.010783717
39	0x3c04d810	0.008108154
40	0x3cc773dc	0.024347238
41	0x3a1053f1	0.00055056723
42	0xbd093e16	-0.033506475
43	0x3d0f6e64	0.035017386
44	0x3d32a3af	0.043613132
45	0xba5806c6	-0.00082407554
46	0x3b0d889f	0.0021596325
47	0xbdc49d52	-0.09600319
48	0xbc384aad	-0.011248273
49	0x3c4ef3d1	0.012631373
50	0x3d145243	0.036211263
51	0xbcd712c2	-0.026254062
52	0x3cd2ce5a	0.025733162
53	0xbd66c9b2	-0.056344695
54	0xbc9e3dec	-0.019316636
55	0xbc4cc69e	-0.012498526
56	0x3cba0ed6	0.022712152
57	0xbce5c5c4	-0.028048404
58	0x3cef8d37	0.029242141
59	0x3b457f7c	0.00301358
60	0x3d08000f	0.03320318
61	0x3c4aac52	0.012370186
62	0xbcf6c685	-0.030123958
63	0x3c91bc13	0.017789876
64	0xbc8ff011	-0.017570527
65	0xbcacf150	-0.02111116
66	0x3be9e0db	0.0071374006
67	0xbd8f9015	-0.07009903
68	0xbd3ed2f2	-0.046587892
69	0xbc5e75da	-0.013577903
70	0x3c321937	0.0108702695
71	0xbd4c6a66	-0.049906157
72	0x3ca1a7d6	0.01973335
73	0x3cd3a06f	0.025833337
74	0x3c8dc8ca	0.017307658
75	0x3bcfa1d5	0.0063364306
76	0xbb745972	-0.003728476
77	0xbd02307b	-0.031784516
78	0xbcb1e276	-0.02171443
79	0x3aec34e9	0.001802114
80	0x3cca42b4	0.02469001
81	0xbbb6d66e	-0.005579761
82	0xbce49183	-0.027901417
83	0x3c1a86fa	0.009431595
84	0x3c8439da	0.016140867
85	0x3d80cc77	0.062889986
86	0x3d4bc649	0.049749646
87	0xbc816e8a	-0.01579978
88	0xbc556bb2	-0.013026165
89	0x3c842cf5	0.016134718
90	0xbb82e563	-0.00399463
91	0x3cea5dd7	0.0286092
92	0xbc8746c1	-0.01651323
93	0x3cbebd42	0.023283605
94	0x3c489119	0.012241625
95	0xbc595319	-0.013264441
96	0xbc436cd2	-0.0119278
97	0xbca862e3	-0.020554965
98	0x3c86945a	0.016428161
99	0xba9860c2	-0.0011625516
100	0xbc2e1de0	-0.01062724
101	0x3d1eab0e	0.03873735
102	0xbd0de25b	-0.034639698
103	0xbc86e072	-0.016464446
104	0x3d0feaeb	0.035136145
105	0x3c39a8c0	0.011331737
106	0xbdb41338	-0.08792728
107	0x3cb25cfe	0.021772858
108	0xbc0686f6	-0.008210888
109	0x3cc1a3db	0.023637703
110	0x3d241465	0.040058512
111	0xbcb4c590	-0.022066861
112	0xbce215e9	-0.027598338
113	0x3ce81264	0.028329082
114	0xbd96ac55	-0.073570885
115	0x3bb35701	0.005473018
116	0x3d02af65	0.03190555
117	0x3c6a0f23	0.014285835
118	0x3d328180	0.043580532
119	0xbcc736f9	-0.024318205
120	0xbc72d7ff	-0.014822005
121	0x3c83763a	0.016047586
122	0x3c6ae9e1	0.014337988
123	0x3d82cc22	0.063865915
124	0x3c53f3f9	0.012936586
125	0x3c229abc	0.009924587
126	0xbc4663e7	-0.0121087795
127	0xbc718042	-0.014740052

blocks.block0.bn2.running_mean f4 [128]
0	0x3ee1c98d	0.44099084
1	0xbdbe9f11	-0.09307683
2	0xbdcc5ea5	-0.099789895
3	0x3ea4692a	0.32111484
4	0x3d438553	0.04773457
5	0x3ed4d155	0.41565958
6	0xbe1833a8	-0.14863455
7	0x3f1730a2	0.5905858
8	0xbe52f581	-0.20601465
9	0xbf14ad4e	-0.5807694
10	0x3ca5eec5	0.020255456
11	0xbe323d39	-0.17406167
12	0xbf3103a1	-0.6914616
13	0x3dd95d38	0.10613483
14	0xbecab9c8	-0.39594865
15	0x3df0f35a	0.117651656
16	0xbe4603fa	-0.19337454
17	0xbdbf1c4b	-0.09331568
18	0x3e0d420b	0.13794725
19	0xbe31d59c	-0.17366642
20	0xbf518efc	-0.818588
21	0xbe5a46bb	-0.21316044
22	0xbdfd271d	-0.12360976
23	0x3dab9d70	0.08379638
24	0x3e085433	0.1331337
25	0x3d084f2f	0.03327864
26	0x3ebf2fb0	0.3734107
27	0xbe2bbdec	-0.16771668
28	0xbd957ae4	-0.0729883
29	0xbeb1afd4	-0.3470446
30	0x3eb05b87	0.3444483
31	0x3e1a7c51	0.15086485
32	0xbe453b38	-0.19260871
33	0x3e7c218c	0.24622172
34	0x3eb91518	0.36148906
35	0x3e43847d	0.19093509
36	0xbe21b269	-0.15790714
37	0xbed43a33	-0.41450652
38	0x3f6a8432	0.91607964
39	0x3e1179d7	0.14206634
40	0x3ebdd47c	0.37076175
41	0xbe977ca8	-0.29587293
42	0x3f33142d	0.6995266
43	0xbed576a9	-0.41692093
44	0xbed7014a	-0.4199317
45	0x3dc7f0ff	0.09762763
46	0xbe8c2fd3	-0.27380237
47	0xbe486148	-0.1956836
48	0x3dfd343e	0.1236348
49	0xbe113075	-0.14178641
50	0xbe878939	-0.2647188
51	0x3c8a0f39	0.016852962
52	0x3aef2934	0.0018246532
53	0x3ee0855e	0.4385175
54	0x3f16ef6c	0.5895908
55	0x3d5c97cd	0.053855706
56	0xbe2d5aab	-0.16929118
57	0x3e9fdc9c	0.31223
58	0x3e2f64fa	0.17128363
59	0x3f0b9096	0.54517496
60	0x3f0698a3	0.52576655
61	0x3e6d0a4d	0.2314846
62	0x3e9fadb6	0.31187218
63	0xbe78aec2	-0.24285415
64	0x3e0893e9	0.13337673
65	0x3f874db8	1.0570593
66	0x3c1bc079	0.009506338
67	0x3efae791	0.49004796
68	0x3e5b2bfb	0.21403496
69	0xbf582b3f	-0.8444099
70	0x3d1d58a0	0.038414598
71	0xbefc2fe0	-0.49255276
72	0xbe91709e	-0.28406233
73	0xbdf52138	-0.119692266
74	0x3e3e459e	0.18581244
75	0xbf12790f	-0.5721597
76	0xbe4525f2	-0.19252756
77	0xbeb348e7	-0.35016558
78	0x3e27aed5	0.16375287
79	0x3e84bfba	0.25927526
80	0x3d12277c	0.035682186
81	0x3e475cf1	0.19469048
82	0x3e86f801	0.26361087
83	0xbdadb63b	-0.08482023
84	0x3c4343d3	0.011918026
85	0xbedb6efe	-0.42858118
86	0xbdce2065	-0.100647725
87	0xbedf43ab	-0.43606314
88	0xbe79c6d7	-0.24392258
89	0xbeba0cd1	-0.36337903
90	0x3df81b40	0.121145725
91	0x3dc85619	0.09782047
92	0x3e707600	0.23482513
93	0x3e11719d	0.14203496
94	0x3e40deba	0.18834963
95	0xbee61c6b	-0.44943556
96	0x3e9e989f	0.30975816
97	0x3ed12388	0.4084742
98	0xbddbeb4b	-0.10738238
99	0x3e0ff02d	0.14056464
100	0xbea81974	-0.3283192
101	0xbea7fb01	-0.32808688
102	0xbd8095a0	-0.06278539
103	0x3e0bf82e	0.13668892
104	0xbdc2ca23	-0.09511211
105	0xbe9fcc0b	-0.3121036
106	0x3e354a2d	0.17704077
107	0xbecba790	-0.39776278
108	0xbb774b04	-0.0037733922
109	0x3d9284a2	0.07154204
110	0xbeafc5ff	-0.34330747
111	0xbe8c520b	-0.27406344
112	0x3ed86431	0.4226394
113	0xbe9766b6	-0.2957055
114	0x3e5205f1	0.20510079
115	0x3e0d5fa1	0.13806011
116	0xbd9490c1	-0.07254172
117	0xbe2f8440	-0.17140293
118	0x3f3fe80a	0.7496344
119	0xbcf80d48	-0.03027977
120	0x3e120fb2	0.142638
121	0x3c09b5c9	0.008405157
122	0x3e948030	0.2900405
123	0xbe10710b	-0.14105622
124	0x3c3ed79a	0.011648083
125	0x3d2db137	0.042405333
126	0x3e0b7259	0.13617839
127	0x3df3268e	0.11872588

blocks.block0.bn2.running_var f4 [128]
0	0x3d8a66ee	0.067579135
1	0x3c41856c	0.011811595
2	0x3d0e0310	0.03467089
3	0x3d0982fe	0.03357219
4	0x3c51a605	0.01279593
5	0x3da1ca7c	0.07899949
6	0x3c9968fc	0.018726818
7	0x3e027740	0.12740803
8	0x3d63d06a	0.05561868
9	0x3e308257	0.1723722
10	0x3ca9641c	0.020677619
11	0x3cf15a2c	0.029461943
12	0x3e859cf7	0.26096317
13	0x3c8ffe91	0.017577441
14	0x3d725b5e	0.059169166
15	0x3d228568	0.039678007
16	0x3cd17d6d	0.025572503
17	0x3c523bd9	0.012831652
18	0x3d7b5d18	0.061368078
19	0x3da9c6f1	0.08289898
20	0x3dd3fc77	0.10350888
21	0x3c995be7	0.01872058
22	0x3d3e3137	0.046433654
23	0x3e3c74ca	0.18403926
24	0x3cf485eb	0.029849013
25	0x3d0d6ae5	0.03452577
26	0x3d757e68	0.059935004
27	0x3ca74f91	0.020423682
28	0x3cb400c0	0.021973014
29	0x3d245d95	0.04012831
30	0x3c854074	0.016266085
31	0x3d67941a	0.056537725
32	0x3d855d5b	0.06511947
33	0x3c9afadd	0.018918449
34	0x3daea2d3	0.0852715
35	0x3d8e442b	0.06946596
36	0x3d984115	0.074342884
37	0x3cced087	0.025245918
38	0x3dfa84ab	0.12232336
39	0x3c9ea421	0.019365372
40	0x3de9fba3	0.11424949
41	0x3dca0953	0.0986506
42	0x3dc1c94b	0.09462222
43	0x3d0c39f1	0.034234945
44	0x3d29badd	0.041437972
45	0x3cce1074	0.02515433
46	0x3ec1b033	0.37829742
47	0x3d302ec4	0.04301335
48	0x3d746ea1	0.059675816
49	0x3c841e81	0.016127827
50	0x3d0a639d	0.033786405
51	0x3cde942b	0.027170261
52	0x3c9a2d75	0.018820504
53	0x3d1acf7f	0.03779554
54	0x3dc2a074	0.0950326
55	0x3ccce6cd	0.025012398
56	0x3d327320	0.043566823
57	0x3cb9c061	0.022674741
58	0x3d600179	0.054688904
59	0x3e26ebd2	0.16300896
60	0x3d819c9f	0.06328701
61	0x3e0ff33d	0.14057632
62	0x3d833f1a	0.0640852
63	0x3d433b9e	0.047664277
64	0x3c38df59	0.011283719
65	0x3e1529c9	0.14566721
66	0x3be827ed	0.0070848376
67	0x3e13daaf	0.1443889
68	0x3e1c1f4e	0.15246317
69	0x3dc31eeb	0.095273815
70	0x3c3a6366	0.0113762375
71	0x3d108cad	0.03529041
72	0x3d1b29f0	0.03788179
73	0x3c879858	0.016552135
74	0x3dee9080	0.11648655
75	0x3d669e66	0.056303404
76	0x3ca69dae	0.02033886
77	0x3d74cc5c	0.059765205
78	0x3e072efb	0.13201515
79	0x3e1df760	0.15426397
80	0x3d047c61	0.03234518
81	0x3d63fa78	0.055658787
82	0x3d4ff9d7	0.050775375
83	0x3d0ff0a0	0.035141587
84	0x3c7a7e5b	0.015288915
85	0x3d855dbf	0.06512021
86	0x3d256f03	0.040389072
87	0x3e090678	0.13381374
88	0x3dccc10a	0.09997757
89	0x3e37655c	0.1790976
90	0x3df43c98	0.1192562
91	0x3bd44439	0.0064778593
92	0x3de6a005	0.1126099
93	0x3e05a085	0.13049515
94	0x3c8d7902	0.017269615
95	0x3e1e8870	0.15481734
96	0x3d55a731	0.0521614
97	0x3df05f33	0.11736908
98	0x3cbe83d0	0.023256212
99	0x3d54af07	0.05192473
100	0x3e0065b9	0.12538804
101	0x3d28e792	0.041236468
102	0x3d40620a	0.046968497
103	0x3d1bc8e8	0.038033396
104	0x3d609714	0.05483158
105	0x3d745278	0.05964896
106	0x3c889bc8	0.016675845
107	0x3cbae42a	0.022813875
108	0x3e3af45b	0.18257277
109	0x3d160f83	0.036635887
110	0x3e00b928	0.12570632
111	0x3da8453d	0.08216331
112	0x3d4eec6f	0.05051845
113	0x3e158107	0.14600001
114	0x3c93972d	0.018016422
115	0x3bf3bb61	0.007438109
116	0x3c5008ab	0.012697379
117	0x3cbeb8ba	0.023281444
118	0x3e395b7a	0.18101302
119	0x3ca38125	0.019959042
120	0x3e51bbc3	0.20481782
121	0x3c61272d	0.01374225
122	0x3d52effa	0.05149839
123	0x3d33a83c	0.043861613
124	0x3e036b3d	0.12833877
125	0x3d5fe781	0.05466414
126	0x3db144aa	0.08655675
127	0x3ebdf3b0	0.3709998
