results/7DoF-7R-Panda/ResMLP_7DoF-7R-Panda_layers_1_neurons_128_batch_250000_Adam_l2_1_qlim_scale_10_samples_1000000/epoch_100.pth (torch, 90450 bytes, 20 tensors)

blocks.block0.fc1.weight f4 [128, 6]
-0.025426779 0.008816195 -0.25917336 -0.45416567 -0.074936874 0.15680997 0.019219233 0.277865
-0.15209326 0.14681467 -0.027522026 -0.07984897 -0.5090521 -0.21290548 -0.15394633 0.0016538681
0.19212167 0.1905165 -0.13952962 -0.17215435 0.21280424 0.38778356 0.0069690756 0.3130914
-0.037432242 0.16574743 0.22123212 -0.51513374 -0.18108 -0.061635118 0.0323793 0.27768373
-0.21378905 -0.28264698 -0.23107149 -0.43794242 -0.1650096 0.37379357 0.09079127 0.23482873
0.032902636 -0.2204618 0.10950462 -0.23399283 -0.2898148 -0.23403428 0.20966402 0.31580466
-0.1361918 0.008591261 0.1780621 0.4297716 0.17760846 0.12824668 0.14264321 -0.26223698
0.06674535 -0.34471524 -0.21735382 -0.28715524 0.1697416 0.14694102 -0.23793897 0.1559038
0.2173399 -0.034068264 0.04060363 0.10886918 0.2576618 0.38769498 -0.2501946 -0.21175031
0.17593785 0.21771865 0.2913779 0.46982938 -0.010637771 -0.414677 -0.10912411 -0.21125281
-0.40212733 0.44214234 0.2048392 -0.37806308 0.049061827 0.09120066 -0.10424639 -0.23128931
0.14615722 -0.2260988 0.11421974 0.17705633 0.28060746 0.13747703 -0.42420688 -0.30703065
0.20891258 0.05617657 -0.31319562 -0.30197012 0.17086285 0.3518441 -0.18135254 -0.18508612
-0.489281 -0.07759175 -0.20769894 -0.26801333 -0.10345381 -0.11408538 -0.20106854 0.20566466
-0.19787216 0.38026148 0.23409018 -0.3885761 -0.11067875 0.05098584 0.03697088 0.050188545
0.16368762 0.015717437 -0.20363829 0.20188782 -0.3404087 -0.28303158 -0.05244928 -0.10962107
-0.1166557 -0.39775822 -0.07992737 0.025649905 -0.2636268 -0.067369625 0.26429835 -0.075515404
0.021622563 -0.02860554 0.057465717 0.14063485 0.3772409 0.37542826 0.22244279 0.015181505
-0.40121683 -0.23311362 0.25253737 -0.027991213 -0.14751475 -0.36760128 -0.25005224 -0.3449775
-0.036956213 0.19526082 0.2102219 -0.48953226 0.18302174 -0.3492219 -0.11694057 -0.14737934
-0.06378092 -0.13854101 -0.447385 -0.316185 -0.0642402 -0.022396632 -0.12504536 0.12902826
-0.37821752 -0.020557458 0.4437763 -0.2569617 0.32134372 0.05494703 -0.35807624 0.1229251
-0.100132294 -0.20325889 0.27476844 -0.394272 -0.008974394 0.00533711 0.39772746 -0.03794085
0.0016406011 0.07003763 0.027559029 -0.13583563 -0.2943439 0.28978667 0.28287435 0.2985333
-0.19996186 0.023589877 -0.24942508 -0.3086819 -0.2201914 0.21000028 -0.10874361 -0.28401172
0.07406957 0.26495278 -0.18497652 -0.34398857 -0.15934384 0.19469994 -0.16959956 0.49781722
0.18913685 0.04157502 -0.011089292 -0.05917475 0.033079207 -0.14366473 0.009151599 0.0696674
-0.25962391 -0.21113063 0.38293973 -0.23333678 -0.024792584 0.454727 0.0815087 0.07275544
-0.39283168 0.23952134 -0.20210949 -0.2164113 0.11821091 0.07287149 0.16639437 0.3346243
0.003578645 0.3335 0.1543185 -0.20555042 0.14713773 -0.31485707 -0.09385943 0.17887583
0.14555429 0.2059517 -0.12506314 -0.047410455 0.15572529 -0.45358717 0.2566472 -0.39242718
-0.023226801 -0.075122625 -0.17522956 0.08706743 0.32643324 -0.066045985 -0.21270095 -0.1431949
00000000: d24b d0bc cd71 103c 5fb2 84be 6788 e8be
00000010: 8178 99bd cb92 203e a771 9d3c 5244 8e3e
00000020: 56be 1bbe 9656 163e df75 e1bc db87 a3bd
00000030: 3d51 02bf e503 5abe 1ba4 1dbe 9bc6 d83a
00000040: 8bbb 443e c216 433e dae0 0ebe 3b49 30be
00000050: 5be9 593e 918b c63e d85c e43b 844d a03e
00000060: 8d52 19bd b2b9 293e ac8a 623e cedf 03bf
00000070: 096d 39be 1b75 7cbd 28a0 043d 902c 8e3e
00000080: 84eb 5abe 1bb7 90be 019e 6cbe fd39 e0be
00000090: 47f8 28be df61 bf3e c6f0 b93d f176 703e
000000a0: eac4 063d bdc0 61be f543 e03d d19b 6fbe
000000b0: 9b62 94be afa6 6fbe 2ab2 563e 26b1 a13e
000000c0: dd75 0bbe 5cc2 0c3c e955 363e 060b dc3e
000000d0: fede 353e 1953 033e 1011 123e ed43 86be
000000e0: c9b1 883d 847e b0be 0092 5ebe 0306 93be
000000f0: bed0 2d3e b577 163e 46a6 73be 3fa5 1f3e
00000100: 5a8e 5e3e 2a8b 0bbd fe4f 263d cef6 de3d
00000110: 3fec 833e f57f c63e 8219 80be 13d5 58be
00000120: 0d29 343e a3f1 5e3e 7c2f 953e 7a8d f03e
00000130: 0c4a 2ebc 8b50 d4be 767c dfbd a852 58be
00000140: a2e3 cdbe 7b60 e23e 5ec1 513e 7c91 c1be
00000150: 0ef5 483d 69c7 ba3d 227f d5bd 1bd7 6cbe
00000160: 3daa 153e 7286 67be 0aec e93d 414e 353e
00000170: c8ab 8f3e c7c6 0c3e a531 d9be 1f33 9dbe
00000180: 2eed 553e 6719 663d 2d5b a0be d49b 9abe
00000190: acf6 2e3e e924 b43e 7bb4 39be 3787 3dbe
000001a0: 0a83 fabe 6ce8 9ebd 08af 54be 0b39 89be
000001b0: 97df d3bd 99a5 e9bd e9e4 4dbe c299 523e
000001c0: 009f 4abe a2b1 c23e 56b5 6f3e 72f3 c6be
000001d0: 8aab e2bd 87d6 503d c76e 173d 8192 4d3d
000001e0: ba9d 273e dbc1 803c 8e86 50be aebb 4e3e
000001f0: 0d4a aebe 84e9 90be 0ed5 56bd 0381 e0bd
00000200: 2fe9 eebd f7a6 cbbe f6b0 a3bd c01f d23c
00000210: 18fa 86be 16f9 89bd 1d52 873e d2a7 9abd
00000220: cd21 b13c 2a56 eabc 2c61 6b3d 9502 103e
00000230: b825 c13e 2238 c03e 0bc8 633e d9bb 783c
00000240: 4b6c cdbe 56b5 6ebe 944c 813e d44d e5bc
00000250: 1b0e 17be 3c36 bcbe d906 80be e4a0 b0be
00000260: 665f 17bd 74f2 473e 6944 573e f9a3 fabe
00000270: 0d6a 3b3e 36cd b2be 8a7e efbd 9cea 16be
00000280: 929f 82bd b2dd 0dbe a60f e5be 00e3 a1be
00000290: 5e90 83bd 2479 b7bc e40b 00be fc1f 043e
000002a0: baa5 c1be 1d68 a8bc a636 e33e 7c90 83be
000002b0: 2a87 a43e 2310 613d c555 b7be 28c0 fb3d
000002c0: 2912 cdbd 1923 50be 73ae 8c3e 05de c9be
000002d0: 5609 13bc ece2 ae3b efa2 cb3e dd67 1bbd
000002e0: 7009 d73a e46f 8f3d 79c3 e13c 7f18 0bbe
000002f0: 3eb4 96be eb5e 943e e8d4 903e 5bd9 983e
00000300: cdc2 4cbe 8f3f c13c 4a69 7fbe 8e0b 9ebe
00000310: db79 61be 500a 573e f8b4 debd fc69 91be
00000320: c9b1 973d e4a7 873e 7c6a 3dbe 451f b0be
00000330: 082b 23be 6c5f 473e 82ab 2dbe e6e1 fe3e
00000340: 17ad 413e 914a 2a3d ddaf 35bc 3961 72bd
00000350: 107e 073d d91c 13be 97f0 153c c8ad 8e3d
00000360: 6ded 84be a132 58be ad10 c43e d6ef 6ebe
00000370: d119 cbbc fad1 e83e 09ee a63d ce00 953d
00000380: 3c21 c9be 1545 753e caf5 4ebe ec9a 5dbe
00000390: 9018 f23d a63d 953d 4963 2a3e e053 ab3e
000003a0: b387 6a3b 83c0 aa3e ab05 1e3e cf7b 52be
000003b0: 46ab 163e f234 a1be 5f39 c0bd 3a2b 373e
000003c0: 2f0c 153e 01e5 523e 8d10 00be 7731 42bd
000003d0: 7376 1f3e 943c e8be 4367 833e 37ec c8be
000003e0: 2246 bebc e4d9 99bd 616f 33be 6950 b23d
000003f0: 4222 a73e 1e43 87bd 47ce 59be afa1 12be

blocks.block0.fc1.bias f4 [128]
-0.301935 -0.11337553 0.12655947 -0.34971288 0.22812243 0.21633689 0.23842993 -0.27212942
0.41720158 -0.25024697 0.43105996 -0.39894435 -0.3555492 0.2441267 0.05242963 0.035858653
-0.22514072 -0.1780436 -0.122457124 -0.4008872 0.005003462 0.07286795 0.0028676158 0.15529908
0.3868136 0.098652974 -0.1703671 -0.20100677 -0.26229447 -0.2906819 -0.1024961 -0.06200402
0.17396665 -0.18562943 0.3398841 -0.2648522 0.0093857 0.3552318 0.34794754 -0.24857199
0.07760742 0.042355757 -0.19782074 -0.13923584 0.12939836 -0.27300274 0.0622842 0.1775171
-0.104680575 0.33050716 -0.017133124 0.19963746 0.38253894 -0.12374561 0.246831 -0.112802096
-0.034269422 -0.06282326 -0.02143875 -0.1527154 0.10038005 0.024526037 0.25556728 -0.098918974
0.0063971984 -0.16890861 -0.34924963 0.19135074 0.057044137 -0.17271636 -0.12773047 0.08074981
-0.0544203 0.2778107 0.017519511 0.16672914 0.17861955 -0.09808243 0.16450617 0.30285513
0.013087143 0.08268768 0.011890748 0.29301393 -0.15775265 -0.23441765 0.13013949 -0.3626058
0.011687717 -0.16386665 0.2651094 -0.396889 0.28575677 0.4196296 0.099491596 -0.03530975
0.38863403 -0.19314429 -0.020076884 -0.1838341 -0.06484788 0.096674696 0.06457299 -0.06664743
-0.41928545 0.031206427 -0.018300688 0.06762372 0.31186745 0.38644713 -0.2515756 -0.019089077
-0.16716489 -0.39570504 -0.29222944 0.38595572 0.22869428 0.20756707 0.23154804 -0.34292796
0.03582459 0.36231118 -0.21925698 0.37276888 0.1375251 0.2892157 -0.1693418 0.19703488
00000000: 3997 9abe 6e31 e8bd ce98 013e 910d b3be
00000010: ed98 693e 6b87 5d3e fa26 743e 8c54 8bbe
00000020: 729b d53e 5f20 80be e4b3 dc3e 6f42 ccbe
00000030: 8b0a b6be 5afc 793e 74c0 563d 86e0 123d
00000040: 4a8b 66be 1051 36be cdca fabd 1641 cdbe
00000050: 15f4 a33b cb3b 953d 9cee 3b3b b906 1f3e
00000060: 6f0c c63e 920a ca3d b774 2ebe b8d4 4dbe
00000070: 764b 86be 42d4 94be 7ae9 d1bd edf7 7dbd
00000080: 5024 323e a415 3ebe 4a05 ae3e b59a 87be
00000090: 7bc6 193c f1e0 b53e 2e26 b23e a889 7ebe
000000a0: a4f0 9e3d 3b7d 2d3d 8591 4abe d793 0ebe
000000b0: 0181 043e 04c7 8bbe b81d 7f3d 0bc7 353e
000000c0: c562 d6bd 3c38 a93e c45a 8cbc c36d 4c3e
000000d0: 25dc c33e 576e fdbd 44c1 7c3e c904 e7bd
000000e0: 185e 0cbd 7ba9 80bd 51a0 afbc 6d61 1cbe
000000f0: 0e94 cd3d d4ea c83c b7d9 823e 0896 cabd
00000100: 979f d13b 61f6 2cbe d9d0 b2be 73f1 433e
00000110: 1da7 693d 8fdc 30be c7cb 02be 2860 a53d
00000120: d2e7 5ebd 343d 8e3e 1485 8f3c 0bbb 2a3e
00000130: 0be8 363e 71df c8bd 4e74 283e d40f 9b3e
00000140: 756b 563c 2958 a93d 69d1 423c ec05 963e
00000150: e989 21be 2e0b 70be 4943 053e 78a7 b9be
00000160: d77d 3f3c a9cc 27be 6bbc 873e 0935 cbbe
00000170: b64e 923e b1d9 d63e 40c2 cb3d f5a0 10bd
00000180: 0afb c63e 9ec7 45be 4778 a4bc 023f 3cbe
00000190: f7ce 84bd 62fd c53d d83e 843d 737e 88bd
000001a0: 95ac d6be 9fa4 ff3c 53eb 95bc 4e7e 8a3d
000001b0: 17ad 9f3e 66dc c53e 84ce 80be b260 9cbc
000001c0: 462d 2bbe da99 cabe 199f 95be fd9b c53e
000001d0: d52e 6a3e 768c 543e ee1a 6d3e 4194 afbe
000001e0: cebc 123d da80 b93e e784 60be 90db be3e
000001f0: 61d3 0c3e 1514 943e f067 2dbe 83c3 493e

blocks.block0.bn1.weight f4 [128]
1.034117 0.9368836 0.9208196 1.0593783 1.0054059 1.0580692 1.0267177 0.92298585
0.9806482 0.98356396 0.94941646 1.0520988 1.0395879 1.0847244 1.05146 0.9532968
0.9651354 0.97478914 1.0212255 0.98765045 0.936436 1.0048522 0.95141584 0.8954044
0.9287581 0.99377316 0.94146544 0.91953933 1.0051479 0.98663294 1.1124718 0.9823368
0.9820569 0.9979223 0.9585159 1.0498631 0.98271936 1.0114021 1.2199241 0.98635226
1.0314962 0.87904257 0.98358655 0.9866191 0.89850205 0.99671334 0.9726185 1.0349274
1.0831647 1.0047616 1.0719144 0.96759814 1.0815569 0.934124 0.95563704 0.9752202
0.9534689 1.0271492 1.0775673 0.96075666 1.0378242 1.0030024 0.9742927 1.0127159
1.0656126 0.9726866 0.9949545 0.8563452 0.96382564 0.9973554 0.9884124 0.9240048
1.0802773 1.0147105 0.9873117 0.94473773 0.9627076 1.0468206 1.000741 0.9846873
0.9225628 0.96034425 0.9607249 0.9590585 0.9517369 0.96716154 1.1131058 0.97829187
0.99031645 1.0233386 0.9519283 1.0409873 0.87064165 0.9733317 0.9374928 1.0134858
1.0355709 0.9202577 1.0121143 1.0320276 1.01289 1.0364283 0.9879981 1.0328956
0.9643226 0.9676275 0.9431219 1.0121014 0.9792775 1.0270182 1.0770637 1.0385882
0.9951335 0.9131038 1.0100423 0.97914743 1.0169202 0.99637717 1.0322136 1.0376847
0.9859796 1.0450069 1.0478206 0.8985912 0.93109417 1.0314642 0.99702394 0.9918205
00000000: f25d 843f 9bd7 6f3f d5ba 6b3f b599 873f
00000010: 24b1 803f d06e 873f 7c6b 833f cd48 6c3f
00000020: c30b 7b3f d9ca 7b3f f50c 733f 2cab 863f
00000030: 3711 853f 40d8 8a3f 3e96 863f 420b 743f
00000040: 1d13 773f c88b 793f 84b7 823f a9d6 7c3f
00000050: 45ba 6f3f ff9e 803f fd8f 733f 3939 653f
00000060: 17c3 6d3f eb67 7e3f e103 713f ee66 6b3f
00000070: b0a8 803f fa93 7c3f 7a65 8e3f 6d7a 7b3f
00000080: 1568 7b3f d677 7f3f 4c61 753f ea61 863f
00000090: 7f93 7b3f a075 813f 7926 9c3f 9581 7c3f
000000a0: 1108 843f ef08 613f 54cc 7b3f 1293 7c3f
000000b0: 3b04 663f 9b28 7f3f 87fd 783f 8078 843f
000000c0: 24a5 8a3f 079c 803f 7e34 893f 83b4 773f
000000d0: 7570 8a3f c022 6f3f a1a4 743f 08a8 793f
000000e0: 8a16 743f a079 833f baed 893f 26f4 753f
000000f0: 6cd7 843f 6262 803f 3f6b 793f ada0 813f
00000100: fe65 883f fd01 793f 57b5 7e3f 7039 5b3f
00000110: 47bd 763f af52 7f3f 9808 7d3f 948b 6c3f
00000120: 8746 8a3f 09e2 813f 76c0 7c3f 55da 713f
00000130: 0174 763f 38fe 853f 4818 803f 7814 7c3f
00000140: 132d 6c3f 1fd9 753f 11f2 753f dc84 753f
00000150: 08a5 733f e697 773f 407a 8e3f 5671 7a3f
00000160: 6185 7d3f c2fc 823f 93b1 733f 123f 853f
00000170: 5fe2 5e3f 442c 793f 87ff 6f3f e7b9 813f
00000180: 968d 843f 0296 6b3f f68c 813f 7b19 843f
00000190: 61a6 813f afa9 843f 72ed 7c3f ec35 843f
000001a0: d9dd 763f 70b6 773f 7070 713f 8a8c 813f
000001b0: eeb1 7a3f 5575 833f 39dd 893f 75f0 843f
000001c0: 12c1 7e3f 2cc1 693f 1149 813f 68a9 7a3f
000001d0: 712a 823f 9312 7f3f 931f 843f dad2 843f
000001e0: 2969 7c3f c9c2 853f fc1e 863f 130a 663f
000001f0: 305c 6e3f 0507 843f f63c 7f3f f3e7 7d3f

blocks.block0.bn1.bias f4 [128]
0.09152545 0.1266133 0.10432052 -0.08662808 0.09245471 -0.06817584 -0.036958884 -0.07141978
-0.04788508 -0.1384867 -0.06763016 0.07080163 0.023649946 -0.053209882 -0.16276322 -0.24609236
0.11168414 0.060357492 -0.16362993 -0.0824401 -0.015171468 0.07295405 0.1253672 0.18753578
0.06925059 0.032572404 0.052381802 0.038940456 -0.09969821 -0.09471264 0.118406914 -0.120562695
0.20005128 0.12749879 0.053381655 -0.10352597 -0.01796844 0.15534496 0.1899992 0.0013112596
-0.06794913 0.11368767 -0.036867503 0.11640682 -0.17799188 0.02680266 -0.005016939 0.09487458
-0.030526001 0.0871096 0.024612918 -0.029595105 0.053666364 0.03429628 -0.00031036246 0.06103157
0.18891075 -0.34799853 -0.18141636 0.009977619 0.08788722 0.040564388 0.059949666 0.004569907
-0.078660965 -0.12236569 -0.0125841 0.03854578 -0.03330362 -0.028638324 -0.08211307 -0.1519632
0.010303758 -0.11489878 -0.0062826504 -0.14435919 -0.020750131 -0.057275042 0.054775804 0.10185743
-0.11767896 -0.06762396 0.024068346 0.00065050676 0.018563831 0.062633835 0.1661096 0.016891541
0.059763778 0.023348907 0.36854434 -0.06101078 -0.06461716 -0.07853537 -0.037842434 -0.008947217
-0.15645626 -0.042162176 -0.07034531 -0.12702894 0.10694691 -0.29391822 -0.04018961 -0.16297838
0.009578724 -0.11760814 0.09257128 0.11021976 0.115286484 -0.030550143 -0.0963869 -0.0061781653
-0.089202285 -0.17442812 -0.04594226 -0.18963152 -0.061420422 0.10144024 0.08042201 -0.012759008
0.028090645 0.06171955 -0.0361912 -0.042548895 -0.08132337 -0.077231355 0.06889561 0.051707726
00000000: b271 bb3d eba6 013e ffa5 d53d 106a b1bd
00000010: e558 bd3d c69f 8bbd 3362 17bd 8944 92bd
00000020: 2523 44bd 75cf 0dbe ae81 8abd 7200 913d
00000030: 88bd c13c 9bf2 59bd 67ab 26be a3ff 7bbe
00000040: a8ba e43d 6b39 773d 9b8e 27be 5bd6 a8bd
00000050: c091 78bc ef68 953d 4260 003e 6109 403e
00000060: 41d3 8d3d a46a 053d 4d8e 563d 0780 1f3d
00000070: 932e ccbd b3f8 c1bd 537f f23d 93e9 f6bd
00000080: 3eda 4c3e 0b8f 023e b9a6 5a3d 6c05 d4bd
00000090: 8d32 93bc c012 1f3e 268f 423e 92de ab3a
000000a0: ea28 8bbd 15d5 e83d 6102 17bd b366 ee3d
000000b0: 8143 36be 4191 db3c 2265 a4bb 9b4d c23d
000000c0: aa11 fabc 8566 b23d 08a1 c93c 6f71 f2bc
000000d0: 43d1 5b3d 427a 0c3d 25b8 a2b9 3dfc 793d
000000e0: d271 413e dd2c b2be 36c5 39be 2b79 233c
000000f0: 37fe b33d d826 263d c88d 753d 29bf 953b
00000100: 0019 a1bd dd9a fabd 8a2d 4ebc 2ee2 1d3d
00000110: 6069 08bd eb9a eabc e62a a8bd 3e9c 1bbe
00000120: 18d1 283c 0d50 ebbd b1de cdbb e5d2 13be
00000130: 2efc a9bc 3c99 6abd 985c 603d a19a d03d
00000140: ab01 f1bd 6e7e 8abd fb2a c53c c586 2a3a
00000150: 2d13 983c 2b46 803d a318 2a3e 2160 8a3c
00000160: ddca 743d 3546 bf3c d8b1 bc3e 71e6 79bd
00000170: 0056 84bd 27d7 a0bd ab00 1bbd 5997 12bc
00000180: 1236 20be 3fb2 2cbd 3411 90bd e013 02be
00000190: fb06 db3d 737c 96be dc9d 24bd cee3 26be
000001a0: 15f0 1c3c 89dc f0bd 0396 bd3d e6ba e13d
000001b0: 521b ec3d 4b44 fabc 7f66 c5bd 3572 cabb
000001c0: b0af b6bd 499d 32be f42d 3cbd c42e 42be
000001d0: fb93 7bbd e7bf cf3d 4bb4 a43d 290b 51bc
000001e0: 5a1e e63c a4cd 7c3d 393d 14bd c047 2ebd
000001f0: de8c a6bd 792b 9ebd 2419 8d3d 7bcb 533d

blocks.block0.bn1.running_mean f4 [128]
-0.62746716 -0.01805424 -0.11912016 -0.047295444 0.027399542 -0.20753798 0.41426983 -0.33828372
0.81219757 -0.7035749 0.6386651 -0.231428 0.009858321 0.016966995 -0.08544082 0.030633168
-0.1433599 -0.8844221 -0.13680668 -0.46625915 -0.21601957 -0.2927889 -0.06774012 0.7500993
-0.073978834 -0.25642484 -0.4878677 -0.6249267 -0.17510611 -0.6182691 0.11326801 0.1681456
-0.2012073 -0.4779952 0.63979083 -0.314786 0.059224375 0.14844686 0.8658247 -0.315861
0.021119576 -0.12087063 -0.29821363 -0.019078584 0.3636367 -0.93865216 0.077234656 0.42575997
-0.23867548 0.19374317 -0.3184469 0.1416661 0.43513533 -0.07342773 0.82975316 -0.09268132
0.5700633 0.4252828 0.18965441 -0.06729855 0.22644113 -0.18126898 0.0445534 0.523858
0.49576452 -0.41779605 -0.14669167 0.50267893 0.08390792 -0.10656546 -0.23064582 -0.27646548
-0.51778793 0.09448768 -0.2249399 0.8373678 -0.19189504 -0.05669902 0.3733198 0.18992572
-0.005241961 0.32496917 -0.1308652 0.8848976 0.07599006 -0.21528913 0.31585115 -0.5133648
-0.17524473 -0.5047842 0.23260795 -0.7558932 0.37046036 0.26282823 0.33180735 0.039442435
0.37046167 -0.25104475 0.04988192 0.3573961 -0.31771064 -0.3316178 0.52226126 0.030652773
-0.7070312 0.27089563 -0.46063867 0.3272202 0.12715685 0.37140942 -0.2876391 0.00063642615
0.029623182 -0.34492278 -0.22592615 0.4565828 0.3435455 0.28651407 -0.29267046 0.12326955
-0.19579145 0.5411323 -0.3620593 0.17630194 0.4116217 0.55326325 -0.2759173 0.33205044
00000000: b0a1 20bf 7ce6 93bc 45f5 f3bd deb8 41bd
00000010: 0175 e03c d684 54be 2d1b d43e 8633 adbe
00000020: 2eec 4f3f 7c1d 34bf 8e7f 233f 76fb 6cbe
00000030: cc84 213c 5efe 8a3c 99fb aebd 69f2 fa3c
00000040: f0cc 12be 7d69 62bf 0d17 0cbe 85b9 eebe
00000050: 3c34 5dbe 6de8 95be 55bb 8abd 8206 403f
00000060: 3782 97bd 1e4a 83be ccc9 f9be 32fb 1fbf
00000070: 044f 33be e246 1ebf 0ff9 e73d 5c2e 2c3e
00000080: 4909 4ebe c9bb f4be 55c9 233f a12b a1be
00000090: 4295 723d 7402 183e b0a6 5d3f 88b8 a1be
000000a0: f602 ad3c 058b f7bd 75af 98be b14a 9cbc
000000b0: 972e ba3e 824b 70bf 342d 9e3d 36fd d93e
000000c0: 5867 74be 9c64 463e 790b a3be eb10 113e
000000d0: 0fca de3e 4761 96bd b46a 543f b4cf bdbd
000000e0: abef 113f abbe d93e c434 423e d2d3 89bd
000000f0: 2fe0 673e 939e 39be a07d 363d 8f1b 063f
00000100: d9d4 fd3e 5de9 d5be 5736 16be 91af 003f
00000110: ead7 ab3d fe3e dabd 6b2e 6cbe e28c 8dbe
00000120: c08d 04bf c282 c13d a556 66be bc5d 563f
00000130: 2280 44be 3b3d 68bd c623 bf3e e37b 423e
00000140: c2c4 abbb 5c62 a63e 8701 06be a688 623f
00000150: ada0 9b3d c174 5cbe 3eb7 a13e e06b 03bf
00000160: 5b73 33be 8a39 01bf c730 6e3e 3782 41bf
00000170: fbac bd3e 6c91 863e a7e2 a93e 648e 213d
00000180: 27ad bd3e f088 80be fc50 4c3d 9ffc b63e
00000190: f8aa a2be cfc9 a9be eab2 053f 861b fb3c
000001a0: ffff 34bf d5b2 8a3e d5d8 ebbe 6889 a73e
000001b0: 6835 023e 6029 be3e 6f45 93be d6d5 263a
000001c0: 51ac f23c b899 b0be 2f59 67be 39c5 e93e
000001d0: 32e5 af3e f9b1 923e e7d8 95be bf74 fc3d
000001e0: 8e7d 48be a587 0a3f d65f b9be 7f88 343e
000001f0: 14c0 d23e a9a2 0d3f 0845 8dbe 8402 aa3e

blocks.block0.bn1.running_var f4 [128]
0.022050293 0.005669222 0.015241589 0.02399422 0.02673089 0.02929409 0.014298272 0.020092133
0.02006692 0.021980828 0.008023203 0.022102939 0.038363375 0.03795533 0.010503496 0.022104342
0.024331389 0.019452194 0.019679783 0.007463053 0.017918153 0.014580035 0.005481501 0.020113623
0.021371476 0.03087034 0.0090611875 0.011829243 0.02247049 0.02480263 0.0063689086 0.021935623
0.017478634 0.02041537 0.025663314 0.0022900954 0.030743478 0.016684847 0.020263005 0.014283069
0.021027567 0.009519397 0.020520277 0.020780092 0.009290914 0.024435932 0.0134376595 0.020232655
0.004033683 0.018970784 0.01207308 0.009979722 0.015806697 0.0060805264 0.01401343 0.026863953
0.02381917 0.025104202 0.013152051 0.010073553 0.037782624 0.021847358 0.030664643 0.02853883
0.017450992 0.015928598 0.015951699 0.031014191 0.011477282 0.019090045 0.018438585 0.014944549
0.02539283 0.034396384 0.021828044 0.026905322 0.015240096 0.017295688 0.028663551 0.02045734
0.020503303 0.005922273 0.016812008 0.026900979 0.011064061 0.006854517 0.0052609444 0.014742186
0.036698136 0.010619002 0.014033355 0.036677174 0.009006 0.01881341 0.015681269 0.023798915
0.033598397 0.009966105 0.037485648 0.03809486 0.029584613 0.014764401 0.021756649 0.032201942
0.016282408 0.0048732427 0.0145125855 0.02962203 0.021575825 0.024527414 0.023770798 0.021447137
0.011423897 0.016536335 0.020562056 0.03160217 0.0105264615 0.020686759 0.02667923 0.02389202
0.013673005 0.026139189 0.020535931 0.013110949 0.012739836 0.020875158 0.019218635 0.027332619
00000000: d1a2 b43c e2c4 b93b dcb7 793c 878f c43c
00000010: bdfa da3c 29fa ef3c 4d43 6a3c 4298 a43c
00000020: 6263 a43c 2311 b43c c173 033c 3911 b53c
00000030: ea22 1d3d 0c77 1b3d db16 2c3c 2a14 b53c
00000040: 9f52 c73c 355a 9f3c 7f37 a13c a08c f43b
00000050: 17c9 923c 19e1 6e3c 2a9e b33b 53c5 a43c
00000060: 3c13 af3c cce3 fc3c 6075 143c 71cf 413c
00000070: 0814 b83c e32e cb3c 47b2 d03b 56b2 b33c
00000080: 5a2f 8f3c 223e a73c df3b d23c 6d15 163b
00000090: bfd9 fb3c a9ae 883c 9afe a53c 8903 6a3c
000000a0: 0142 ac3c 3ff7 1b3c 241a a83c 033b aa3c
000000b0: eb38 183c dd2d c83c a129 5c3c f4be a53c
000000c0: fc2c 843b 9e68 9b3c 2bce 453c fd81 233c
000000d0: 0c7d 813c 273f c73b 9698 653c cb11 dc3c
000000e0: 6c20 c33c 54a7 cd3c b37b 573c 8b0b 253c
000000f0: f4c1 1a3d 3bf9 b23c 6b34 fb3c 44ca e93c
00000100: 62f5 8e3c b17c 823c 23ad 823c 7911 fe3c
00000110: 360b 3c3c ba62 9c3c 840c 973c fbd9 743c
00000120: a004 d03c 39e3 0c3d bad0 b23c 8d68 dc3c
00000130: 98b1 793c b0af 8d3c d3cf ea3c 2796 a73c
00000140: 8bf6 a73c a00f c23b 56b9 893c 715f dc3c
00000150: 0946 353c db9b e03b 0064 ac3b 3689 713c
00000160: c950 163d 53fb 2d3c 28ec 653c ce3a 163d
00000170: e78d 133c 951e 9a3c 0176 803c f1f5 c23c
00000180: 799e 093d e048 233c 8d8a 193d 5b09 1c3d
00000190: 6e5b f23c 63e6 713c 003b b23c 2fe6 033d
000001a0: af62 853c b9af 9f3b 32c6 6d3c e6a9 f23c
000001b0: c9bf b03c b7ed c83c faba c23c e8b1 af3c
000001c0: 4c2b 3b3c 3577 873c c271 a83c 4771 013d
000001d0: 2e77 2c3c 4777 a93c 678e da3c 33b9 c33c
000001e0: bd04 603c da21 d63c f83a a83c 4ecf 563c
000001f0: bfba 503c 6102 ab3c 6670 9d3c a8e8 df3c

blocks.block0.fc2.weight f4 [128, 128]
-0.087698966 0.00041177493 0.024106769 0.031808663 0.1217967 0.096230954 0.0902386 0.07275471
0.043055933 0.0639923 -0.044632256 -0.003932733 0.0075960807 -0.037965916 0.08189246 0.05096145
0.03154199 0.032540105 0.08874025 0.037566006 -0.060025617 -0.05238021 0.05363502 0.001236283
0.0406919 -0.07427978 -0.07869405 0.023805095 0.106402256 -0.0577688 0.03832502 -0.03388883
0.014166361 0.03776516 0.104451366 -0.07444891 -0.109993406 0.037186455 0.13389046 0.059597954
0.06728251 -0.06869118 0.05529693 -0.058234487 0.030993108 -0.048831396 0.0037957074 0.005370341
0.029498242 0.11081929 -0.0836265 -0.06723979 0.044076595 -0.022485465 -0.045165066 -0.062513106
-0.06033186 -0.06181394 0.06850798 0.079204105 0.035920285 -0.051357906 0.046039 0.008151721
-0.09236491 0.005332238 0.111708894 -0.015401574 -0.044340394 0.007530669 0.070889115 -0.062345233
0.03404346 0.069117814 0.032234687 0.0010032732 0.07734688 0.060792677 -0.06301246 0.027647289
0.08609728 0.069278695 -0.0032881512 0.04291042 -0.02848903 -0.048850723 0.03553492 -0.010230071
0.031425547 -0.085751824 -0.052735817 -0.0026367498 -0.007496677 0.036238518 0.06897171 0.0705229
0.022580782 -0.015642883 0.054333452 0.02169052 0.0075676157 -0.0057300236 -0.008753373 -0.035832476
-0.02039533 -0.044282805 0.0050765024 -0.059938725 0.0138977505 0.057132486 -0.07613667 -0.028377743
-0.00947063 0.01610491 0.034426965 0.030307036 0.046564326 -0.04645195 0.011410636 0.041306216
0.07075898 -0.015283808 -0.045258358 0.05055077 0.085374616 -0.09369827 -0.03298233 0.023922587
-0.036155608 -0.02467854 -0.03209115 0.09548392 0.0011555953 0.026896233 0.06360517 0.08779959
-0.011423866 -0.049505726 -0.023774061 0.08102389 -0.13324986 0.0032246974 -0.0032588353 0.018729778
0.03217735 0.028027978 -0.032327596 -0.06637829 0.06258364 -0.021014128 0.038653355 -0.0032924986
-0.047091644 0.07051399 -0.037408136 -0.021032453 0.048265077 0.014191859 -0.13998963 -0.013389509
0.06684045 0.02907046 0.050305218 -0.044177063 -0.016791582 0.094890095 0.10239383 0.09210842
-0.048398256 0.08488783 -0.0031569432 -0.04131218 0.01050618 0.0012097788 0.028194439 0.038151506
0.038252145 0.07196289 0.06121608 -0.09231639 -0.19113195 0.049662393 0.0551821 0.05373546
0.04178879 -0.0055080084 0.028833553 -0.03168195 0.06912859 0.065069005 0.053929605 -0.057270393
-0.00967154 -0.08624646 -0.012067103 0.07041971 -0.059959933 0.014808584 0.008450115 -0.039602775
0.0142329205 -0.017334808 0.020009406 -0.018845776 0.006635076 0.05871455 -0.007592095 0.008980264
-0.06613149 -0.01370844 -0.018999305 -0.07783254 0.09855047 0.0016498145 -0.09397487 -0.0391586
0.024450447 0.014427453 -0.13018192 -0.104593754 -0.0040718154 -0.05500029 -0.06815673 -0.022506537
0.11834362 -0.06932464 -0.095548354 0.053319767 -0.120474294 0.02856764 -0.061429124 -0.048064664
0.0866929 -0.015519766 -0.023313968 0.07971244 -0.026001012 0.016134046 -0.03640369 -0.012578499
-0.056515887 0.052128848 0.053936917 -0.06189674 -0.030857868 0.062274933 -0.08840358 -0.05314453
0.005479948 -0.050397497 -0.04039096 -0.07193704 0.028953604 -0.102099575 0.09354376 -0.022442648
00000000: 849b b3bd 7fe3 d739 8f7b c53c cd49 023d
00000010: 8c70 f93d bc14 c53d 04cf b83d 6c00 953d
00000020: 6b5b 303d 650e 833d 50d0 36bd 28de 80bb
00000030: 8be8 f83b 2682 1bbd 3cb7 a73d f4bc 503d
00000040: 2c32 013d c648 053d 73bd b53d d0de 193d
00000050: 6cdd 75bd a28c 56bd 65b0 5b3d c60a a23a
00000060: 8dac 263d ff1f 98bd 592a a1bd e702 c33c
00000070: 6de9 d93d fa9e 6cbd b2fa 1c3d 04cf 0abd
00000080: 061a 683c a4af 1a3d 99ea d53d ac78 98bd
00000090: 3944 e1bd d350 183d 951a 093e fc1c 743d
000000a0: 6acb 893d f6ad 8cbd 097f 623d 4987 6ebd
000000b0: 42e5 fd3c 6e03 48bd 67c1 783b aff9 af3b
000000c0: 4ca6 f13c 39f5 e23d 5f44 abbd 04b5 89bd
000000d0: a989 343d 7033 b8bc 01ff 38bd df06 80bd
000000e0: 8a1e 77bd 9d30 7dbd e94d 8c3d c335 a23d
000000f0: 2621 133d ab5c 52bd 6493 3c3d cc8e 053c
00000100: d029 bdbd 0eba ae3b a2c7 e43d e256 7cbc
00000110: 469e 35bd d5c3 f63b 502e 913d b75d 7fbd
00000120: 2871 0b3d a48d 8d3d 8508 043d 4380 833a
00000130: 0b68 9e3d be01 793d ad0c 81bd 917c e23c
00000140: c553 b03d fde1 8d3d 067e 57bb d6c2 2f3d
00000150: d461 e9bc b217 48bd 108d 113d 079c 27bc
00000160: 13b8 003d a79e afbd 8301 58bd 52cd 2cbb
00000170: afa6 f5bb d76e 143d 0a41 8d3d 4f6e 903d
00000180: 55fb b83c 8125 80bc c18c 5e3d 51b0 b13c
00000190: c3f9 f73b ecc2 bbbb 4f6a 0fbc 13c5 12bd
000001a0: 1b14 a7bc e361 35bd ca58 a63b 4f82 75bd
000001b0: 64b3 633c c103 6a3d 8bed 9bbd 7178 e8bc
000001c0: b42a 1bbc 72ee 833c 4a03 0d3d 7646 f83c
000001d0: 3cba 3e3d 6644 3ebd adf3 3a3c b530 293d
000001e0: 16ea 903d f068 7abc d460 39bd 530e 4f3d
000001f0: e3d8 ae3d e1e4 bfbd 7b18 07bd 4df9 c33c
00000200: e717 14bd a62a cabc 0272 03bd 138d c33d
00000210: 5877 973a 7d55 dc3c 6d43 823d 45d0 b33d
00000220: 2b2b 3bbc 84c6 4abd d2c1 c2bc daef a53d
00000230: a772 08be 7255 533b 2f92 55bb 316f 993c
00000240: 66cc 033d ee9a e53c f169 04bd 57f1 87bd
00000250: da2b 803d d225 acbc fb52 1e3d f6c6 57bb
00000260: 2be3 40bd a469 903d 4639 19bd 404c acbc
00000270: 9ab1 453d f984 683c 7159 0fbe ac5f 5bbc
00000280: a5e3 883d 2c25 ee3c d80c 4e3d 02f3 34bd
00000290: 808e 89bc bd55 c23d dbb3 d13d 57a3 bc3d
000002a0: 403d 46bd acd9 ad3d b8e4 4ebb f636 29bd
000002b0: 1d22 2c3c 7191 9e3a 06f8 e63c c144 1c3d
000002c0: 48ae 1c3d 4861 933d b6bd 7a3d 6010 bdbd
000002d0: 18b8 43be cb6a 4b3d a006 623d b719 5c3d
000002e0: b92a 2b3d 867c b4bb 5834 ec3c efc4 01bd
000002f0: 4a93 8d3d e642 853d 4ae5 5c3d 5c94 6abd
00000300: 6175 1ebc fca1 b0bd 19b5 45bc 3538 903d
00000310: 8c98 75bd b49f 723c 5a72 0a3c 8536 22bd
00000320: 3231 693c ba01 8ebc c4ea a33c 7562 9abc
00000330: 0d6b d93b ab7e 703d 1cc7 f8bb f521 133c
00000340: f26f 87bd 5d99 60bc 6ea4 9bbc ab66 9fbd
00000350: d4d4 c93d 973e d83a e675 c0bd c564 20bd
00000360: 4e4c c83c 2061 6c3c 694e 05be 4035 d6bd
00000370: dd6c 85bb fc47 61bd c195 8bbd a15f b8bc
00000380: 245e f23d 14fa 8dbd dbae c3bd d465 5a3d
00000390: 3abb f6bd af06 ea3c 1b9d 7bbd 74df 44bd
000003a0: 0c8c b13d 9e46 7ebc effc bebc 4740 a33d
000003b0: 1300 d5bc 8c2b 843c 091c 15bd 0c16 4ebc
000003c0: 347d 67bd 0f85 553d f5ec 5c3d 7087 7dbd
000003d0: a4c9 fcbc 0014 7f3d f00c b5bd 14ae 59bd
000003e0: 2391 b33b 9b6d 4ebd fe70 25bd ba53 93bd
000003f0: 1c30 ed3c 9519 d1bd df93 bf3d a5d9 b7bc

blocks.block0.fc2.bias f4 [128]
-0.04445118 0.035424452 0.056979384 -0.059428986 -0.08020814 -0.098951906 0.013309841 0.03276072
0.043469504 -0.031214338 -0.005173258 0.0221823 0.050064776 -0.09487862 0.086048834 -0.023113972
0.050203446 -0.055197876 -0.030167453 -0.04535062 -0.025393877 -0.036363993 0.013723038 0.0806003
0.060819242 -0.051184714 -0.029966336 0.0042398586 -0.032233965 -0.0022669807 -0.014453578 -0.041606102
-0.059851553 0.00074542186 0.07405866 -0.007829141 0.08208687 -0.033826202 0.072280474 0.00087255466
0.048970886 0.030053837 0.019611564 -0.027860329 -0.0020504664 -0.004026528 -0.013789771 0.06153406
-0.03126648 -0.02803131 -0.054568425 0.025818173 0.07452725 -0.01800358 -0.050641663 0.027039494
0.029358502 0.03858571 0.00026752244 0.08719458 0.065311454 -0.056276593 0.063352786 -0.034520153
-0.09482229 0.074511945 -0.047414623 0.0072853826 0.08211923 -0.038321115 0.050207008 0.036532424
0.014074002 0.0655594 -0.051936198 -0.003749125 -0.072099276 0.08334885 -0.031858686 0.062774524
0.008454323 -0.0047300574 0.06659736 0.046192154 0.04786073 0.012568785 0.019818434 -0.07545935
0.0040771235 0.0002924759 -0.07938247 -0.04690249 0.031220552 0.057160594 0.0010255234 -0.033160005
-0.06878138 -0.066227615 -0.028450703 -0.04245805 -0.06423345 0.035229933 -0.059630893 -0.0041601104
0.052015673 -0.04600158 0.046723217 0.0036008281 -0.07302613 0.08842817 -0.03886423 0.080716185
0.078051694 0.02604398 -0.10824897 0.016562242 0.018671064 0.04932303 0.0041601737 0.08993852
0.010316482 0.050972577 -0.055686418 -0.019480918 0.07382224 -0.00726281 0.03615434 -0.040515807
00000000: 7112 36bd 3b19 113d 3763 693d cf6b 73bd
00000010: 2a44 a4bd 4ca7 cabd 8511 5a3c 1b30 063d
00000020: 140d 323d 36b5 ffbc 6f84 a9bb a8b7 b53c
00000030: b910 4d3d b94f c2bd 5f3a b03d 8359 bdbc
00000040: 21a2 4d3d 2b17 62bd bc21 f7bc 92c1 39bd
00000050: d206 d0bc 69f2 14bd 98d6 603c c511 a53d
00000060: 991d 793d 10a7 51bd f67b f5bc 83ee 8a3b
00000070: c307 04bd a091 14bb b3ce 6cbc 296b 2abd
00000080: e726 75bd 6a68 433a 11ac 973d cc45 00bc
00000090: 291d a83d 588d 0abd c907 943d 27bc 643a
000000a0: b295 483d 7733 f63c 6ea8 a03c 583b e4bc
000000b0: 1e61 06bb f7f0 83bb 7eee 61bc 230b 7c3d
000000c0: 4811 00bd eba1 e5bc 2483 5fbd a280 d33c
000000d0: bea1 983d 3e7c 93bc a26d 4fbd ee81 dd3c
000000e0: 3e81 f03c 0d0c 1e3d 4142 8c39 1293 b23d
000000f0: 03c2 853d 4982 66bd 1bbf 813d 0165 0dbd
00000100: 3032 c2bd b899 983d d635 42bd 38ba ee3b
00000110: 202e a83d 9af6 1cbd dda5 4d3d 06a3 153d
00000120: a596 663c 0244 863d 0dbb 54bd e1b3 75bb
00000130: c9a8 93bd cdb2 aa3d 417e 02bd ee8f 803d
00000140: 0084 0a3c 99fe 9abb 3264 883d fc33 3d3d
00000150: 9d09 443d 4eed 4d3c 455a a23c 6f8a 9abd
00000160: 6499 853b 7357 9939 4793 a2bd d31c 40bd
00000170: 3ec2 ff3c 3a21 6a3d db6a 863a c9d2 07bd
00000180: 41dd 8cbd 58a2 87bd 7311 e9bc 7ee8 2dbd
00000190: d48c 83bd 434d 103d 863f 74bd 8951 88bb
000001a0: 630e 553d 276c 3cbd d860 3f3d dffb 6b3b
000001b0: b98e 95bd d419 b53d 1930 1fbd 874e a53d
000001c0: 91d9 9f3d 2f5a d53c a3b1 ddbd 8aad 873c
000001d0: 0ff4 983c f206 4a3d 1152 883b b031 b83d
000001e0: 7606 293c 9fc8 503d 7117 64bd 7296 9fbc
000001f0: 1d30 973d defc edbb 9316 143d e7f3 25bd

blocks.block0.bn2.weight f4 [128]
1.0449469 1.2568419 1.0913 1.0786052 1.3210458 1.1646746 1.0887171 1.004336
1.0311167 1.0449766 1.2144763 1.0704542 0.97787374 1.2554576 1.1993124 1.026305
1.1158758 1.1844105 1.0885932 1.0537277 1.2403545 1.2342486 1.0140349 1.0504394
1.1211824 1.1019945 1.0342098 1.1141573 1.1255622 1.1786264 1.0910825 1.0811427
1.0584227 1.1167333 1.0899061 1.142635 1.0688436 1.0335321 1.0196671 1.1669695
1.0453458 1.1385046 1.0998948 1.2130163 1.2448866 1.0509826 0.9887187 1.1838996
1.0147811 1.2175399 1.062004 1.0432086 1.0826564 1.1117601 0.98793125 1.0642824
1.1552086 1.0306275 1.0791684 1.0277784 1.1628052 1.0287839 1.0695816 1.0489311
1.1200036 1.0365179 1.1313542 1.220258 1.1033278 1.0799031 1.0760629 1.1463482
1.0733585 1.0799825 1.0765524 1.216059 1.1684808 1.1245112 0.98409826 1.0565139
1.1578951 1.059969 1.0086762 1.0885463 1.0825508 1.133976 1.1166296 0.993886
1.0047085 0.98399097 1.0811783 1.229723 1.0107356 1.0558205 1.0593691 1.0786798
1.141262 0.9977144 1.0752798 1.0577657 1.0583345 1.0697873 1.0525688 1.1010394
1.08303 1.0382829 1.1892895 1.2226168 1.1197119 1.0999897 1.0653392 0.99967736
1.0354767 1.0642009 1.2769649 1.0606667 1.0672319 1.1128167 1.115335 1.0519065
1.0182304 1.1168356 1.0926698 1.1352594 1.0178645 1.0759747 1.07081 1.047167
00000000: d2c0 853f 32e0 a03f b8af 8b3f bc0f 8a3f
00000010: 0718 a93f 0f14 953f 155b 8b3f 158e 803f
00000020: a2fb 833f cbc1 853f f673 9b3f a504 893f
00000030: ef55 7a3f d6b2 a03f 1283 993f f65d 833f
00000040: 05d5 8e3f c39a 973f 0657 8b3f 8de0 863f
00000050: f0c3 9e3f dcfb 9d3f e5cb 813f cc74 863f
00000060: e882 8f3f 280e 8d3f fd60 843f b59c 8e3f
00000070: 6c12 903f 3bdd 963f 97a8 8b3f e262 8a3f
00000080: 657a 873f 1ef1 8e3f 0b82 8b3f dd41 923f
00000090: decf 883f c84a 843f 7484 823f 425f 953f
000000a0: e4cd 853f 85ba 913f 5ac9 8c3f 1e44 9b3f
000000b0: 7258 9f3f 9986 863f ab1c 7d3f 068a 973f
000000c0: 59e4 813f 59d8 9b3f bfef 873f dc87 853f
000000d0: 7c94 8a3f 284e 8e3f 10e9 7c3f 683a 883f
000000e0: e0dd 933f 9aeb 833f 3122 8a3f 3e8e 833f
000000f0: cdd6 943f 31af 833f 0de8 883f 6043 863f
00000100: 475c 8f3f 9eac 843f 37d0 903f 6a31 9c3f
00000110: d839 8d3f 443a 8a3f 6ebc 893f 8abb 923f
00000120: d063 893f de3c 8a3f 78cc 893f d2a7 9b3f
00000130: c790 953f fcef 8f3f dded 7b3f d93b 873f
00000140: e835 943f 10ad 873f 4d1c 813f 7c55 8b3f
00000150: 0691 8a3f 2026 913f b8ed 8e3f 506f 7e3f
00000160: 4a9a 803f d5e6 7b3f 0d64 8a3f 9067 9d3f
00000170: c95f 813f 2025 873f 6899 873f 2e12 8a3f
00000180: e014 923f 366a 7f3f c5a2 893f de64 873f
00000190: 8177 873f caee 883f 93ba 863f dcee 8c3f
000001a0: baa0 8a3f 74e6 843f a33a 983f b57e 9c3f
000001b0: b852 8f3f 76cc 8c3f 095d 883f dbea 7f3f
000001c0: 808a 843f bc37 883f 9673 a33f edc3 873f
000001d0: 0e9b 883f c770 8e3f 4cc3 8e3f dfa4 863f
000001e0: 6055 823f 78f4 8e3f 9bdc 8b3f 2e50 913f
000001f0: 6249 823f 8ab9 893f 4d10 893f 9109 863f

blocks.block0.bn2.bias f4 [128]
-0.014158254 0.09645162 0.021436142 -0.034292642 -0.038001537 0.01160732 -0.048842635 -0.014422936
0.01675327 0.013888113 -0.061570223 0.013109962 -0.029674463 -0.07612465 0.0014974939 -0.0122924065
0.027006848 0.031700578 0.034112804 0.0147151705 -0.012949767 0.036491856 -0.018557334 0.001922559
-0.015594204 0.040314734 -0.022509044 0.040439952 0.010751746 0.048273537 -0.0013610799 -0.05223521
0.013879396 -0.025888948 -0.016742328 -0.00033779186 0.03759574 -0.002799241 -0.011400201 0.01097018
0.02524911 0.0077107805 -0.0311083 0.02815692 0.037394628 0.00039348425 0.0010012272 -0.089390405
-0.011482451 0.018073218 0.0355681 -0.02469212 0.025831262 -0.049341872 -0.018915396 -0.012369436
0.026777577 -0.026350912 0.029504111 0.000102906546 0.026392967 0.011833832 -0.027437394 0.018310623
-0.013135322 -0.02386519 0.009259833 -0.06751486 -0.043793257 -0.014107645 0.01372376 -0.04498828
0.019495672 0.02477582 0.0147200255 0.010834233 -0.0012603266 -0.025284575 -0.021012777 0.00612705
0.030895708 -0.005682149 -0.027143361 0.006225516 0.016236726 0.060294297 0.046446428 -0.015553657
-0.012445308 0.012431862 -0.0068215504 0.03225737 -0.01593019 0.021991214 0.014504923 -0.0051167137
-0.008949857 -0.019467758 0.017014755 -0.00058548443 -0.013264266 0.036696173 -0.029732954 -0.01567709
0.03661525 0.011839239 -0.07437689 0.019606125 -0.009149237 0.020727701 0.03801766 -0.023098083
-0.024623347 0.02808364 -0.07176993 0.008330759 0.029999683 0.013611703 0.043893613 -0.02331193
-0.015746819 0.014553157 0.012918428 0.05837579 0.012920721 0.009834037 -0.012191764 -0.01438401
00000000: 05f8 67bc 6d88 c53d d99a af3c 7176 0cbd
00000010: 80a7 1bbd a12c 3e3c 370f 48bd 2e4e 6cbc
00000020: 273e 893c f88a 633c 0f31 7cbd 2bcb 563c
00000030: dc17 f3bc 3ee7 9bbd 8f47 c43a 1766 49bc
00000040: 773d dd3c 77d8 013d deb9 0b3d e617 713c
00000050: 422b 54bc 7c78 153d 8d05 98bc 60fe fb3a
00000060: d57e 7fbc 1021 253d e364 b8bc 5da4 253d
00000070: 1728 303c 79ba 453d 4366 b2ba 96f4 55bd
00000080: 6866 633c 0f15 d4bc 3527 89bc a819 b1b9
00000090: fefd 193d 7973 37bb e9c7 3abc 45bc 333c
000000a0: 39d7 ce3c b7aa fc3b d5d6 febc 57a9 e63c
000000b0: 1c2b 193d 904c ce39 9c3b 833a 5112 b7bd
000000c0: e420 3cbc 490e 943c dbaf 113d 2147 cabc
000000d0: 159c d33c b41a 4abd 76f4 9abc 2da9 4abc
000000e0: a65c db3c dedd d7bc 9bb2 f13c 88cf d738
000000f0: 1036 d83c b0e2 413c 63c4 e0bc 2900 963c
00000100: 8935 57bc ee80 c3bc 8eb6 173c 3b45 8abd
00000110: 8f60 33bd c023 67bc 9fd9 603c a145 38bd
00000120: 63b5 9f3c a9f6 ca3c 432c 713c 1182 313c
00000130: 8b31 a5ba 9921 cfbc fd22 acbc 6cc5 c83b
00000140: ff18 fd3c 5231 babb c15b debc 6aff cb3b
00000150: e202 853c 27f7 763d 9c3e 3e3d c4d4 7ebc
00000160: 68e7 4bbc 02af 4b3c 5087 dfbb 4e20 043d
00000170: 0880 82bc eb26 b43c 0ea6 6d3c 1baa a7bb
00000180: 6ca2 12bc d97a 9fbc 8762 8b3c 327b 19ba
00000190: 5d52 59bc ba4e 163d 8692 f3bc 3e6d 80bc
000001a0: dff9 153d 5ef9 413c e952 98bd 069d a03c
000001b0: aee6 15bc 24cd a93c 68b8 1b3d 3138 bdbc
000001c0: e7b6 c9bc a90f e63c 1dfc 92bd bc7d 083c
000001d0: e5c1 f53c 9f03 5f3c cac9 333d a9f8 bebc
000001e0: 79ff 80bc 5d70 6e3c d0a7 533c 741b 6f3d
000001f0: 6fb1 533c f11e 213c f7bf 47bc e9aa 6bbc

blocks.block0.bn2.running_mean f4 [128]
0.4349976 -0.109518066 -0.11384007 0.3640691 0.038107257 0.4140363 -0.15616351 0.5614395
-0.186346 -0.62144303 0.024901075 -0.15885063 -0.6601872 0.12230843 -0.4069214 0.11018995
-0.21296321 -0.11384493 0.12730074 -0.20758675 -0.8402409 -0.23476484 -0.11724564 0.05412423
0.15067267 0.022301268 0.37534437 -0.17380227 -0.094426095 -0.3614126 0.33315477 0.18709397
-0.20593306 0.24383272 0.35743555 0.19668594 -0.1754757 -0.4833901 0.90099955 0.12205136
0.38192585 -0.32615232 0.68902063 -0.43669453 -0.42348492 0.07787586 -0.2545334 -0.18503366
0.11783946 -0.14929996 -0.27344447 0.047419228 -0.005550605 0.46121812 0.5515729 0.069464445
-0.18445283 0.28350207 0.18240528 0.5629206 0.5809925 0.23238467 0.30444825 -0.2462552
0.121454306 1.0958915 0.009047152 0.48480985 0.1458064 -0.83166426 0.045569137 -0.5500417
-0.2809607 -0.12908873 0.20782039 -0.58582914 -0.20157957 -0.36684352 0.17321725 0.24825667
0.03793363 0.17355065 0.27073568 -0.10189834 -0.0018955314 -0.42247245 -0.07649469 -0.4128847
-0.29129025 -0.3647761 0.1750658 0.097759716 0.23570776 0.116778485 0.17631063 -0.4859536
0.31344232 0.3724297 -0.1025148 0.13703303 -0.30689302 -0.36108035 -0.06747149 0.14811245
-0.08076204 -0.318785 0.17267512 -0.41805944 -0.0010441864 0.06886083 -0.330737 -0.2962011
0.42682043 -0.31187376 0.19756308 0.13768212 -0.08327398 -0.18350238 0.7475476 -0.018245377
0.16640328 0.007628284 0.31695116 -0.14802329 0.016837806 0.052223787 0.12048075 0.07283976
00000000: 01b8 de3e 024b e0bd fc24 e9bd 4467 ba3e
00000010: 5b16 1c3d 91fc d33e 54e9 1fbe 80ba 0f3f
00000020: 7cd1 3ebe e416 1fbf 57fd cb3c bda9 22be
00000030: 0702 29bf d87c fa3d 0058 d0be 45ab e13d
00000040: 0713 5abe 8827 e9bd 205b 023e 9f91 54be
00000050: 071a 57bf 3266 70be 7b1e f0bd 5eb1 5d3d
00000060: f049 1a3e 26b1 b63c 232d c03e 39f9 31be
00000070: 7862 c1bd 130b b9be 4393 aa3e 9095 3f3e
00000080: 1ee0 52be 49af 793e cb01 b73e 0a68 493e
00000090: e7af 33be e87e f7be e8a7 663f 10f6 f93d
000000a0: c98b c33e 70fd a6be a863 303f 6d96 dfbe
000000b0: 04d3 d8be 617d 9f3d 3452 82be 7779 3dbe
000000c0: d155 f13d 17e2 18be ea00 8cbe aa3a 423d
000000d0: d9e1 b5bb c824 ec3e e233 0d3f 6043 8e3d
000000e0: 34e1 3cbe 2f27 913e 73c8 3a3e 901b 103f
000000f0: edbb 143f 3ff6 6d3e a4e0 9b3e 532a 7cbe
00000100: 09bd f83d 2c46 8c3f 813a 143c ff38 f83e
00000110: 464e 153e f3e7 54bf b4a6 3a3d 88cf 0cbf
00000120: 15da 8fbe d62f 04be dece 543e e6f8 15bf
00000130: e06a 4ebe ead2 bbbe dd5f 313e ff36 7e3e
00000140: 4b60 1b3d 43b7 313e de9d 8a3e 14b0 d0bd
00000150: 7b73 f8ba 4f4e d8be 3fa9 9cbd a065 d3be
00000160: ff23 95be efc3 babe 7344 333e 3f36 c83d
00000170: 605d 713e 8f29 ef3d c68a 343e e9ce f8be
00000180: 837b a03e 1baf be3e 48f3 d1bd 6352 0c3e
00000190: 1521 9dbe 86df b8be 7e2e 8abd caaa 173e
000001a0: 9266 a5bd ca37 a3be bfd1 303e e30b d6be
000001b0: 15dd 88ba e806 8d3d 5c56 a9be aca7 97be
000001c0: 3588 da3e ebad 9fbe fa4d 4a3e 8bfc 0c3e
000001d0: 8c8b aabd 0ce8 3bbe 485f 3f3f 5477 95bc
000001e0: 9f65 2a3e aff6 f93b 6c47 a23e 6b93 17be
000001f0: 70ef 893c 9ce8 553d 9dbe f63d 032d 953d

blocks.block0.bn2.running_var f4 [128]
0.06615418 0.012202588 0.039436467 0.039024632 0.012846417 0.07682803 0.01798347 0.13037775
0.06064178 0.18409674 0.021003695 0.031088762 0.28409925 0.01935186 0.059726067 0.043900028
0.029196693 0.0131307505 0.061804146 0.09526441 0.10887311 0.019497637 0.04977356 0.20778637
0.034395084 0.034531716 0.058525864 0.020571664 0.02435694 0.040856235 0.015617746 0.067825146
0.06543208 0.01998807 0.09418329 0.07199911 0.08121131 0.032332897 0.12546188 0.022311056
0.11505438 0.10634468 0.09871344 0.036888167 0.044486262 0.03037349 0.3952403 0.048779685
0.06280892 0.018549766 0.036398746 0.028352907 0.019670596 0.04100714 0.10530187 0.028620806
0.049093086 0.023221778 0.059445687 0.17193721 0.07510954 0.1566832 0.06605466 0.051377006
0.010967866 0.15781002 0.0070828665 0.14688803 0.17437088 0.09949868 0.01112848 0.044115864
0.040621933 0.017342579 0.11885059 0.060950603 0.022127522 0.06499508 0.14540009 0.15827078
0.03857422 0.06070362 0.059255794 0.04039682 0.017414445 0.06501109 0.04174865 0.1435763
0.11427326 0.17759736 0.12389156 0.006572436 0.11770591 0.12720086 0.019073654 0.17257594
0.052275598 0.124403864 0.025207832 0.054660335 0.13600121 0.043446284 0.05013666 0.039234746
0.056817636 0.06296359 0.01780132 0.02385987 0.17923896 0.04127481 0.13828517 0.091368385
0.053211827 0.15564248 0.01744341 0.007465722 0.013488497 0.025559686 0.19552042 0.02336831
0.20975642 0.013663591 0.056759566 0.044753626 0.1315224 0.057628065 0.09280534 0.35396153
00000000: d87b 873d 5ded 473c 2288 213d 4bd8 1f3d
00000010: c779 523c 0458 9d3d 1252 933c bf81 053e
00000020: 8463 783d db83 3c3e f10f ac3c dcad fe3c
00000030: 7575 913e cb87 9e3c 52a3 743d 84d0 333d
00000040: e72d ef3c 5c22 573c 5826 7d3d fd19 c33d
00000050: ddf8 de3d 82b9 9f3c 5cdf 4b3d f3c5 543e
00000060: dce1 0c3d 2171 0d3d d1b8 6f3d e885 a83c
00000070: 3588 c73c de58 273d 93e1 7f3c e9e7 8a3d
00000080: 4101 863d 05be a33c 2be3 c03d 4574 933d
00000090: 1e52 a63d 806f 043d 1479 003e adc5 b63c
000000a0: a1a1 eb3d 3dcb d93d 462a ca3d 0c18 173d
000000b0: 3a37 363d d3d1 f83c f05c ca3e 35cd 473d
000000c0: f7a1 803d aef5 973c da16 153d 5b44 e83c
000000d0: 3b24 a13c 1af7 273d 82a8 d73d 2e76 ea3c
000000e0: d515 493d 993b be3c 527d 733d 4f10 303e
000000f0: 08d3 993d 9071 203e aa47 873d b270 523d
00000100: 90b2 333c f398 213e 6417 e83b d169 163e
00000110: 488e 323e f7c5 cb3d 3a54 363c d6b2 343d
00000120: 2f63 263d 0612 8e3c f067 f33d 57a7 793d
00000130: c744 b53c 241c 853d c3e3 143e bc11 223e
00000140: 0000 1e3d 5ca4 783d 34b6 723d 2377 253d
00000150: bda8 8e3c 8924 853d a200 2b3d aa05 133e
00000160: 1908 ea3d 15dc 353e dcba fd3d 975d d73b
00000170: cc0f f13d f140 023e 5a40 9c3c bfb7 303e
00000180: f01e 563d 74c7 fe3d a880 ce3c 84e3 5f3d
00000190: e743 0b3e bbf4 313d 195c 4d3d 9db4 203d
000001a0: 9cb9 683d 0ef3 803d 13d4 913c c675 c33c
000001b0: 6b8a 373e c60f 293d a19a 0d3e 591f bb3d
000001c0: a5f4 593d be60 1f3e 7be5 8e3c 04a3 f43b
000001d0: dbfe 5c3c 8c62 d13c 8136 483e e66e bf3c
000001e0: 63ca 563e 41dd 5f3c b87c 683d 944f 373d
000001f0: cfad 063e 680b 6c3d ba10 be3d 723a b53e

blocks.block0.shortcut.0.weight f4 [128, 6]
0.08011503 -0.30264214 0.07540946 0.10930627 -0.004600413 0.16394667 0.064642355 0.23386058
-0.49320886 -0.018917555 0.2066326 0.17031014 -0.20091179 -0.049634133 0.022553798 -0.11392012
0.10211495 0.24588512 -0.38066253 0.10262662 -0.24658677 0.15490244 -0.050697338 0.0570985
0.056359455 0.29245743 -0.23347992 0.33748883 0.35171625 -0.23125325 0.11045791 -0.25273132
-0.28410697 -0.15183659 0.18252549 0.24667154 -0.033245936 -0.05621695 -0.32904226 0.20513919
0.1105064 0.005846765 -0.15905653 0.19562909 -0.27780125 0.32716388 -0.25617763 0.15291029
-0.3079225 0.075899854 0.39842337 0.2763194 -0.34569743 -0.073461086 0.025796482 -0.15847884
-0.07093402 0.24984235 -0.19666938 -0.38811433 -0.3204863 -0.039365996 -0.0050212215 0.055799488
-0.18911225 -0.25920615 -0.14608796 0.11896771 0.35575968 -0.36255023 0.20360951 0.33478558
-0.14229158 -0.21583967 0.3788144 -0.1908142 0.20126796 0.03489214 -0.35958135 0.19095002
0.1784964 -0.2591043 0.1289935 -0.11643437 -0.18124433 -0.11643571 -0.48622015 -0.3381955
-0.035061523 -0.16308032 0.2108588 0.28725514 -0.032227907 -0.33610213 -0.39079487 0.1970915
-0.010746457 -0.3264918 -0.14260443 0.20920703 0.040594805 0.193251 0.31831264 -0.108586125
-0.09075305 -0.45832413 0.41219956 -0.08284221 -0.024169283 -0.0012758453 -0.24956901 0.032857914
0.22723986 0.11729346 0.10597319 -0.24596883 0.23324321 0.3930134 -0.29352117 -0.25790375
0.39693812 0.2605855 0.23455448 0.36185247 0.021808574 0.103654325 0.15568016 0.24307121
-0.2941435 0.23057026 0.13663316 -0.26208007 -0.053709418 0.1880094 -0.21542968 0.23403598
0.2842107 0.20334956 -0.14440905 0.34919772 0.17657228 -0.4408339 -0.32473692 0.22043945
0.20947771 0.47949967 0.3049499 0.17228492 -0.08244843 -0.09572803 -0.29248792 -0.037803907
0.12685314 0.122665666 0.04843813 0.06045 -0.020214189 -0.2756006 -0.14475852 -0.09827977
0.11376438 0.0766371 -0.24001817 -0.31536886 -0.07207683 0.49012455 0.10003146 -0.21599808
-0.15863328 0.15458561 -0.091003716 -0.16701928 -0.25235164 -0.12075298 0.124291435 0.25279057
-0.21028101 -0.21126351 -0.020921292 0.002944691 0.08930371 -0.4590366 0.15118639 0.0001668153
-0.021381449 -0.091531076 -0.3773162 -0.06710628 -0.28892547 0.06611346 -0.24466898 -0.44208863
-0.23727907 0.2303462 -0.25492862 -0.26961038 -0.13251247 0.3498082 0.25154632 0.18013059
-0.040584262 -0.21156445 0.09326818 0.24819766 -0.31544068 0.3668072 -0.3204208 -0.402319
-0.38499638 -0.021177683 -0.0528882 0.19171634 -0.3532314 -0.2060593 0.1265199 0.21782015
-0.42634028 0.048464205 -0.062788524 -0.07961168 0.09070732 -0.22707757 0.15268855 -0.1783817
0.35924387 -0.09948426 0.28557262 -0.20479387 -0.3895462 0.4250187 -0.13213909 -0.016438125
0.38437954 0.33321187 0.0301527 -0.23927814 -0.33138806 0.2952805 0.06338973 0.2529802
-0.14419793 -0.43510705 -0.08159503 0.10292731 0.23115274 -0.22771926 -0.15924078 0.30719113
0.40194404 0.31255692 0.29732472 0.053819124 -0.007883202 -0.24527852 -0.13135836 -0.40430826
00000000: 5913 a43d e9f3 9abe 4670 9a3d f7db df3d
00000010: 10bf 96bb a3e1 273e 3663 843d 2679 6f3e
00000020: df85 fcbe fdf8 9abc 7f97 533e c865 2e3e
00000030: d2bb 4dbe 294d 4bbd bec2 b83c f44e e9bd
00000040: a521 d13d 4fc9 7b3e 33e6 c2be e82d d23d
00000050: 3e81 7cbe bf9e 1e3e 03a8 4fbd 1ee0 693d
00000060: 2cd9 663d fbbc 953e 5c15 6fbe 56cb ac3e
00000070: 2714 b43e a7cd 6cbe c237 e23d 0066 81be
00000080: 7876 91be 0d7b 1bbe f6e7 3a3e 7797 7c3e
00000090: e42c 08bd bf43 66bd 3a78 a8be 0210 523e
000000a0: 2e51 e23d 3896 bf3b b7df 22be fe52 483e
000000b0: f73b 8ebe 0682 a73e b729 83be 8494 1c3e
000000c0: 05a8 9dbe 6271 9b3d 26fe cb3e bd79 8d3e
000000d0: 41ff b0be c472 96bd 2553 d33c 4748 22be
000000e0: db45 91bd acd6 7f3e b363 49be ecb6 c6be
000000f0: c816 a4be 3d3e 21bd 0f89 a4bb 018e 643d
00000100: a4a6 41be abb6 84be 1598 15be 58a5 f33d
00000110: 2226 b63e 2fa0 b9be 037f 503e 0469 ab3e
00000120: e2b4 11be 1305 5dbe f6f3 c13e cc64 43be
00000130: 3019 4e3e 10eb 0e3d 0c1b b8be 6788 433e
00000140: c3c7 363e 52a9 84be df16 043e 2575 eebd
00000150: 1d98 39be d875 eebd d9f1 f8be f627 adbe
00000160: ac9c 0fbd 87fe 26be 5feb 573e 1b13 933e
00000170: 6901 04bd 9415 acbe 4416 c8be 5bd2 493e
00000180: e811 30bc ef29 a7be e506 12be 5e3a 563e
00000190: bd46 263d 97e3 453e e0f9 a23e 6762 debd
000001a0: bcdc b9bd 76a9 eabe d20b d33e 2da9 a9bd
000001b0: a9fe c5bc 443a a7ba 058f 7fbe 0596 063d
000001c0: 91b1 683e 8e37 f03d 7908 d93d 41df 7bbe
000001d0: 4fd7 6e3e 0d39 c93e 6848 96be f60b 84be
000001e0: 793b cb3e 766b 853e 0d2f 703e ba44 b93e
000001f0: e5a7 b23c b848 d43d 9f6a 1f3e a9e7 783e
00000200: fa99 96be 9c1a 6c3e 90e9 0b3e 5c2f 86be
00000210: 68fe 5bbd 8985 403e 9999 5cbe 21a7 6f3e
00000220: 1184 913e de3a 503e f7df 13be 0bca b23e
00000230: 5dcf 343e fbb4 e1be eb43 a6be e1ba 613e
00000240: 5381 563e fb80 f53e 6522 9c3e 756b 303e
00000250: b9da a8bd 0f0d c4bd fac0 95be 45d8 1abd
00000260: cae5 013e 2338 fb3d 1067 463d 6b9a 773d
00000270: 3a98 a5bc 861b 8dbe 943b 14be e746 c9bd
00000280: 4dfd e83d e9f3 9c3d 53c7 75be 0778 a1be
00000290: 049d 93bd 9bf1 fa3e 4bdd cc3d 9a2e 5dbe
000002a0: c370 22be b14b 1e3e 2860 babd 1a07 2bbe
000002b0: 3c34 81be 574d f7bd 828c fe3d c46d 813e
000002c0: e853 57be 7655 58be 2163 abbc b8fb 403b
000002d0: dde4 b63d d806 ebbe 9bd0 1a3e 24eb 2e39
000002e0: 2628 afbc a574 bbbd 972f c1be 046f 89bd
000002f0: 0aee 93be 7e66 873d 818a 7abe 7159 e2be
00000300: 49f9 72be e0df 6b3e 0186 82be 5f0a 8abe
00000310: 59b1 07be 0f1a b33e aeca 803e 2774 383e
00000320: af3b 26bd 5aa4 58be 6303 bf3d 8727 7e3e
00000330: 7181 a1be 27ce bb3e 320e a4be c2fc cdbe
00000340: 3f1e c5be d27c adbc 4ca1 58bd 4a51 443e
00000350: bfda b4be 3601 53be 6f8e 013e 3f0c 5f3e
00000360: 4649 dabe 6782 463d 4597 80bd 730b a3bd
00000370: c2c4 b93d 0687 68be 635a 1c3e b1a9 36be
00000380: d0ee b73e 67be cbbd 9336 923e 7cb5 51be
00000390: 9972 c7be 0d9c d93e 784f 07be 3fa9 86bc
000003a0: 65cd c43e bf9a aa3e cc02 f73c 5405 75be
000003b0: b2ab a9be 012f 973e 7ad2 813d 9f86 813e
000003c0: 9fa8 13be 5ac6 debe 4c1b a7bd 8ecb d23d
000003d0: 4eb3 6c3e 3d2f 69be 0410 23be 2848 9d3e
000003e0: 9ccb cd3e 7607 a03e f23a 983e 7171 5c3d
000003f0: 8c28 01bc 4b2a 7bbe ce82 06be 7e01 cfbe
