results/7DoF-7R-Panda/ResMLP_7DoF-7R-Panda_layers_1_neurons_256_batch_250000_Adam_l2_1_qlim_scale_10_samples_1000000/epoch_90.pth (torch, 304441 bytes, 20 tensors)

blocks.block0.fc1.weight f4 [256, 6]
00000000: d38d b83d 5ca2 fe3d 07af 9ebe 44de b4be
00000010: 0b29 f7bd 724d 393c 9f49 b23a 92ae 943e
00000020: bfe2 75bd 20fc 143e 0e61 97bd 1969 dfbd
00000030: ebda c8be 9163 92be 13bd 36be 0010 0c3d
00000040: 759f 133e 7e7c 6f3e add9 d2bd 4a80 58be
00000050: 9d08 373e 2afc b83e 33cc cc3c e370 b53e
00000060: 24cd 6bbd 276c d83d aadc b93e 8431 cbbe
00000070: 7282 3abe 4ea6 debd 5df2 f2bd 6c70 983e
00000080: 48dd 1ebe fef9 35be 2b6d 82be 1b38 f5be
00000090: bae3 5dbe a583 b93e 43ae bc3d 44c0 673e
000000a0: 3d22 093d 556c 5fbe d527 c63d 3c39 a6be
000000b0: a632 38be 38d7 80be 9407 303e 9c89 be3e
000000c0: 974e cebd 66a9 0e3d 825d 653e d55e fe3e
000000d0: 44d1 1e3e 23dc 803d 4fe6 893e 27e1 57be
000000e0: 89c6 f13d 96fe 97be eec7 8cbe 350a 96be
000000f0: 9b2e 263e 6d2d 483e 9af1 45be e8d9 fe3d
00000100: 0c10 763e a9a5 ddbd e2e9 8a3d bd80 853d
00000110: bd0c 753e 9f92 d53e 87fe a0be 1fd1 0fbe
00000120: 8921 b43d b9bc 8c3e 2ece 9b3e 8ba7 c53e
00000130: d2fe ac3d 1691 d3be 62b6 b53d 2dcd 83be
00000140: 9c44 c3be 97c5 c53e 6f48 9d3e 15c2 c3be
00000150: 9d9d 003e 44cb 1fbc a413 04be 408e 1ebe
00000160: a813 183e e3da 71be 9498 9f3d e4cd 873e
00000170: 5a19 9b3e 04e5 f13d b3fc 92be 6684 a9be
00000180: 47c3 3f3e 0f4c a13d 275d a0be f926 82be
00000190: 4c1a b23e baf4 a83e b90d 9fbd 5716 05be
000001a0: 09ff e7be dc69 cfbb 6804 96be 22e3 8cbe
000001b0: 3862 8cbc 7684 653c d406 d2bd a7a0 873e
000001c0: f10f 64be 6268 c33e 9143 863e 3332 aebe
000001d0: 7289 25be 5f38 433c 7961 303d 5854 c93d
000001e0: c5f3 193e 50a6 6f3c 5fb0 72be 15de 3d3e
000001f0: 49bb 8cbe 8a7a 8fbe 07ac 89bd 87cb 3abe
00000200: bdec 98bd b802 b9be 1ed6 06be 12d8 ab3d
00000210: b746 bcbd 027e f9bc a4c6 c93e 4d51 67bc
00000220: 50d8 4fbd 7587 34bd aaa3 7c3d f02b 593e
00000230: 3141 c53e b34b 8a3e edb5 cc3e 2d0d 0b3d
00000240: e83c b1be 8bbf 06be 3e4e 713e 0459 cc3a
00000250: feca 5dbe 7d89 b3be 4a7f d6be eedd bfbe
00000260: d4de f4bd 68b2 303e 030f 283e 7485 ddbe
00000270: 6b65 4a3e ffbb 9fbe b156 cebd aa96 23be
00000280: c8c7 c0bd 0c0a e6bd 3d86 ccbe 9e99 d3be
00000290: fc4a 9cbd 092c 22bc b2f8 fdbd 95a3 e13d
000002a0: b924 c5be 7303 77bd cc25 c03e 276e 14be
000002b0: a38d af3e 5dae 263e 1731 bfbe 5d05 0d3e
000002c0: b395 043d 274f 89be 1783 8d3e 03ed bdbe
000002d0: 1d52 053d c8f5 a8bd 084d c13e dfda e73c
000002e0: b063 0f3e 16df a73d 3e56 d7bd 7c41 cabc
000002f0: 2c27 afbe c7d1 6c3e 1766 b43e a628 8b3e
00000300: ea0a 7bbe ddd4 f33d 051f 99be 647f 48be
00000310: cd19 77be 5d34 213e cf11 31be b5a0 fd3c
00000320: fe45 623d d893 a53e c309 96be 22f8 83be
00000330: 0800 2ebe 8506 363e 41b6 8fbe dce4 ca3e
00000340: d1f6 213e 4a1a 4a3d a1e8 39bb 9658 80bd
00000350: 9be0 113d 0db2 d8bd 66b0 9a3c 44e8 7d3d
00000360: 4ba5 3dbe f04a a9be 40d0 853e ba3e adbe
00000370: 28d8 5cbd 8621 e03e 09e8 eb3d f269 3d3c
00000380: 0440 a1be e7ff 683e f17e 83be fd74 43be
00000390: 1f0f ae3c 5f22 b5bd be90 4c3d ac0f ae3e
000003a0: b5c6 903d 5b06 ba3e c2dd 6c3e 7cde 0ebe
000003b0: d746 4a3e 3e83 a2be eafe 22be 4b48 023e
000003c0: c38d 3c3e cd7b 853e 5db0 9fbd aca7 c43b
000003d0: cdc6 683e 854b d8be e289 9b3e 4831 aebe
000003e0: 6549 5d3b f7d4 80bd d527 1fbe fa59 873d
000003f0: ee11 a13e 4c1d 19bd d732 60be d50a 2bbe
0.09011426 0.12433311 -0.3099291 -0.35325825 -0.12068375 0.011309968 0.0013602263 0.29039437
-0.060030695 0.14549303 -0.073915586 -0.10908718 -0.3922952 -0.28591588 -0.17845564 0.034194946
0.14416297 0.23387334 -0.102954246 -0.21142688 0.1787438 0.36129886 0.024999714 0.35437688
-0.057568684 0.105675034 0.36301166 -0.39686215 -0.18213823 -0.10871564 -0.118626334 0.2977327
-0.155141 -0.17771146 -0.25473914 -0.47894368 -0.21668902 0.3623325 0.09212925 0.22631937
0.033479918 -0.21818669 0.09675566 -0.3246554 -0.17988071 -0.251642 0.17190391 0.37214363
-0.100735836 0.03482952 0.22398952 0.49681726 0.15509516 0.06291988 0.26933524 -0.21081983
0.11805446 -0.2968642 -0.27496284 -0.29304662 0.16228716 0.19548579 -0.19330445 0.12443906
0.24029559 -0.10822613 0.06782891 0.065186955 0.2393064 0.41713426 -0.3144419 -0.14044617
0.08795459 0.27487734 0.3043074 0.38604388 0.084470406 -0.4132163 0.088726774 -0.25742474
-0.38138282 0.38627312 0.30719325 -0.3823401 0.12560125 -0.009753052 -0.12898117 -0.15483952
0.14851248 -0.23618655 0.07792774 0.2652427 0.3029278 0.118112594 -0.2870842 -0.33108824
0.18726836 0.07875835 -0.3132107 -0.2542036 0.34785688 0.32999212 -0.07766289 -0.12996803
-0.45311764 -0.006329758 -0.29300237 -0.2751704 -0.017136678 0.014008632 -0.102552086 0.26489756
-0.22271706 0.38165575 0.26223424 -0.34022674 -0.16165712 0.011915295 0.043061707 0.098305404
0.15034397 0.014627054 -0.23700093 0.18541749 -0.27486637 -0.28023177 -0.06722265 -0.18241702
-0.07467029 -0.36134887 -0.13167617 0.083908215 -0.09193175 -0.030455593 0.39409363 -0.014118505
-0.0507434 -0.044074494 0.06167952 0.21208167 0.385263 0.2701088 0.39982548 0.033948112
-0.3461678 -0.13159005 0.23565003 0.0015590494 -0.21659467 -0.35065833 -0.4189399 -0.37474006
-0.119565636 0.17255557 0.16411977 -0.4326588 0.1976525 -0.31198117 -0.10075129 -0.15975443
-0.09413105 -0.11232385 -0.39946166 -0.41328138 -0.0763149 -0.009898194 -0.124009505 0.11017529
-0.3850458 -0.060306024 0.37528837 -0.14495145 0.34287748 0.16277452 -0.3734214 0.13771577
0.032369327 -0.268182 0.27639076 -0.37094888 0.032549012 -0.08250004 0.37754083 0.028302608
0.14002872 0.08196847 -0.10514496 -0.024689429 -0.34209573 0.23126899 0.35234138 0.2717945
-0.24515882 0.11905835 -0.2990648 -0.19579846 -0.24130936 0.15742631 -0.1729195 0.03096042
0.05524253 0.32339358 -0.29304323 -0.25775248 -0.169922 0.17775925 -0.28068736 0.3962773
0.15816809 0.049341477 -0.0028367417 -0.062668964 0.03561459 -0.105808355 0.018882941 0.061989084
-0.18520086 -0.33064985 0.26135445 -0.3383692 -0.05391708 0.43775576 0.115188666 0.011560904
-0.31494153 0.22753869 -0.25682786 -0.19087596 0.021247445 -0.088444464 0.049942724 0.33996332
0.0706915 0.36332974 0.23131469 -0.13952059 0.19753586 -0.31740755 -0.15917554 0.1272289
0.18413453 0.26071015 -0.077973105 0.0060014334 0.22732086 -0.42245117 0.30378634 -0.34021974
0.003376567 -0.0629062 -0.15542538 0.066089585 0.31458992 -0.037381455 -0.21894394 -0.16703351

blocks.block0.fc1.bias f4 [256]
00000000: e650 0abe bf9b 0d3e 997a 353e 65ba 5dbc
00000010: a4eb ca3e fb77 8ebe 354c 213e 0ed3 be3e
00000020: 1274 7fbd 1cf1 a93e 0c5a 413c 73a7 9bbe
00000030: aece 61be ca68 183e c76d 2cbe 879e cc3d
00000040: c3dd d23e 0322 263e ec32 09bd 3198 c93d
00000050: 55ac 67be 99a7 abbe 07c2 9dbe 6365 a7be
00000060: 91fb b13d dd5c b33d 898e 53be 33b0 cbbe
00000070: b990 643e 745c 5dbe e475 89bd 7070 b0be
00000080: b18b 7dbe 4a73 313e 3ebd c2be 2407 62be
00000090: 17fb 993e 102c 4fbe b0d3 38be b562 f0bd
000000a0: 093d 2d3e 5afb 91be 7bd8 263d c1b9 2b3e
000000b0: 2a80 e9bc 730f 973d bf96 9bbe 0cd9 463e
000000c0: 4f24 0e3e 4ad0 30bd 2e26 b2be cc10 393e
000000d0: 7f28 893e 177a 99bd 3085 4b3e 5fd0 1d3e
000000e0: a39a 24be 871d 1cbd 495e c43e 6546 ca3b
000000f0: ad7d a5be 1e75 d2bc 9c79 4f3e f6dc 04be
00000100: d146 61be 2882 ad3e b972 713e 4202 80bd
00000110: 3db0 a13c 56f8 44bd ca10 c33d 4250 a53c
00000120: 751f 72be 915c 953d 051c 2f3c dcc4 913c
00000130: 9b09 13be fee3 d33d 999c a5be 96b6 f83d
00000140: 96bf 613e fa71 1cbd cf6f a0be 8c1e cbbb
00000150: ca23 933c 8388 adbe 03b0 8fbe 45bf c23e
00000160: f42c a03e b2f1 5b3e 5dcc 913e c797 203e
00000170: 7d59 5e3e 9275 8f3e 40e9 c9bd 210d 40bd
00000180: 0427 903e beb8 f43b 7b02 88be 0f2f a5be
00000190: a7cc 643e e18c af3e c0a1 983e dcaf 7d3d
000001a0: 5349 973e 8d66 bdbe ebd2 9bbe b5eb cbbe
000001b0: 0e4c a83e 21ab 95bb 8395 46be eb25 093e
000001c0: e05c 29be 7f64 8bbe ae14 233e 8542 9e3d
000001d0: 0d09 9bbe 0c00 8dbe c797 303e e7fb 9b3e
000001e0: 54bd c43c ebb3 4fbe e00f 4d3e 38d2 9b3d
000001f0: 641d bbbe 152d 85be 8aff b03d 7837 7f3e
00000200: 52fe 0ebe 16ec 4f3e d73b 8cbe 4a95 da3e
00000210: 70b0 903e 0ce0 9a3d d151 2e3e b68b 143e
00000220: 6f12 72be 8b39 13bc 8d5b ca3d 759b ccbd
00000230: 6035 cc3e d7ca 25be 052b babe 43ae 41be
00000240: 983d c1be 4871 a83e 8cc5 32be 8d7e 93be
00000250: 8dda 42bd bef5 8bbe 91f4 68be ff93 5d3e
00000260: 402c 9cbe e616 403e 738d 993e 70b5 d73a
00000270: f924 363e ad00 7dbe 0256 a23e 9b63 d13e
00000280: c03c b53d 4e12 bb3e ae6d cebe 3f5a 01bd
00000290: a6c2 9f3d fb47 b6be 61fe 4c3e 8f35 1cbe
000002a0: 6b15 0fbe 176c a4be 4dc9 2b3e 96f1 95be
000002b0: 2107 a9bd 7765 393e 6494 953e b103 a83d
000002c0: 15a9 18be 0510 36be 4457 773e 74de 8f3d
000002d0: 9330 ad3e 0809 1c3e 3e07 a73e 9198 a8be
000002e0: 4715 ad3e 9328 45be bd7e e7bd b211 86bb
000002f0: 9905 9abd e6dd 9d3d dfd4 c13e ca83 7abe
00000300: ade2 fa3d 95e5 adbe 6301 8f3d cd17 ad3e
00000310: 0c6f 903e 65c7 b33e 4512 5c3e cfd5 0ebd
00000320: 6034 d33d f652 28be d19c b13e 516c 313e
00000330: 555a 9abe b72c b23e 3b26 13bc a8e3 6fbc
00000340: 5ae4 e8bd 469d dcbd bcea d43c dbee 55be
00000350: ffb9 c3be d04e 52be d851 b0bd 918f a03e
00000360: cdd5 933e 2e45 7abe 3140 d4bc dbb0 fcbd
00000370: 3135 68be 51e9 e7bc 32b5 0cbe 5176 653e
00000380: 620e 47be 4ce7 843d a346 67be 94ad 04be
00000390: de44 a43e 8cd8 50be eb39 f2bc e671 bd3e
000003a0: 7f1f 103e 61bb 59be 27d9 71be 037b 17be
000003b0: 7835 febd 7127 373e fa23 c2bd e9a7 b23e
000003c0: cbbd 61be 20b8 09be 639c 153e 19b3 a83e
000003d0: 0f06 d13e 7161 803d 0211 aa3c 2de8 34be
000003e0: cdc7 733e 84f2 76be c28c e3bd 27a7 b0be
000003f0: bf80 c3be b5c2 7b3e ce38 0f3d 9be0 af3e
-0.13507423 0.13828944 0.17722549 -0.013533209 0.39632905 -0.27825913 0.15751727 0.37270397
-0.062366553 0.33191764 0.011801254 -0.3040119 -0.22051498 0.14883724 -0.16838752 0.09991174
0.41184816 0.16223912 -0.03349583 0.09843481 -0.22624333 -0.33526304 -0.30812094 -0.3269454
0.086905606 0.08757947 -0.20659842 -0.39782867 0.22320832 -0.216173 -0.06711939 -0.34460783
-0.2476032 0.17329136 -0.38035005 -0.22073036 0.3007438 -0.20231652 -0.18049502 -0.11737577
0.16917814 -0.2851208 0.040733796 0.16770078 -0.028503496 0.073759936 -0.30388448 0.19418734
0.13881038 -0.04316739 -0.34794754 0.18072814 0.2678871 -0.0749399 0.19875026 0.15411519
-0.16074614 -0.038114097 0.38353184 0.0061729425 -0.32322446 -0.025690611 0.20261234 -0.12974915
-0.2199967 0.33888364 0.2357892 -0.06250431 0.019737357 -0.048088394 0.09524687 0.020179871
-0.23644812 0.07293046 0.010687833 0.017794065 -0.14359133 0.103462204 -0.32346037 0.121442005
0.2204574 -0.038194634 -0.31335303 -0.00619871 0.017961401 -0.33893213 -0.28063974 0.38036552
0.31284297 0.21478918 0.2847623 0.15682898 0.21713825 0.28019387 -0.09858942 -0.04688752
0.28154767 0.007468312 -0.26564392 -0.32262465 0.22343694 0.3428717 0.29810905 0.06193529
0.2954813 -0.36992303 -0.30434355 -0.39828268 0.32870525 -0.0045675193 -0.19392972 0.13393371
-0.16539335 -0.2722511 0.15925857 0.07727531 -0.30280343 -0.27539098 0.17245398 0.30465624
0.02401606 -0.20283477 0.20025587 0.076084554 -0.3654586 -0.26010957 0.0864249 0.24923503
-0.13964203 0.20304903 -0.27389404 0.42692024 0.2825961 0.07562265 0.17023398 0.1450642
-0.23639844 -0.008985887 0.09880743 -0.099905886 0.39884472 -0.16190659 -0.36360946 -0.18914132
-0.37742305 0.32898927 -0.1745817 -0.28807488 -0.047571708 -0.27335924 -0.22749545 0.21638487
-0.3050251 0.18758735 0.2999073 0.0016457271 0.17787541 -0.24707289 0.31706244 0.40896305
0.08849478 0.36537403 -0.40318054 -0.031580206 0.07800798 -0.35601792 0.20018913 -0.15254806
-0.13973014 -0.32113716 0.16776009 -0.29285878 -0.08253313 0.18105112 0.29214776 0.08203829
-0.1490825 -0.17779548 0.24154383 0.070248514 0.33826122 0.1523782 0.32622713 -0.329289
0.33805296 -0.19253759 -0.1130347 -0.004091465 -0.07520599 0.077083394 0.3785772 -0.24464336
0.12250266 -0.3396422 0.06982686 0.3380722 0.28209722 0.35113063 0.21491344 -0.034871873
0.10312724 -0.16437897 0.34689954 0.17326476 -0.30147043 0.3479974 -0.008981283 -0.01464168
-0.113716796 -0.10772185 0.025990836 -0.20891897 -0.3822784 -0.20537877 -0.086093605 0.31359532
0.28874055 -0.24440452 -0.025909515 -0.1233842 -0.22676541 -0.028309496 -0.13740996 0.22408415
-0.1943908 0.06489429 -0.2258554 -0.1295684 0.32083791 -0.20395106 -0.029568633 0.3700096
0.14074515 -0.21262886 -0.23617993 -0.14793019 -0.12412542 0.1788614 -0.09479518 0.3489373
-0.22045057 -0.13449144 0.14610438 0.3294914 0.40824935 0.062685855 0.020760063 -0.17666693
0.23806687 -0.2411595 -0.11110832 -0.34502527 -0.38184163 0.24585994 0.034966283 0.34351048

blocks.block0.bn1.weight f4 [256]
00000000: 2b6e 823f 3f68 813f 8d9e 7d3f 60e4 843f
00000010: f75d 7f3f 0e5e 7f3f 45da 783f 742e 7f3f
00000020: b75c 803f f280 7b3f 73d4 7e3f fa9b 7c3f
00000030: 6018 843f 5344 803f 43b1 803f 4641 763f
00000040: 1f59 7c3f 7bb9 7e3f c914 7e3f 6356 713f
00000050: 70d0 7c3f e4f9 7e3f 82f9 843f 4cc6 783f
00000060: fa06 803f 5d8d 863f 0cd7 733f 99ac 7d3f
00000070: 4daa 773f e69d 823f 48cb 7c3f 37c4 713f
00000080: 9622 723f 2b4b 753f 3011 813f bc90 843f
00000090: 563e 853f f76a 803f fe99 853f 415f 7b3f
000000a0: 885d 843f 38d7 6a3f 58e9 7c3f b178 803f
000000b0: bd53 6c3f dea9 7e3f 2b65 803f 3145 7a3f
000000c0: dac0 803f d1d0 813f 9aa5 843f 67ba 753f
000000d0: 87de 7e3f ce34 6b3f 15f7 783f 32fe 703f
000000e0: 83ad 743f 7abb 853f 9f35 813f ced2 743f
000000f0: 974e 7f3f 7ddb 7b3f cb64 7c3f 1219 803f
00000100: 2faa 803f 2bcf 7e3f 5684 7b3f d474 7d3f
00000110: 68aa 733f 6dd3 843f 786d 7b3f 874c 813f
00000120: c10d 843f f2cb 7c3f e7f5 813f 45d5 7c3f
00000130: 6936 793f 3f32 823f e644 803f 8a93 7e3f
00000140: 67bc 813f 6b3c 763f 5050 7f3f 875d 823f
00000150: ada3 7d3f ad07 813f 1c3c 843f 003a 7f3f
00000160: ccb4 773f 52e4 713f 1e4f 813f ccf7 7b3f
00000170: 6aa0 823f 861b 7f3f cf72 713f b588 813f
00000180: 45c4 833f a0d7 803f cccb 813f 740c 833f
00000190: bdab 7c3f 3930 813f 995a 803f a32e 813f
000001a0: fb10 753f 60cb 773f 0387 783f 2980 783f
000001b0: b5f2 7b3f b77b 803f b9d8 813f 2f1b 833f
000001c0: acf2 7d3f 2602 7a3f 486e 823f 436b 7d3f
000001d0: 9133 753f e859 7a3f 06e2 7b3f 2785 7b3f
000001e0: 1702 7a3f 2f69 823f b25e 813f 4f8f 7b3f
000001f0: 7659 7b3f 4156 833f 9bcd 823f 9107 7a3f
00000200: ee47 7b3f 2a31 7e3f ba44 6a3f 643d 783f
00000210: ce92 843f b7f8 7f3f 1cd2 813f fbd1 813f
00000220: 1945 773f 9218 783f 94b3 803f e661 793f
00000230: b841 783f 1126 8b3f 9d4e 823f 1f39 7a3f
00000240: 6049 7a3f f8b1 8c3f 48a7 7f3f 8241 7c3f
00000250: f1c2 823f 01a9 803f 259f 813f ded4 743f
00000260: 8534 7c3f 53dd 823f 4c5c 763f 73c1 793f
00000270: aa95 863f bd20 783f bde0 833f 8272 773f
00000280: 9600 7b3f 09b0 7d3f 6ba6 7f3f 7ff6 843f
00000290: 0b15 823f be88 6e3f 19f6 7d3f 45fb 7e3f
000002a0: 4fcb 813f 26d4 7c3f 359e 743f 7f30 6e3f
000002b0: 94b4 803f 4f4c 803f 9379 813f c428 7e3f
000002c0: 15f6 7b3f ee83 803f 5d55 7b3f 5e0c 783f
000002d0: 8d8c 813f fbd8 843f 264a 823f 48d6 7f3f
000002e0: 1dce 843f a0db 7b3f 18d0 783f c27d 7c3f
000002f0: f65c 7f3f 6c37 7c3f 0a4f 843f e3b2 823f
00000300: 8c49 813f 772a 753f ae2d 823f bba4 763f
00000310: 3869 843f 68c4 863f 724e 803f 2bd1 813f
00000320: 108c 783f be9d 7f3f 15c1 7e3f 5ad8 853f
00000330: 2b8c 803f e0a8 823f 1ee6 7e3f 55c1 843f
00000340: 570e 833f 6593 843f 13e0 753f 9eb7 843f
00000350: 09f5 723f 97e4 813f b5ef 7f3f 7098 7e3f
00000360: 9b9d 853f 45ed 803f 4498 7b3f a214 7b3f
00000370: 82d6 773f 9a02 8f3f 70d8 7a3f 6ea4 813f
00000380: 7420 863f df04 7f3f 2827 803f 86bc 753f
00000390: f111 7c3f d5b6 873f ade6 7d3f 4e9f 8e3f
000003a0: c042 763f 086e 7d3f 1fcd 813f f61b 783f
000003b0: e9ea 7e3f b8a9 823f 99dc 7c3f e4b9 803f
000003c0: b3d4 813f ceef 803f 6258 803f 95b5 763f
000003d0: ab03 733f b7dd 863f 3aa9 7e3f b733 7e3f
000003e0: cc37 813f f856 803f 6ea3 743f c463 823f
000003f0: e8dd 803f b9e9 763f 6021 853f 65fb 753f
1.018987 1.0109938 0.99070054 1.0382195 0.99752754 0.9975289 0.9720805 0.99680257
1.0028294 0.9824363 0.9954292 0.986755 1.0319939 1.0020851 1.0054096 0.9619335
0.9857349 0.9950177 0.99250466 0.9427244 0.9875555 0.9960005 1.0388644 0.97177577
1.0002129 1.0511891 0.9525001 0.9909149 0.96744233 1.0204437 0.9874768 0.94440025
0.94584024 0.9581782 1.008337 1.035667 1.0409648 1.0032643 1.043762 0.9819222
1.0341043 0.9173465 0.98793554 1.0036832 0.92315274 0.99477947 1.0030874 0.9776183
1.0058854 1.0141851 1.0363038 0.9598755 0.995583 0.9187745 0.9725202 0.9413787
0.9557726 1.0447838 1.0094489 0.9563416 0.99729294 0.9838179 0.985913 1.0007651
1.0051936 0.99534863 0.98248804 0.9900639 0.95181894 1.0377022 0.9821391 1.0101479
1.0316697 0.98748696 1.0153168 0.98762923 0.9734865 1.0171584 1.0021026 0.99443877
1.0135621 0.9618594 0.9973192 1.0184792 0.99077874 1.0080467 1.0330844 0.99697876
0.9676025 0.94489014 1.010227 0.98424983 1.0205204 0.9965137 0.9431581 1.0119845
1.0294272 1.0065804 1.0140319 1.0238175 0.9869955 1.0092841 1.0027648 1.0092357
0.95729035 0.967947 0.9708101 0.97070557 0.98417217 1.0037755 1.0144264 1.0242671
0.9919841 0.9765953 1.0189905 0.98991793 0.9578181 0.97793436 0.9839176 0.9825005
0.9765944 1.018835 1.0107024 0.98265547 0.9818338 1.0260698 1.0218996 0.97667795
0.9815663 0.9929377 0.9151112 0.96968675 1.0357301 0.99988884 1.0142245 1.0142206
0.9658981 0.9691249 1.0054803 0.97415006 0.9697528 1.0870992 1.0180241 0.9774341
0.9776821 1.0991812 0.99864626 0.98537457 1.0215741 1.0051576 1.0126692 0.9563731
0.9851764 1.0223793 0.96234584 0.97560805 1.0514424 0.96924955 1.030296 0.966591
0.9804777 0.99096733 0.9986331 1.0387725 1.0162672 0.931774 0.9920364 0.99602157
1.014017 0.9876121 0.95553905 0.9304275 1.0055108 1.0023288 1.0115227 0.99280953
0.98422366 1.0040262 0.9817713 0.9689387 1.0121018 1.0378717 1.0178878 0.9993634
1.0375401 0.98381996 0.97192526 0.9862939 0.9975122 0.9852207 1.0336621 1.0210842
1.010057 0.9576792 1.017019 0.9634511 1.034461 1.0528688 1.002394 1.0141958
0.9708872 0.9985007 0.9951337 1.045665 1.0042776 1.0207787 0.9956988 1.03715
1.0238751 1.0357481 0.96045035 1.0368536 0.94905144 1.0147885 0.9997514 0.9945135
1.0438722 1.0072409 0.98279214 0.9807836 0.9681169 1.1172669 0.9798651 1.0128305
1.0478654 0.9961681 1.001195 0.9599079 0.98464876 1.0602671 0.9918011 1.1142366
0.961956 0.9899602 1.0140723 0.96917665 0.99577194 1.0208044 0.98774105 1.0056729
1.0143036 1.0073183 1.0026972 0.9637082 0.9492747 1.0536412 0.9947697 0.9929766
1.0095153 1.0026541 0.95561874 1.0186696 1.006772 0.9645038 1.040081 0.9608672

blocks.block0.bn1.bias f4 [256]
00000000: f244 143e 5b1a 95bb a36c 93bd 62dd 2abe
00000010: 04ff d5bd f820 8fba 8cd9 b23a dda0 e5bc
00000020: a7f8 0e3c de2e 85bd 8344 f23d 8ca5 8eb8
00000030: 25a0 193e be08 6cbd 2985 09be d76e d3bd
00000040: fc58 a5bd f5f3 1e3d 4df5 20bb 1e48 653d
00000050: f131 68bc c46e 153d aaa5 22be 379c 92bd
00000060: 03cb 943d 9f79 8a3d 911d 11be f278 313c
00000070: c8e2 0ebd 0a47 f33c ae60 613d f86b 953c
00000080: b56a 31be b8a7 e73c 4986 21bd e056 953b
00000090: 3575 903d 961d fd3c 49ab 83bd 7941 20bd
000000a0: e178 3cbe 40f7 54bd 6341 8dbd 7d93 0abd
000000b0: a760 1dbe 6949 95bd dec6 b0bc 4f93 26bb
000000c0: efbb 493c 6c25 91bd 4c1c 3fbd a58c babb
000000d0: 0233 cebb d270 eabc 7b6d 9dbd c1c3 edbc
000000e0: 6734 613d 2291 2fbd 9081 37bd 2aaa 29bd
000000f0: 6e79 363d 2c65 923c aff1 2abd 4c72 92bc
00000100: c680 15be e399 023e 40bf e3bd 517c 35bd
00000110: 47f7 01be a496 4dbc ebcf 9bbd bfde dcbd
00000120: 6c56 bbbd 3820 bfbd a8c5 6f3d 4c0e f0bb
00000130: e419 a43d 765d 91be 8034 293c 6a67 e3bc
00000140: 8225 01be de5a fb3b ffec c5bc fba4 14bd
00000150: 2dce e7bc 0e18 f0b9 3e8e 463d 213d dcbc
00000160: 3766 8abe a48d 68bc 6b53 023e 1df0 0f3e
00000170: ff98 e6bc c9b1 3b3d 17ee edbc 230f 043e
00000180: 0119 05be c289 eebb 252f 9dbc 37b7 d8bd
00000190: a850 caba bec5 ab3b f958 143d 2540 92bc
000001a0: 1ce6 803b 1fcc 793d 0540 7c3d 284b 9a3d
000001b0: d754 9a3d 475a ecbc 9cc2 063d 2cbd a93c
000001c0: bb59 fcbd f929 1abe 7bac 9cbb 6b96 9bbe
000001d0: c450 1c3e 527a f63c 5336 7f3d 628c 9cbd
000001e0: 7fce 923c 6d02 5e3d a62f 41bc 26b2 25bd
000001f0: f505 59bc fdca ce3d c6b9 fcbc bc04 ac3d
00000200: a5b0 05bc adf8 e73b e6e9 3cbc 0fe8 843d
00000210: 7f75 133e 1752 d1bc f195 b13d 28d0 393d
00000220: 8b6b 003d 2c5b 553b 5576 1c3d 7bd5 003c
00000230: 53f1 0dbd 8336 393d 74f4 7a3d e03e 1ebd
00000240: 9bdd 413d 643f 6f3e 50b4 843c f5d3 30be
00000250: e2e3 8e3d 5d39 4bbc 2488 213c f472 acbd
00000260: a16a 7cbd c094 88bc a5ee afbd f45e 82bd
00000270: 8962 073e e129 b8bc 0f30 b63c de63 58be
00000280: dc7d babd ac15 29bc 51c0 dfbd 8d64 3fbd
00000290: 950e 343d a43f 5fbd b83c e6bd 459c 883d
000002a0: 82f6 1e3b 1694 0cba 74fb af3c 1266 05bd
000002b0: 1f98 71bb c637 413c 206e 07be 82b7 143d
000002c0: 4f7f 69bd 67f6 d7bb f269 0abd 3b26 1e3d
000002d0: 3d28 423d 4c78 15be ea3f 683c 8ad5 b03d
000002e0: d618 69bd 9801 9bbd 62de 0a3e 524e e9bd
000002f0: 1935 823d e82f a83d 53c0 90bd a30f 1f3e
00000300: f089 2fbd 3a42 07be 6762 13bd 7483 06bd
00000310: 9e16 efbd 7717 e9bd 4f10 f8bb 6955 1cbd
00000320: 5e92 8cbd 5c0a bebd 3627 53bd 48c5 aebc
00000330: ad8a 0c3a ea20 53bc b574 0a3d 19e2 cabc
00000340: d5fd 7f3c d2a1 d0bb f6dd a9bc 8387 423e
00000350: e47f cebc 762a 81bc ab71 8c3d 1baa 97bd
00000360: 2e3e b8bc 0754 63bd 0c96 85bc d24e 1fbd
00000370: d228 f6bd 7ca6 01be 6d4d e73c ad6c 64bd
00000380: 7f28 293d 4965 bf3d ae7a 88bd 4975 8e3c
00000390: 9956 0cbc 8cda 323d 94ea 133d ee2e d43d
000003a0: 5d1f d63d d791 23bd ca61 463d 2298 5d3d
000003b0: c586 b33c c378 28bd 7820 053d d06d 403d
000003c0: 065e 5ebb 5579 0c3c 7407 503d cf08 a9bd
000003d0: d0eb b53d 35e8 46be 17a9 14bd e54b 03bc
000003e0: 29b6 b03d 1bb3 c3bc 27a8 2ebd ab22 8a3d
000003f0: 1754 68bd 1e13 98bd c9fa d73c 1054 b03c
0.14479426 -0.004550261 -0.07198455 -0.16686013 -0.10449031 -0.001091986 0.0013645156 -0.028030807
0.0087262755 -0.0650308 0.11829474 -6.801923e-05 0.15002497 -0.057625525 -0.13429703 -0.103238754
-0.08073613 0.038806874 -0.0024560273 0.05597698 -0.014172063 0.036482587 -0.15883508 -0.07158702
0.07265284 0.06761479 -0.14171435 0.010832058 -0.034884244 0.02969696 0.05502384 0.01823996
-0.17325862 0.028278217 -0.039434705 0.0045574754 0.070536055 0.030897897 -0.064291544 -0.03912494
-0.18405487 -0.05199361 -0.06897237 -0.033832062 -0.15368901 -0.072893925 -0.021579202 -0.0025417393
0.012312873 -0.07087216 -0.046657845 -0.0056930357 -0.0062927017 -0.02861825 -0.07686897 -0.029024007
0.054981615 -0.04286302 -0.044801295 -0.041422047 0.044549398 0.017870508 -0.041734394 -0.017876767
-0.14599904 0.12754016 -0.111204624 -0.04430801 -0.12691985 -0.012548123 -0.076080166 -0.10784673
-0.09147343 -0.09332317 0.05853811 -0.007325923 0.08012751 -0.28391618 0.010327458 -0.027759273
-0.12611964 0.0076707443 -0.02416086 -0.03629015 -0.028296554 -0.0004579429 0.048475496 -0.026884617
-0.2703111 -0.014193926 0.12727134 0.1405644 -0.028149126 0.045823846 -0.029044194 0.12896399
-0.1299782 -0.0072796056 -0.01918752 -0.105818205 -0.0015435414 0.0052420786 0.036217663 -0.017852852
0.003933681 0.06098568 0.06158449 0.07533866 0.07535713 -0.028851641 0.032900438 0.020720087
-0.12321802 -0.15055074 -0.0047813035 -0.30388197 0.15265185 0.030087624 0.062307667 -0.076439634
0.01792073 0.054201532 -0.011791145 -0.0404531 -0.013246049 0.10097311 -0.030850302 0.083993405
-0.008159791 0.007079205 -0.011530375 0.06489574 0.1440029 -0.025551839 0.08671177 0.04536453
0.03135256 0.0032555563 0.038198788 0.007863398 -0.034653973 0.045218002 0.061268285 -0.03863418
0.04733048 0.23364025 0.016199261 -0.17268355 0.06977059 -0.012403813 0.009859119 -0.08420363
-0.061625127 -0.016672492 -0.0859044 -0.06365767 0.13221182 -0.022480907 0.022239713 -0.21131846
-0.09106037 -0.010320108 -0.10925353 -0.046726752 0.04395922 -0.05450405 -0.1124205 0.06670431
0.0024255817 -0.00053626427 0.021482207 -0.032568045 -0.0036864353 0.011793083 -0.13225603 0.03630782
-0.057006177 -0.0065906527 -0.033792444 0.03861068 0.047401655 -0.14596671 0.014175395 0.08634479
-0.05690845 -0.07568663 0.13561395 -0.113918915 0.06357784 0.082122624 -0.07067933 0.15533309
-0.042856157 -0.13208857 -0.035982516 -0.032840207 -0.11674236 -0.11381429 -0.0075703035 -0.03816739
-0.06863855 -0.0927932 -0.051551066 -0.021334305 0.00053612405 -0.012886265 0.033802707 -0.024766015
0.015624483 -0.0063669467 -0.020735722 0.18997006 -0.025207467 -0.015767317 0.06857618 -0.07405492
-0.022490587 -0.055500057 -0.0163069 -0.03889353 -0.120195046 -0.12661165 0.028235162 -0.055767704
0.041298386 0.093454905 -0.06664024 0.01738991 -0.008565568 0.043665454 0.036112383 0.10360514
0.10455201 -0.039934006 0.048433103 0.054100163 0.021914849 -0.041130792 0.032501668 0.046979725
-0.0033930554 0.00857385 0.050788358 -0.08253633 0.08882868 -0.19424517 -0.03629407 -0.0080137
0.08628494 -0.023889115 -0.04264083 0.06744894 -0.05672082 -0.07425521 0.0263647 0.02152446

blocks.block0.bn1.running_mean f4 [256]
00000000: a2a3 d4be a9d2 733e 212b 3cbd e22e 923e
00000010: 7255 843e 1ce1 37bf 1a32 9a3e f71f 9f3e
00000020: f43b bf3e 6d53 83bc 359d 653e 017d 0cbe
00000030: 008b 143e fefe d53c 09bd 98be ec3a 333e
00000040: b75f 193f eb2f e9be 6609 fc3d a410 643d
00000050: a7be e4be 7851 34bf 5d24 67be 912d b63e
00000060: d619 a2be 5414 d5be 1c8f ffbe 442a 5bbf
00000070: 23bd bd3e b988 febe 75db 633e 52ad 1fbe
00000080: 5d1c 1abf 1e46 883c e99e 5abe a27a 80be
00000090: 2022 493e 9404 d0be 3150 4b3e 26c2 18be
000000a0: bcb8 853e d4d6 c3be 89ac dbbd 81d3 893e
000000b0: c952 403e 4553 0cbf e936 98be f628 be3e
000000c0: 1692 3f3d 72c0 2cbe 4ba3 0dbf 270a 293e
000000d0: 519a e33e 7a23 64bd e2e7 343f 06db e23d
000000e0: 517f e63e 1905 013f 61dc 023f a5a7 c93d
000000f0: 61ca a2be fd4c 4ebe c537 8bbc 8208 dc3e
00000100: a07d b13e fcb8 f63d c296 e63e 7bd8 9d3e
00000110: f6ea 873d 23e0 83bb 843d 233c d6e9 73bc
00000120: 772f 09bf e65c 51be e4ae 9ebe 51af 1c3f
00000130: 6f3b e8be d216 47bd 754e 33be 2d2c ca3c
00000140: 022f de3d 72f2 d13d e0aa d3be 8202 0a3f
00000150: 63d3 883e 12fe 98be 7fb2 1ebe 9d1e dc3d
00000160: e00c bc3e aa77 39be e3ca 3c3e d818 5fbe
00000170: 3969 d13e 8022 263e 62a4 123e 271c 143e
00000180: f079 263e ffe4 aabd 42d9 c3bd fb50 6f3e
00000190: b8e2 a2bd 7ce9 2b3d 0dce 293f 2679 253e
000001a0: 2ae8 a63d e45c 1abe 29cb 15bf 41c5 1dbe
000001b0: 803f b33d f120 13bc 8301 08be 5397 0b3e
000001c0: a463 083c f0bd 05be 16b2 3b3e db18 1b3e
000001d0: cdd2 76be b604 73be abd6 aebe b920 5d3f
000001e0: 6b06 02be cb74 1fbc 684a bf3d 3365 fcbc
000001f0: b96e 73be 8f37 483d ee57 1d3d baf8 a63e
00000200: 001a 60be 4f84 7e3e 2a74 10bf d542 c53e
00000210: fade 7c3c 5c8f d3bc 1c59 bb3e d3c0 ab3d
00000220: cbed 8d3d 27fd 05be 3b96 733e c3c0 72be
00000230: 1685 183f d050 323e 4278 2dbf c32c 0e3e
00000240: 724a bdbe 24aa cc3d 6f17 babe e2c8 57bc
00000250: 0ae3 043f 35db cabe e466 fc3e 9d82 ef3b
00000260: 2804 a8be 34eb 4d3e 0a71 c63e ccfe 973e
00000270: 2fc0 aebd 6499 50bf 5eb4 76be a7f9 0f3f
00000280: b407 8fbe bb17 2a3f a6c6 853d 8720 c2be
00000290: cd16 0cbe 3692 43bd 358e 2dbd 6a70 f2be
000002a0: 8485 a1be e6df 7cbd 1636 d3bd 913e 1f3d
000002b0: 6256 a2be 2fa1 fd3a 68d5 2f3f 1ae4 123e
000002c0: e65e 8e3e d99c dabe 8559 d23e 0aaa 26be
000002d0: 3fb1 fa3e e086 033e b6e9 a83d dfb0 1dbe
000002e0: 6ee5 2ebd ebff 65bf 54c7 32bf 196e 18bf
000002f0: 7907 a53d 76d8 16be 7dfa 873d cd9b 16bf
00000300: 11d7 f0bc 01dd c7be 5a33 4abe 9564 af3d
00000310: 03eb 813d 69dc 7a3e 9884 123f 5d44 d8bc
00000320: 01f7 f73d 1f5a f5be c736 d53d 577b c83e
00000330: abfa f4bd 73d9 e43e d349 4abd 9fa3 24bf
00000340: cf81 613e e1c0 4d3e 911e 913d f9bf 083f
00000350: f49b 0fbf 7aee 90bd 7728 40be 14bc e83d
00000360: a37b 863e d65b aabd c45c 7ebe 872f f5bd
00000370: 07e5 f7be 9992 0cbf e2ba 24be 3ded 003f
00000380: aebb c73b 9cc1 463f 14da ac3c 5de4 20bc
00000390: 5d17 c03d b138 edbc 59a1 ad3e 7cc3 033f
000003a0: a787 eb3e 0e5b b8be 498e 6ebe 5f73 ad3e
000003b0: 59a4 07bf e3da 6ebd 8535 07bf 2802 a4bd
000003c0: 5864 04bf ed65 96be 2dcb b93c 0104 09bd
000003d0: 7cb5 023f ea59 563e 3755 bc3e b6b8 0a3e
000003e0: f960 f03e 6415 62be 1dc3 79be 2fbe 08be
000003f0: c716 69bf c77b af3e 4d6e d53d 3f0e 143f
-0.41531092 0.23810829 -0.04593957 0.28551394 0.2584644 -0.71827865 0.3011635 0.31079075
0.37350428 -0.016030991 0.22423251 -0.1371956 0.1450615 0.026122566 -0.29831722 0.17502946
0.59911674 -0.4554437 0.1230648 0.055679932 -0.44676706 -0.7043681 -0.22572465 0.3558164
-0.31660336 -0.41617072 -0.4991387 -0.8561137 0.37058362 -0.49713686 0.22251685 -0.1559346
-0.6019953 0.016634997 -0.21349682 -0.2509356 0.19641924 -0.40628493 0.1985481 -0.14917812
0.26117504 -0.38249838 -0.10726268 0.26919177 0.1878158 -0.5481456 -0.29729393 0.37140626
0.046770178 -0.16870287 -0.5532729 0.16507779 0.44453672 -0.055697896 0.70666325 0.11076932
0.4501901 0.50398403 0.5111752 0.09846429 -0.31795028 -0.20146556 -0.016994366 0.4297524
0.34666157 0.12047002 0.45036894 0.30829224 0.06636612 -0.004024522 0.009963397 -0.014887294
-0.5358805 -0.20445594 -0.30992806 0.6120501 -0.45357844 -0.048605748 -0.17510398 0.024679268
0.1084881 0.10251321 -0.41341305 0.53910077 0.26723775 -0.2988134 -0.15497778 0.107480265
0.36728573 -0.18112054 0.1843677 -0.21786821 0.4090059 0.16224098 0.1432052 0.14463864
0.16257453 -0.08344459 -0.09562923 0.23370735 -0.079533994 0.041970715 0.66330034 0.16159496
0.081497505 -0.15074497 -0.5851312 -0.15407278 0.08752346 -0.008980022 -0.13281827 0.13631944
0.008324537 -0.13060737 0.18329653 0.151462 -0.24103852 -0.23732266 -0.34148154 0.86378056
-0.12697761 -0.009732435 0.09340364 -0.030809974 -0.23772706 0.04888111 0.038413934 0.32611638
-0.21884918 0.24855159 -0.5642725 0.3852755 0.015434021 -0.025825195 0.36591423 0.08386388
0.06930121 -0.13084851 0.23787777 -0.23706345 0.59578073 0.1741364 -0.67761624 0.13884263
-0.3697086 0.09993389 -0.36346003 -0.013170453 0.51908934 -0.39620367 0.4929725 0.0073092715
-0.3281567 0.20109254 0.38758117 0.29686582 -0.0853275 -0.81484056 -0.24092242 0.56240314
-0.27935565 0.6644246 0.0653203 -0.3791544 -0.13680573 -0.04774686 -0.042371947 -0.4735139
-0.31547177 -0.061736964 -0.103130504 0.038878027 -0.3170653 0.0019350405 0.6868501 0.14344826
0.27806777 -0.4269779 0.41083923 -0.16275802 0.48963353 0.1284442 0.08247702 -0.15399502
-0.04269927 -0.89843625 -0.698354 -0.59542996 0.08058066 -0.14731011 0.06639574 -0.58831483
-0.029399427 -0.390358 -0.19746152 0.085641064 0.06343653 0.24498142 0.5723357 -0.026399786
0.12107659 -0.4792032 0.104108386 0.391566 -0.119618736 0.4469715 -0.04938681 -0.64312166
0.22022174 0.20093109 0.07085908 0.5341793 -0.5609734 -0.07076736 -0.18765436 0.11363998
0.26266202 -0.083182976 -0.24840075 -0.11971956 -0.48416921 -0.5491119 -0.16086915 0.50361997
0.006095371 0.77639174 0.021100082 -0.009820071 0.09379456 -0.028957697 0.3391216 0.5147016
0.46001932 -0.3600697 -0.23296465 0.33877084 -0.5298515 -0.058314215 -0.5281604 -0.08008224
-0.5171561 -0.29374638 0.02267989 -0.033451084 0.51058173 0.20932737 0.36783764 0.13547024
0.46948984 -0.22078472 -0.24390836 -0.133538 -0.9105038 0.34274122 0.10421429 0.5783424

blocks.block0.bn1.running_var f4 [256]
00000000: 2a37 7c3c c6f1 be3b 1d4f 693c ea8f c73c
00000010: 4a4b ac3c a871 ec3c 4579 693c 904f bc3c
00000020: bb66 c73c a5b6 b63c 8db0 093c cffb bd3c
00000030: 5441 073d b3be 163d 0beb 103c 4f03 a33c
00000040: a47a cc3c 6ead 983c 2dfe a93c 864c fc3b
00000050: 6f29 813c 5e7d 613c 01c6 ce3b 19cb a93c
00000060: f960 993c 50af f33c cfbb 083c f836 4b3c
00000070: b1cc 9f3c fe3d d53c 8f99 e73b a1dc ac3c
00000080: 90ea 5f3c 63d1 9e3c 4898 9e3c 30d6 bd3a
00000090: ea26 063d 3fab 6e3c d103 ae3c 9962 713c
000000a0: 94a1 a93c 284b 0a3c f852 9d3c 32eb ac3c
000000b0: 8b5b 0a3c cdaf c53c 3ecd 6f3c b78d 913c
000000c0: 88b8 853b c1e2 8a3c d214 5b3c 7c2b 093c
000000d0: eb31 6e3c 84fd c13b 4192 773c 2c5c d43c
000000e0: 4279 c13c 9ae7 d63c a59a 7e3c cb10 223c
000000f0: de41 0d3d 0c6c b93c 4468 eb3c 4d86 cf3c
00000100: fd31 a83c bf38 8a3c 6d5f 683c 3b4e ec3c
00000110: 23f8 263c b3a2 923c cd1d 9f3c f09a 623c
00000120: 90f6 903c a525 023d c753 bd3c e4ef e83c
00000130: 134c 823c 59b3 8a3c 1e03 c53c e371 a23c
00000140: 00c9 b23c c4e5 ba3b 30d2 933c 2de7 db3c
00000150: 9d5a 413c 7f98 f43b a4b1 a03b c197 933c
00000160: fa5d 153d e92e 393c 2771 6c3c b910 193d
00000170: a18a 283c b514 8f3c 8687 853c 7008 b63c
00000180: 0e14 083d 8b3d 353c a53d 153d 9502 2d3d
00000190: 1970 cd3c e0fc 873c ca2c a33c 5442 013d
000001a0: 0e52 6e3c bc18 a03b 653e 7a3c a824 023d
000001b0: 9039 a03c 4598 c83c 72b6 c83c f56b bd3c
000001c0: d0a6 3e3c f8d5 6b3c 33f2 b43c c3c7 fd3c
000001d0: d505 0e3c 6d64 af3c 2585 c33c 4e76 a23c
000001e0: 52fa 773c d398 ed3c b709 bc3c d119 5f3c
000001f0: aac0 673c a26c 9d3c 2663 933c 8b23 d73c
00000200: 6a8b b03c f99e 203d 971a 2c3c 452d fc3b
00000210: e7bd a13c 59f1 663c ac9f 773c 58d2 573c
00000220: 9747 873c b066 943b 8fee b73b 941b 0c3c
00000230: b268 0e3c 4912 523c 8947 953c 6e1b c93c
00000240: 9493 263c 092b 003c b48d c63c 8fe2 dd3c
00000250: d1b9 db3c 3ff9 163c 303f b83c 2004 563c
00000260: 04a7 a53c bd17 f63c 0ce5 ba3c 0c9c 083d
00000270: 6709 f23c 5913 b23c 9c19 a43c 3bfb 133c
00000280: 9d71 013d a2e0 5f3c 683c b63c fb2c d73c
00000290: 0181 4d3c 7a28 0d3c 8ac3 033c d83b b53c
000002a0: f6d6 283c d4e1 2e3c e5e4 ae3c d5ec 833c
000002b0: 24bc ba3b 0ffd bb3c 5e38 b83c b9d4 a03c
000002c0: 9b37 c03c 2ee2 ec3c 462a 4c3c 78aa b33c
000002d0: 0ed7 4a3c 422d 603c bb48 833c 4e74 4c3c
000002e0: aece 913c 9765 013d 55f2 c33c 55bc 763c
000002f0: 555b d03c 5eff 8a3c 6fc5 b13c 0f43 f23c
00000300: 2bf0 eb3c f8bc 9f3c ddf4 343c 804a 803c
00000310: 1438 f83b 2fea 013d 2ed0 c83c 111a 143c
00000320: a43f f93c 950c a63c 6efe 003d ccc6 cd3b
00000330: 9902 833c f734 bc3c 7a3e c23c c4d6 c93c
00000340: 965a fb3c 6d23 043d 6cee bd3c a3f5 173d
00000350: 31e2 923c 0938 163c acdb 9f3c 83a8 a63c
00000360: 9d79 6d3c 42c8 cd3c 7859 8c3c f65e a43c
00000370: 4079 a33c c04a 703c 7cdd 4c3c a386 7a3c
00000380: 91f4 e43c b604 1e3d 2d34 a53c 6d51 603c
00000390: 7f71 b13c 2749 223b 3a9f f73c d286 b63c
000003a0: a981 993c 01ce 983c db6d 2a3c 4ba1 a43c
000003b0: 8564 8c3c a8db 803c 8d81 893c bfe8 163d
000003c0: 3865 6d3c abfa e13c a79e bb3c a017 7d3c
000003d0: 66ff 943c a327 043d 6659 e73c c94a b43c
000003e0: da20 b63c cafc a93c 25c5 423c 9f1c 4c3c
000003f0: dffc c33c ea34 4a3c 2d81 5e3c 3325 5f3c
0.0153940115 0.0058271615 0.0142400535 0.024360616 0.021031994 0.02886279 0.014250104 0.022987157
0.024340978 0.022303889 0.008403909 0.02319136 0.033021286 0.03680296 0.008845101 0.019899039
0.024960823 0.018637385 0.020751083 0.007699552 0.015766827 0.0137628 0.006310225 0.020726727
0.018722998 0.029746681 0.008345558 0.012403242 0.019506784 0.026030537 0.007067866 0.021101298
0.013666764 0.019386953 0.019359723 0.0014483389 0.032751955 0.014567195 0.021242054 0.01473298
0.02070693 0.00844077 0.019204602 0.021108244 0.008444677 0.02413168 0.014636336 0.01776777
0.0040808357 0.016953828 0.013371663 0.008372184 0.014538269 0.005920114 0.015110553 0.025922857
0.02361739 0.026233483 0.0155398 0.009891699 0.034486644 0.022634529 0.028736241 0.025332594
0.020531649 0.016872762 0.0141829075 0.028845897 0.010190996 0.017899847 0.01942339 0.013830885
0.017695695 0.031774182 0.023111237 0.028434701 0.015905416 0.016931223 0.024049338 0.019829696
0.02182436 0.0057036597 0.018044561 0.026843632 0.011801389 0.007464468 0.004903989 0.018016698
0.036466576 0.011302688 0.0144312745 0.037369464 0.010286958 0.017465929 0.016299974 0.02222082
0.03322225 0.011062036 0.036435742 0.04223879 0.025077866 0.016600072 0.019918818 0.031557396
0.014545931 0.004885761 0.015273665 0.03177324 0.019558698 0.02448667 0.02450106 0.023122767
0.011636451 0.014394276 0.022088146 0.030979043 0.008668383 0.021410191 0.0238672 0.019831803
0.015135365 0.029003536 0.022953851 0.013616995 0.014145056 0.01921684 0.017991614 0.026262065
0.021550853 0.03921411 0.010504386 0.0076958262 0.019743873 0.014095628 0.015113752 0.013172708
0.016513629 0.004528843 0.005613155 0.008551497 0.0086919535 0.012821742 0.018222587 0.024549212
0.010167021 0.00782276 0.024237491 0.02708557 0.026822003 0.009214698 0.022491068 0.013062507
0.02022124 0.030040616 0.022814296 0.033351943 0.029545499 0.021737741 0.020031743 0.009032066
0.03160249 0.0136643965 0.0222456 0.026266566 0.012542964 0.008615607 0.008042226 0.022123262
0.010305157 0.010673959 0.02134938 0.016104141 0.0056986976 0.022947816 0.022487815 0.019632684
0.023464015 0.028916445 0.012461251 0.021931872 0.012380375 0.013682665 0.016025892 0.012478901
0.017798748 0.031591024 0.023919264 0.01505955 0.025434176 0.016967472 0.021700589 0.029572992
0.028801044 0.019499287 0.011044708 0.015660524 0.0075750444 0.031717476 0.02451333 0.009039418
0.030425854 0.020269671 0.031492643 0.006279802 0.01599245 0.022974474 0.023711432 0.024638541
0.030682843 0.032260347 0.023184977 0.03709949 0.017930122 0.009168633 0.019513927 0.020344025
0.014494327 0.025119904 0.017132506 0.020064812 0.019955277 0.014666259 0.012503978 0.015290889
0.02794865 0.03857871 0.02016648 0.013691288 0.021660564 0.002476284 0.030227292 0.022281084
0.018738585 0.018652918 0.010402168 0.020096442 0.017137775 0.01572974 0.016785407 0.036843058
0.014489464 0.027585348 0.0229028 0.015447527 0.01818819 0.032264363 0.02824087 0.022008317
0.022232462 0.020750422 0.011887823 0.012457996 0.02392429 0.012341717 0.013580603 0.013619709

blocks.block0.fc2.weight f4 [256, 256]
00000000: f385 883d 356d 613d 1b59 c93c a82d d7bc
00000010: f70e 753c 7b5d 0f3d 20d6 0e3d 5911 f63c
00000020: a8dd ea3c bdc8 5ebc a712 1cbd 514a 3c3d
00000030: b5f5 e6bc 9040 8c3c b942 80bc 4400 0c3d
00000040: cd06 d4bc 0774 4d3d 57dc bebc 71d3 203d
00000050: 4980 023e 7d61 5b3d bf48 293d d339 263d
00000060: 3624 253d 3678 c8bc 7f56 d3bb 668d 28bd
00000070: d934 26bc 76f0 8ebc 1fcf 8e3c 7c73 46bd
00000080: 07f4 5cbd 7332 053c 0f9e 2d3a fe53 673d
00000090: 6721 01bd 6907 0f3d 05e8 59bd 9c56 95bd
000000a0: 2566 d0bc 3deb 11bd 3a49 8f3c 4cc2 bdbc
000000b0: 427d 323d 7a1b 743d d1bf 2f3b 78aa 523d
000000c0: 8bb8 c2bd 096d 30bd 8465 a23c 2229 0e3c
000000d0: 015f 10bd d520 d4bc ec2b fb3c 96f6 7e3d
000000e0: 1fd1 9a3d 1986 07bd 404a 3e3c 17da 3fbd
000000f0: 85e7 213d 7fe9 a8bc 30ea 653d b8aa 103d
00000100: 429b 603d 8ba7 153d 74c1 bfbb 1a06 2b3c
00000110: 5e1b e6bc 6212 4a3d e76e 663d 7270 1c3d
00000120: 1e6a d4bc 55d0 b3bc 5bee cd3c eeff 0d3d
00000130: eb86 2c3d b98c ff3b 03d5 663d bfb2 31bd
00000140: f73d 34bd 9e65 4a3d 7fd1 bd3c 8537 2ebd
00000150: 414e 3c3c 8867 99bd 254b 0dbc ad2f df3b
00000160: fa7b 593d c311 48bd 3416 ecbc a844 29bd
00000170: ed9a 5a3d 6bcc 10bd f9ac c33b 2c62 47bd
00000180: 30d2 99bd aeac 59bc 968d 3f3b aab0 543d
00000190: be59 703c aba7 3fbc 86b4 48bd 1f9c ecba
000001a0: 4b1d e0bc c92c 96bb 803f 053c ac2b 1b3d
000001b0: 38cf a83b 4b0c 5a3c d0e7 9ebb e767 0e3d
000001c0: 607a dd3c 8ba5 8cbd 3d0d 36bc 3d82 2fbc
000001d0: 5a05 93bd 4206 103d 888e 363b f0e7 29bd
000001e0: 5d85 2b3d 272e a3bc 1e47 f73c bea8 553d
000001f0: 8ad6 373c e598 313d 7ffb 4b3c 276f 183d
00000200: 8476 ebba cf4a 2abd ef6e 103c 456e 9b3d
00000210: d2e9 ae3b 977f 233d 450c 1ebd e7c1 0c3d
00000220: 78a2 82bb 2d26 353b e72b 6fbd 9820 2dbd
00000230: 17c0 1f3c 6cf7 513d bc40 dd3c fb9b 6d3c
00000240: 5537 7d3d ca51 743c 0df4 a8bc 2038 39bd
00000250: 8dea 81bd 6aae 633c 37ed f9bc fac9 743c
00000260: 50de 803c 3781 913c d60a 303d fd43 113d
00000270: 8fe7 7f3d b74b fabc fa5a ddbc 919c 203c
00000280: 38bb 323d 6488 84ba f1c0 c3bc f68e c1bc
00000290: 4252 123d 7121 a9bc c6d8 38bc 480e 2bbc
000002a0: 08d0 5d3d 471f b8bc 3a77 52bd 3384 333d
000002b0: 4b34 97bc ba42 e2bc 8792 61bb fd74 f0bb
000002c0: a3e9 8abd 3f1e 863c 4559 5dbd 7784 99b9
000002d0: b106 4b3d ffdd 41bd 83fc 08bb 02dd 81bb
000002e0: 49d3 1c3d 63f0 273d d520 c3bc 961d ecbc
000002f0: 82b8 c1bd 22dc 03bd 1ce7 c73c 7b69 613d
00000300: 77dc 383d a046 47bc 66b2 003d 327c 30bd
00000310: 8a37 de3c d5db 913d f40c 71bd 98ab 02bd
00000320: ff60 db3c 50ed 9939 58cf 74bc c257 b53d
00000330: 1731 283c d899 ad3c a939 0bbd 72ad a63c
00000340: 2537 563d a9d5 1e3b 9c3c 473c 0bf8 9a3c
00000350: e1e5 8a3d 9b74 cdba fb7b 57ba 768f 873d
00000360: 4ddb 88bd 2f4b be3d d949 84bd 7bbf 3c3d
00000370: 96d7 27bd ef41 d4bb 58f8 a53d e5dd 0f3d
00000380: 58ff 253c 092c c03c 5f2e 7fbd 4ce0 08bd
00000390: 0e5f 10bd eacd 1cbd 3d1b f53c c994 2cbc
000003a0: 93a7 963c 266d 423b f3fc 133d 5357 5abc
000003b0: c944 44bd 00d3 4b3b cb6c 59bd 134e 8e3d
000003c0: d76a 90bc 053d e83c 48c0 fcbc b9ba 2b3d
000003d0: effc ea3c 605f 2ebc e7be 443d 6579 143c
000003e0: 8d93 75bb 37ee 1f3c 83b2 b93c 4d4b 8f3d
000003f0: 4f6d f93c 6a51 853c 87bd af3d dcc0 5abc
0.06666174 0.05503579 0.024578622 -0.026266888 0.014957181 0.03500126 0.034872174 0.030037569
0.028670147 -0.013597664 -0.038103726 0.04596931 -0.028193334 0.01712063 -0.015656816 0.03417994
-0.02588215 0.05015948 -0.023298426 0.039264146 0.1274425 0.05355977 0.04132914 0.04058249
0.040317737 -0.024471384 -0.00644952 -0.041150473 -0.010144436 -0.017448645 0.017432747 -0.04844998
-0.05394366 0.008129704 0.0006622979 0.056476586 -0.031525996 0.034919176 -0.053199787 -0.0729191
-0.025439331 -0.03562473 0.017490972 -0.023163937 0.043576486 0.059596516 0.0026817212 0.051432103
-0.09507855 -0.043072734 0.019823797 0.008676799 -0.035246853 -0.025894562 0.030660592 0.06224688
0.07559418 -0.03308687 0.011614382 -0.046838846 0.039527435 -0.020619152 0.05613154 0.03531906
0.054835565 0.036536735 -0.005851919 0.010438466 -0.028089222 0.049333937 0.05625811 0.038193174
-0.025929507 -0.021949926 0.02513807 0.0346679 0.042120855 0.007798758 0.056355488 -0.043383356
-0.044004407 0.049413316 0.023171185 -0.042533416 0.011493267 -0.0749045 -0.008623873 0.0068111033
0.05309675 -0.048845064 -0.028819181 -0.04132524 0.053370405 -0.0353512 0.0059715477 -0.04867761
-0.07510793 -0.013285799 0.002922868 0.051926292 0.014669834 -0.01169769 -0.049000286 -0.0018051899
-0.027357718 -0.0045829755 0.008132815 0.037883446 0.0051516555 0.013308595 -0.0048494115 0.034767058
0.027035892 -0.06867512 -0.011111555 -0.010712204 -0.07178755 0.035162218 0.0027855951 -0.04148096
0.041875232 -0.019919468 0.030185279 0.05216288 0.011220584 0.043358702 0.012450098 0.037215378
-0.0017964398 -0.04157525 0.008815511 0.075893916 0.005337932 0.0399166 -0.03858592 0.034364607
-0.003986653 0.0027641163 -0.058391478 -0.042267412 0.009750388 0.05126135 0.027008407 0.014502521
0.061820347 0.014912078 -0.020624185 -0.04521954 -0.06343565 0.013896564 -0.03050862 0.014940733
0.015731007 0.01776181 0.042979084 0.03546523 0.06247669 -0.030553682 -0.02702092 0.009802953
0.043635577 -0.0010111448 -0.023895713 -0.02362774 0.03572298 -0.020645829 -0.011282152 -0.010440417
0.054153472 -0.022475852 -0.051383235 0.043827247 -0.018457552 -0.027619708 -0.0034419612 -0.007338165
-0.06782844 0.016371844 -0.054040212 -0.00029281128 0.04956693 -0.047330853 -0.0020902462 -0.0039631138
0.038287435 0.041000735 -0.023819366 -0.028822701 -0.0945902 -0.032192357 0.024402194 0.055032235
0.045132127 -0.012162834 0.031420134 -0.043087192 0.027126092 0.07122008 -0.058850244 -0.031901926
0.02677965 0.00029359246 -0.014942013 0.08854629 0.01026561 0.021191522 -0.033990536 0.020346377
0.052298684 0.0024236238 0.0121604465 0.018917104 0.06782127 -0.001567501 -0.00082200737 0.0661916
-0.06682453 0.09291684 -0.06459398 0.046081048 -0.040977083 -0.0064775865 0.081040084 0.035123724
0.0101316795 0.023458498 -0.062300082 -0.03341703 -0.0352469 -0.038282312 0.029920215 -0.01053352
0.018390452 0.0029667108 0.036129903 -0.013326484 -0.04791716 0.0031101108 -0.05308227 0.06948485
-0.01762907 0.028349409 -0.030853406 0.04192612 0.028685061 -0.010642856 0.04803362 0.009062146
-0.003747198 0.009761385 0.022668129 0.06996784 0.03044763 0.016274173 0.08581071 -0.013351645

blocks.block0.fc2.bias f4 [256]
00000000: ed6c 60bd 91c4 973c 98f3 373c fce2 a9bc
00000010: 3ebd 62bc cb66 29bc ff51 62bd 09b2 b03b
00000020: b4c6 063d 8e90 66bc dc9f cfbc ed03 1f3d
00000030: 6938 8a3b 90f7 843d e092 603d c862 4c3d
00000040: 2930 23bd f833 c9bc ffeb 62bc ada1 b8bc
00000050: d330 60bd 7781 e8bc 5b26 533d ce31 d83c
00000060: 20ea cf3c 9ed4 733d b39b a8bc fd08 00bd
00000070: 7a3b 60bd eccd 06bd f44c 3e3d be14 b0bc
00000080: 7398 f5bc 2162 ea3c 91e6 873c c1fd c73c
00000090: 3f7a 5e3c 233b 1f3d 10c8 d13c 616e bdbc
000000a0: 1dff 4bbd caf5 9bbc 6d1c 0f3d 0238 b53c
000000b0: b93e e0bc 74f5 053b 0880 e1bb efed 473d
000000c0: 3eef 50bd dd24 843c 1a6d fc3c 56a4 2abd
000000d0: e444 283d 587d 283c c0b9 503d 2fef 4fbd
000000e0: bd0d 313c 0384 e83c 6f9d 213c 6844 373d
000000f0: 2405 c33c 63cd de3c 4065 623c 0c03 633c
00000100: 7b4c 36bd df25 933d 20ff 6b3d eeeb 2abd
00000110: 8b0f 1d3d a4f4 013d 369e 343d 0a51 5ebb
00000120: 19f0 0b3d b378 8f3b 274d 47bd 08c2 043d
00000130: 8066 db3b 00e5 27bd 9a1d cdbc 099f 483d
00000140: 35ac e63c 456f 1bbd abe6 983b 7f7f 3bbd
00000150: 5c3d dbba a57c 483d 8eeb 15bd bafb 3f3d
00000160: 1107 1ebc d757 16bd 5d10 5ebd c8c4 8bb7
00000170: bf19 503c a75b 2cbc 0f44 6a3c e349 2e3d
00000180: b8b2 813c 553f 1fbd fdcd 98bc 55b1 fbbc
00000190: a19a 43bc ba82 3cbc 6374 883d 0836 223d
000001a0: 827d 593d ac90 663d fe18 663d e37e 1dbd
000001b0: abb6 423d 73a5 52bd 30fa 9fbc 8ee7 87bc
000001c0: 6d1c 59bc 1200 e0b9 ac01 db3c 3037 5b3d
000001d0: 9acb 34bd c8d0 6a3c aaed 32bd 7eb3 1f3b
000001e0: feef 0bbd 9e56 63bc 710b 273d e950 5d3d
000001f0: af59 d9bc ff7d 5b3d 7b2c e13c b7fe 033d
00000200: fb6f eb3c 8f22 143d c5ca a2bc 8a90 74bc
00000210: f04f 873c b1ca bcbc 2378 b5bc d899 cbba
00000220: 02ce 52bd 4643 383d b23e 363c d9cb 843d
00000230: 95bb 1abd 92da ba3a 1ef8 bd3a 12c4 0bbd
00000240: 74e3 713b 1a5b 803c 40f2 5b3d e22d 0cbc
00000250: 2b7a a93c 75a6 603d d121 05bd b2ba f2bc
00000260: d88f 743c cbfe 4bbd e656 e1bc 5c57 bdbc
00000270: bc61 603d 59fe 08bd 3145 063d 9a1f 67bd
00000280: e88a a33c 98fb 56bd f699 e1bc 20bc 3c3d
00000290: 8c65 71bd 0047 53bd 9cd8 3cbd 7fc6 023d
000002a0: 4ca8 d8bc b041 3f3d f1f8 1ebd d1f6 02bd
000002b0: 65f4 383d ac62 69bd f7b0 153d ab3d 15bd
000002c0: c2f0 03bd 7d99 50bc 7be3 903d 0a6e 3e3d
000002d0: ff7b a33c 6a1e c13c d6dc 51bd bb5a 2bbd
000002e0: 931f 4f3d bc13 273b 2e57 27bd d98e ed3c
000002f0: 2367 efbc 5077 753d fe92 3a3d 31fe f1bc
00000300: aa5e cebc fb2c 68bb f5cf 18bd 0b22 f3bc
00000310: b637 6bbb af80 013d a9c9 48bd 2e61 683d
00000320: 239a 343d 3df6 0f3d de8e 51bc 1717 5cbd
00000330: a196 babc eca8 2c3d ad17 97bc 04e5 e43c
00000340: 7c82 d2bb 5696 2e3d 637e 383d 5e03 493c
00000350: 17e3 113d 656a 643d 39fe 9fbb cd0a 1ebc
00000360: de12 3ebd 33d9 84bc 2399 efbc cfb6 043d
00000370: 4bee 35bd fae0 153c 3214 c7bc f347 88bc
00000380: 7960 4b3d b04a 72bd 6267 b5bc 0d0d 4cbd
00000390: bf5b 5f3d 66a7 0b3d 9b12 9cbb a792 f13c
000003a0: c10f 6abd 70d0 3eba 188a f13b baca 1fbd
000003b0: 62b9 a1bc 539a 643d b588 3e3d 1c6f 883b
000003c0: 1d95 873d 8d21 e6bc 5eb6 013d 655c b9bb
000003d0: af1c b03c 98a8 56bc bba1 c43c 4896 e4bc
000003e0: 38df 253d db81 d8bc 26f5 9a3c 2488 ac3c
000003f0: ce1d 2c3d 277a c13c 5c2f 28bd 90bb 68bc
-0.05479138 0.018526347 0.011227511 -0.020738117 -0.013839064 -0.010339449 -0.05525398 0.005392317
0.03290434 -0.01407255 -0.025344782 0.038822103 0.0042181504 0.06492531 0.05482757 0.049898893
-0.03984085 -0.024560913 -0.013850211 -0.02253803 -0.054734062 -0.028382046 0.05155025 0.026390936
0.025380194 0.05952894 -0.020582056 -0.031258572 -0.05474422 -0.032911226 0.046460107 -0.021494266
-0.02997992 0.028611245 0.016589435 0.024412991 0.01357895 0.038874757 0.025608093 -0.023123922
-0.04980384 -0.0190381 0.03493922 0.022121433 -0.027373658 0.002044049 -0.0068817176 0.048810896
-0.05100941 0.016130859 0.030813742 -0.04166063 0.041081324 0.0102837905 0.050958395 -0.050765213
0.010806498 0.02838326 0.009864195 0.04474297 0.023806162 0.027197545 0.013818085 0.013855707
-0.04450653 0.07184958 0.057616353 -0.041728906 0.0383449 0.031727448 0.044096194 -0.0033922815
0.03416452 0.004378402 -0.048657563 0.032411605 0.0066955686 -0.040989876 -0.02503853 0.048979793
0.028158287 -0.03794791 0.0046661696 -0.045775887 -0.001672666 0.048946995 -0.036601596 0.046870925
-0.009645239 -0.036704864 -0.054214824 -1.6661725e-05 0.012701451 -0.0105198985 0.014298453 0.042550933
0.01583229 -0.038878758 -0.01865291 -0.030724207 -0.011938722 -0.011505777 0.06662824 0.03960231
0.05309821 0.056290314 0.05617618 -0.038451087 0.047537487 -0.051427316 -0.019528478 -0.016589906
-0.013251406 -0.00042724662 0.026734196 0.053519428 -0.044139482 0.014332004 -0.043683685 0.002436846
-0.03416442 -0.013875632 0.040782396 0.05403224 -0.026532022 0.053586956 0.02748703 0.032225337
0.02873992 0.03616577 -0.019872079 -0.014927039 0.01651761 -0.02304587 -0.022152012 -0.001553352
-0.051465996 0.044986032 0.011123346 0.06484193 -0.03777655 0.0014255813 0.00144935 -0.034122534
0.0036909254 0.01566844 0.053697824 -0.008555861 0.020688137 0.054846246 -0.032502953 -0.029630039
0.014926873 -0.049803536 -0.027507257 -0.023112945 0.054780707 -0.03344569 0.03278083 -0.056426622
0.019963697 -0.052486032 -0.027539235 0.046077847 -0.058934733 -0.051581383 -0.046105012 0.031927582
-0.026447438 0.046693504 -0.038811628 -0.031973664 0.045154948 -0.056978866 0.03654572 -0.036435764
-0.032212026 -0.012731907 0.070746385 0.04649166 0.019956587 0.023574073 -0.051235996 -0.041834574
0.05056722 0.002549394 -0.040854625 0.02899878 -0.029223984 0.05992824 0.04555034 -0.029540153
-0.025191624 -0.00354272 -0.0373077 -0.029679319 -0.003589136 0.031616863 -0.049020443 0.056733303
0.04409231 0.03514694 -0.01279041 -0.053732958 -0.022776904 0.042153284 -0.018443907 0.027941234
-0.0064242464 0.04262384 0.045042407 0.012268869 0.03561696 0.05576553 -0.0048826006 -0.00964613
-0.046404712 -0.01621685 -0.029247826 0.032400902 -0.044416707 0.009147877 -0.024301622 -0.01663587
0.04965255 -0.05915326 -0.022144023 -0.049817134 0.054530855 0.03409519 -0.00476296 0.029488875
-0.05714393 -0.00072789844 0.0073711984 -0.039011694 -0.019741718 0.055811238 0.046517093 0.004163636
0.06620238 -0.02809217 0.03166806 -0.0056567662 0.021498052 -0.013101719 0.0240029 -0.027903691
0.04049608 -0.026429107 0.018915724 0.02106101 0.04202061 0.023617817 -0.04106079 -0.014204875
