results/7DoF-7R-Panda/ResMLP_7DoF-7R-Panda_layers_1_neurons_256_batch_250000_Adam_l2_1_qlim_scale_10_samples_1000000/epoch_80.pth (torch, 304441 bytes, 20 tensors)

blocks.block0.fc1.weight f4 [256, 6]
0	0x3db27e71	0.08715523
1	0x3deb7869	0.11497576
2	0xbea0547a	-0.3131445
3	0xbeb2438f	-0.34817168
4	0xbe070f2d	-0.13189383
5	0x3c8813d7	0.016611023
6	0xba1bdf34	-0.00059460406
7	0x3e960697	0.29301903
8	0xbd68858b	-0.05676798
9	0x3e12fc74	0.14354116
10	0xbd9b0678	-0.07569593
11	0xbdde453a	-0.10853048
12	0xbecac930	-0.3960662
13	0xbe901a15	-0.281449
14	0xbe3648f2	-0.17801264
15	0x3d061e26	0.032743596
16	0x3e16dfda	0.1473383
17	0x3e6db4af	0.23213457
18	0xbdced537	-0.10099261
19	0xbe5ab3ca	-0.21357647
20	0x3e37a9eb	0.17935912
21	0x3eb85a87	0.36006567
22	0x3b672b08	0.0035273451
23	0x3eb607f1	0.35552934
24	0xbd7f6b6c	-0.062358305
25	0x3dc2dd91	0.09514917
26	0x3ebce105	0.36890426
27	0xbec88e41	-0.3917103
28	0xbe456674	-0.19277364
29	0xbddbbb18	-0.10729045
30	0xbdf92f43	-0.121672176
31	0x3e9c0e39	0.304796
32	0xbe1fe62b	-0.15615146
33	0xbe34dcef	-0.17662404
34	0xbe8443be	-0.25832933
35	0xbef30d23	-0.4747096
36	0xbe624461	-0.22096397
37	0x3eb84fa1	0.35998252
38	0x3dcbc35b	0.099493705
39	0x3e67d7f6	0.22640976
40	0x3cf86dd4	0.030325808
41	0xbe5d490f	-0.21609901
42	0x3dc401e2	0.095706716
43	0xbea84afd	-0.32869712
44	0xbe3d186c	-0.18466347
45	0xbe80ad80	-0.2513237
46	0x3e3377ec	0.17526215
47	0x3ebc9ce0	0.36838436
48	0xbdd4c4d6	-0.10389106
49	0x3cfd91ea	0.030953366
50	0x3e630f22	0.22173741
51	0x3efdb4aa	0.49551898
52	0x3e243bde	0.16038463
53	0x3d8056ee	0.062665805
54	0x3e89dc4e	0.26925892
55	0xbe61eb81	-0.22062494
56	0x3de1f4d7	0.110330276
57	0xbe988c5a	-0.2979458
58	0xbe902c78	-0.28158927
59	0xbe92b422	-0.28653055
60	0x3e261c39	0.16221704
61	0x3e495715	0.19662125
62	0xbe48e94c	-0.19620246
63	0x3e026f0f	0.12737678
64	0x3e719dcc	0.23595351
65	0xbdd8c145	-0.10583738
66	0x3d83ae52	0.06429733
67	0x3d95fd7e	0.073237404
68	0x3e726f16	0.23675188
69	0x3ed2d5a1	0.4117861
70	0xbea3d8d2	-0.32001358
71	0xbe1384bd	-0.14406104
72	0x3dc5af8c	0.096526235
73	0x3e8c3311	0.2738271
74	0x3e9f6cfb	0.31137833
75	0x3ec5130a	0.38491088
76	0x3d9f7818	0.07786578
77	0xbed280ee	-0.4111399
78	0x3db0c1dd	0.086307265
79	0xbe855534	-0.26041567
80	0xbec1b00e	-0.37829632
81	0x3ec554b1	0.38541177
82	0x3e9d8b03	0.3077012
83	0xbec43d6e	-0.38328117
84	0x3df6753a	0.12034078
85	0xbadecca2	-0.0016998241
86	0xbe03d177	-0.12872873
87	0xbe1e6e51	-0.1547177
88	0x3e1178a4	0.14206177
89	0xbe77d171	-0.2420099
90	0x3d9dc6eb	0.07703956
91	0x3e8821b0	0.26588202
92	0x3e9a36bd	0.30119887
93	0x3df7abe7	0.12093335
94	0xbe94a763	-0.29033956
95	0xbea83b9a	-0.32857972
96	0x3e426e18	0.1898731
97	0x3d9ffa18	0.078113735
98	0xbea23e74	-0.31688273
99	0xbe81147b	-0.25210938
100	0x3eb34fc2	0.35021788
101	0x3ea7531c	0.32680595
102	0xbdb2fd5e	-0.08739732
103	0xbe009f58	-0.12560785
104	0xbee82b32	-0.45345455
105	0xbb9e5986	-0.0048324494
106	0xbe938ff4	-0.28820765
107	0xbe8dacf8	-0.27671027
108	0xbcafe491	-0.021471294
109	0x3c42f680	0.0118995905
110	0xbdd5c78a	-0.1043845
111	0x3e86ee83	0.26353845
112	0xbe694a78	-0.22782314
113	0x3ec29bde	0.38009542
114	0x3e88a1d3	0.26685962
115	0xbeadae42	-0.3392201
116	0xbe197c9f	-0.14988945
117	0x3c4deda1	0.012568862
118	0x3d444ab1	0.047922794
119	0x3dd2480d	0.10267649
120	0x3e1af605	0.15132912
121	0x3c9e1c4b	0.0193006
122	0xbe71de0b	-0.23619859
123	0x3e3f26fc	0.18667215
124	0xbe8f03aa	-0.27932483
125	0xbe8df1d4	-0.27723563
126	0xbd88d122	-0.06680514
127	0xbe3d24a9	-0.18471016
128	0xbd92e087	-0.071717314
129	0xbeb9f48c	-0.36319387
130	0xbe051462	-0.12996057
131	0x3da7ab8e	0.08187018
132	0xbdce7fe6	-0.100829884
133	0xbce93926	-0.028469633
134	0x3ec861bc	0.39137065
135	0xbc5f84ac	-0.013642471
136	0xbd53a158	-0.05166754
137	0xbd329e8c	-0.043608233
138	0x3d884113	0.06653037
139	0x3e58e2b7	0.21180235
140	0x3ec79801	0.38983157
141	0x3e891547	0.26774046
142	0x3ecb5524	0.39713395
143	0x3d0ec6c2	0.03485752
144	0xbeb20821	-0.34771827
145	0xbe0a9399	-0.13532867
146	0x3e74b0bc	0.23895544
147	0xba9870b2	-0.0011630266
148	0xbe5ea115	-0.21741135
149	0xbeb21be4	-0.34786904
150	0xbed5b2f8	-0.41738105
151	0xbebfac8a	-0.37436324
152	0xbdeaf506	-0.11472516
153	0x3e3589a5	0.17728288
154	0x3e2d4f02	0.1692467
155	0xbedc27cb	-0.4299911
156	0x3e4d9f5c	0.20080322
157	0xbe9ddcaf	-0.3083243
158	0xbdc3b568	-0.09556085
159	0xbe2d8911	-0.16946818
160	0xbdc04e42	-0.093899265
161	0xbddedc69	-0.10881884
162	0xbecb24a6	-0.39676398
163	0xbed0afeb	-0.40759215
164	0xbd91a900	-0.07112312
165	0xbc518cc5	-0.01278991
166	0xbe0ad81e	-0.13559005
167	0x3dea2989	0.114337035
168	0xbec2983d	-0.38006774
169	0xbd5d5ede	-0.05404555
170	0x3ec0fc60	0.37692547
171	0xbe175bcf	-0.14781116
172	0x3eafa8bc	0.34308422
173	0x3e271cf9	0.16319646
174	0xbec08cca	-0.37607414
175	0x3e133f78	0.1437968
176	0x3cc232af	0.023705808
177	0xbe895702	-0.26824194
178	0x3e92378f	0.28558013
179	0xbeb9b2dc	-0.3626927
180	0x3d17c1aa	0.037049927
181	0xbda7328f	-0.0816394
182	0x3ebff504	0.3749162
183	0x3ce4e73b	0.02794229
184	0x3e13c526	0.14430675
185	0x3daabaf8	0.08336443
186	0xbdd55adf	-0.10417723
187	0xbd08a371	-0.033358995
188	0xbeb27d1c	-0.34861076
189	0x3e689bfc	0.22715753
190	0x3eb48ebd	0.3526515
191	0x3e8ac7cf	0.27105567
192	0xbe7b2c23	-0.24528556
193	0x3de03899	0.10948295
194	0xbe9a54ee	-0.3014292
195	0xbe4e8211	-0.20166804
196	0xbe738723	-0.2378202
197	0x3e1ee990	0.15518785
198	0xbe32a42d	-0.1744544
199	0x3d0ab446	0.03386333
200	0x3d4dc90e	0.05024057
201	0x3ea58f92	0.32336098
202	0xbe9833c7	-0.29727003
203	0xbe82b1a8	-0.25526166
204	0xbe33158f	-0.17488693
205	0x3e3fca0a	0.18729416
206	0xbe8e09db	-0.27741894
207	0x3ec99388	0.3937037
208	0x3e1f864a	0.15578571
209	0x3d51b127	0.051194336
210	0xba966840	-0.0011475161
211	0xbd817faf	-0.06323182
212	0x3d10771e	0.03526985
213	0xbddbde72	-0.107357875
214	0x3c8ddc57	0.01731698
215	0x3d76ec83	0.06028415
216	0xbe4690f5	-0.19391234
217	0xbea13e30	-0.31492758
218	0x3e8b7ad5	0.2724215
219	0xbeacf49c	-0.33780372
220	0xbd65675d	-0.056006778
221	0x3edfcdb4	0.43711627
222	0x3df7ad97	0.120936565
223	0x3c7f68a2	0.015588911
224	0xbea19c36	-0.31564492
225	0x3e663e4f	0.22484706
226	0xbe848d2c	-0.25888956
227	0xbe42b04a	-0.19012561
228	0x3c5f86a1	0.013642938
229	0xbda901ae	-0.082522735
230	0x3d6788dd	0.056527007
231	0x3ead7c0b	0.338837
232	0x3d961bea	0.07329543
233	0x3eba0cb2	0.3633781
234	0x3e6c6b79	0.23087873
235	0xbe1627f4	-0.14663678
236	0x3e4998d2	0.19687203
237	0xbea2033a	-0.31643087
238	0xbe23a8e8	-0.15982401
239	0x3e01ac60	0.12663412
240	0x3e40f4fd	0.18843456
241	0x3e89f975	0.26948133
242	0xbda7a6be	-0.081861004
243	0x3b8d2e31	0.004308485
244	0x3e626a45	0.22110851
245	0xbed69307	-0.41909048
246	0x3e9bc346	0.3042242
247	0xbeab6e02	-0.33482367
248	0x3b9a3815	0.0047063925
249	0xbd8746fc	-0.06605336
250	0xbe2d6e24	-0.16936547
251	0x3d8592cf	0.06522142
252	0x3ea45701	0.3209763
253	0xbd4413d4	-0.047870472
254	0xbe6342c6	-0.22193441
255	0xbe274329	-0.16334213

blocks.block0.fc1.bias f4 [256]
0	0xbe06568a	-0.1311895
1	0x3e0f6732	0.1400421
2	0x3e36daa9	0.1785685
3	0xbc4fa0c6	-0.012672609
4	0x3ecbd5cf	0.3981156
5	0xbe8e0fae	-0.27746338
6	0x3e237950	0.15964246
7	0x3ebe9f3c	0.3723086
8	0xbd84d3c2	-0.06485702
9	0x3ea842bf	0.32863423
10	0x3c82e1df	0.015976844
11	0xbe9ac1a4	-0.3022586
12	0xbe62f33e	-0.22163102
13	0x3e17f891	0.14840914
14	0xbe2f217e	-0.1710262
15	0x3dcd0823	0.100113176
16	0x3ed326f5	0.4124066
17	0x3e272e04	0.16326147
18	0xbd040133	-0.032227706
19	0x3dcba127	0.09942847
20	0xbe657212	-0.22406796
21	0xbeae5f3b	-0.3405703
22	0xbe9c1a98	-0.3048904
23	0xbeaadeda	-0.33373147
24	0x3db3d572	0.08780946
25	0x3db2679e	0.0871117
26	0xbe52b5c3	-0.20577149
27	0xbecc5ae9	-0.3991311
28	0x3e6374a1	0.22212459
29	0xbe6250ce	-0.22101137
30	0xbd85f110	-0.0654012
31	0xbeb0cce9	-0.34531334
32	0xbe80ab15	-0.25130525
33	0x3e30824b	0.17237203
34	0xbec1daf2	-0.37862355
35	0xbe6bd21b	-0.23029368
36	0x3e99f3ad	0.30068722
37	0xbe4dff74	-0.20116979
38	0xbe37e110	-0.17956948
39	0xbdf29e75	-0.118466295
40	0x3e30c75f	0.17263554
41	0xbe93052c	-0.28714883
42	0x3d23f91f	0.040032502
43	0x3e27b6f9	0.16378392
44	0xbcde3656	-0.027125519
45	0x3d98b817	0.07456987
46	0xbe9bfbf2	-0.30465657
47	0x3e44a731	0.19204403
48	0x3e1034ce	0.14082643
49	0xbd43ff3a	-0.047850825
50	0xbeaf5285	-0.34242645
51	0x3e37186e	0.17880413
52	0x3e8aee59	0.2713497
53	0xbd9eb6d1	-0.07749713
54	0x3e506e28	0.20354521
55	0x3e1df925	0.15427072
56	0xbe23b2a5	-0.15986116
57	0xbd21441e	-0.039371602
58	0x3ec40e0c	0.38291967
59	0x3bde9002	0.0067920694
60	0xbea576f7	-0.32317325
61	0xbce1f789	-0.027583854
62	0x3e4e1cde	0.201282
63	0xbe012aa7	-0.12613927
64	0xbe5d9c81	-0.21641733
65	0x3eadd2c4	0.33949864
66	0x3e6e911e	0.23297545
67	0xbd7db6df	-0.061941978
68	0x3c8f71de	0.01751035
69	0xbd3dda4c	-0.046350762
70	0x3dc3db58	0.09563321
71	0x3cab3c41	0.020902755
72	0xbe77a88f	-0.24185394
73	0x3d94649b	0.072457515
74	0x3c189484	0.009312753
75	0x3c89dbe5	0.016828487
76	0xbe158e18	-0.14604986
77	0x3dd72763	0.10505559
78	0xbea76b7b	-0.3269919
79	0x3df56a28	0.11983138
80	0x3e6381bd	0.2221746
81	0xbd1e11ed	-0.038591314
82	0xbe9f1f1b	-0.3107842
83	0xbbdb6441	-0.006695301
84	0x3c996939	0.018726932
85	0xbeaf80f8	-0.34278083
86	0xbe8f4597	-0.2798278
87	0x3ec2f549	0.38077763
88	0x3e9fae73	0.31187782
89	0x3e5bba69	0.21457829
90	0x3e914b63	0.28377828
91	0x3e1e217e	0.15442464
92	0x3e5ed303	0.21760182
93	0x3e8fa273	0.28053626
94	0xbdc56de6	-0.09640102
95	0xbd4cd423	-0.050006997
96	0x3e8ec2b2	0.27882916
97	0x3c292302	0.010323288
98	0xbe8763dc	-0.26443374
99	0xbea50111	-0.32227376
100	0x3e61f727	0.22066937
101	0x3eb07b57	0.344691
102	0x3e9aea71	0.3025699
103	0x3d6e4cd0	0.058178723
104	0x3e965a1d	0.29365626
105	0xbebce792	-0.36895424
106	0xbe9bf3d5	-0.30459467
107	0xbecbbadb	-0.39790997
108	0x3ea8f72c	0.33001077
109	0xbba54498	-0.0050435774
110	0xbe4338f8	-0.190647
111	0x3e06352e	0.13106224
112	0xbe28bef2	-0.1647909
113	0xbe8a916b	-0.2706407
114	0x3e1f9c1e	0.15586898
115	0x3d9f6236	0.07782404
116	0xbe9a6730	-0.3015685
117	0xbe8d1770	-0.27556944
118	0x3e30e6bf	0.17275523
119	0x3e9c30c6	0.3050596
120	0x3ccd54ae	0.025064792
121	0xbe4ec441	-0.20192052
122	0x3e5325cc	0.20619887
123	0x3d9b3de3	0.07580163
124	0xbeba0aa3	-0.3633624
125	0xbe857c93	-0.26071605
126	0x3db07caf	0.086175315
127	0x3e7ebcbd	0.24876685
128	0xbe0e6e77	-0.13909326
129	0x3e503e49	0.2033626
130	0xbe8d9046	-0.27649134
131	0x3eda5abc	0.4264735
132	0x3e903255	0.281634
133	0x3d98cd8f	0.07461082
134	0x3e305ead	0.17223616
135	0x3e102f85	0.14080627
136	0xbe7205bd	-0.23635001
137	0xbc1e9d2a	-0.0096810255
138	0x3dca0c2a	0.09865601
139	0xbdce1488	-0.1006251
140	0x3ec81a3b	0.39082512
141	0xbe26dd37	-0.16295324
142	0xbeba7920	-0.36420536
143	0xbe4281bf	-0.18994807
144	0xbec352a2	-0.3814898
145	0x3ea7765b	0.32707486
146	0xbe337206	-0.17523965
147	0xbe935d7a	-0.28782254
148	0xbd400443	-0.046879064
149	0xbe8c20a0	-0.2736864
150	0xbe6464fd	-0.22304149
151	0x3e5e0173	0.2168024
152	0xbe9bfa78	-0.3046453
153	0x3e4066ab	0.18789165
154	0x3e9a9192	0.30189186
155	0x3b79c236	0.0038110144
156	0x3e380b2b	0.1797301
157	0xbe7c22d9	-0.24622668
158	0x3ea2c147	0.31788084
159	0x3ed2224e	0.41041797
160	0x3db11d65	0.08648185
161	0x3ebcabac	0.36849725
162	0xbece76ca	-0.40325004
163	0xbd0550de	-0.032547824
164	0x3da3b3a6	0.079932496
165	0xbeb5e777	-0.35528156
166	0x3e4d93b4	0.20075876
167	0xbe1aba2c	-0.15110081
168	0xbe11c71b	-0.14236109
169	0xbea422df	-0.32057855
170	0x3e2bdc17	0.16783176
171	0xbe95be99	-0.29246977
172	0xbda8384a	-0.08213861
173	0x3e39a313	0.18128614
174	0x3e97ce15	0.29649416
175	0x3da9c652	0.0828978
176	0xbe1529a0	-0.1456666
177	0xbe352976	-0.17691597
178	0x3e7ad6e0	0.24496031
179	0x3d9479a7	0.07249766
180	0x3eacfbfc	0.33786
181	0x3e1c97c4	0.15292269
182	0x3ea7b719	0.3275688
183	0xbea878bd	-0.32904616
184	0x3eaba4c5	0.33524147
185	0xbe42e38d	-0.19032116
186	0xbde1e2f3	-0.11029615
187	0xbb8f8fd9	-0.0043811616
188	0xbd9c9257	-0.076450996
189	0x3d9db1a2	0.076998964
190	0x3ebeb5e2	0.3724814
191	0xbe7930ab	-0.24334972
192	0x3dfef46b	0.12448963
193	0xbeac5b70	-0.3366351
194	0x3d95b379	0.07309622
195	0x3ead22a5	0.33815494
196	0x3e8edb93	0.27901897
197	0x3eb232ef	0.34804484
198	0x3e5b4349	0.21412386
199	0xbd0804e8	-0.033207804
200	0x3dd0c6f3	0.101941966
201	0xbe27f516	-0.16402087
202	0x3eb1715e	0.34656805
203	0x3e309dd5	0.17247708
204	0xbe990772	-0.29888493
205	0x3eb2095f	0.34772775
206	0xbc0eeda8	-0.008723654
207	0xbc5948d3	-0.013261992
208	0xbde69f59	-0.11260862
209	0xbdddb710	-0.10825932
210	0x3cc81556	0.024424236
211	0xbe5706b1	-0.20998646
212	0xbec32b2f	-0.38118884
213	0xbe52b7eb	-0.20577972
214	0xbdafedc3	-0.08590271
215	0x3ea06116	0.3132407
216	0x3e93be46	0.28856105
217	0xbe7a18df	-0.2442355
218	0xbce39718	-0.027782008
219	0xbdfc8543	-0.12330105
220	0xbe64726b	-0.22309272
221	0xbcf044b4	-0.029329635
222	0xbe0bd428	-0.1365515
223	0x3e64d14d	0.22345467
224	0xbe474b0d	-0.19462223
225	0x3d7ba0cb	0.06143264
226	0xbe68efb0	-0.22747684
227	0xbe04d85a	-0.12973157
228	0x3ea3b894	0.3197676
229	0xbe516d52	-0.20451859
230	0xbce8ccd3	-0.02841798
231	0x3ebbedcc	0.36704862
232	0x3e0f1011	0.13970973
233	0xbe5d02b7	-0.21583067
234	0xbe74ceb4	-0.23906976
235	0xbe138ddb	-0.14409582
236	0xbdf949cf	-0.12172281
237	0x3e37d224	0.17951256
238	0xbdbbbead	-0.09167228
239	0x3eb1d815	0.3473517
240	0xbe5c638b	-0.21522348
241	0xbe08fa2b	-0.13376682
242	0x3e162eb2	0.1466625
243	0x3ea7ac5e	0.32748693
244	0x3ecfab79	0.4056051
245	0x3d831037	0.06399577
246	0x3cb0d2d2	0.021584902
247	0xbe36e1c0	-0.17859554
248	0x3e6a1d64	0.22862774
249	0xbe771190	-0.24127793
250	0xbddfad01	-0.1092167
251	0xbeb02f8a	-0.3441127
252	0xbec5b223	-0.3861247
253	0x3e77f3ee	0.24214146
254	0x3d03eed3	0.032210182
255	0x3ead9525	0.3390285

blocks.block0.bn1.weight f4 [256]
0	0x3f828b0c	1.0198684
1	0x3f817020	1.0112343
2	0x3f7d6435	0.9898103
3	0x3f8529d6	1.0403392
4	0x3f7ed166	0.99538267
5	0x3f7f1e06	0.9965519
6	0x3f78a261	0.9712277
7	0x3f7f5fa7	0.9975533
8	0x3f806c16	1.0032985
9	0x3f7b0cfd	0.98066694
10	0x3f7f7fa0	0.99804115
11	0x3f7ce0d6	0.9878057
12	0x3f8434ea	1.0328648
13	0x3f7fd085	0.9992755
14	0x3f808857	1.0041608
15	0x3f76bc52	0.96381104
16	0x3f7c8399	0.986383
17	0x3f7f1f04	0.996567
18	0x3f7e0ab4	0.9923508
19	0x3f715064	0.9426329
20	0x3f7d2a38	0.98892546
21	0x3f7efbaf	0.9960279
22	0x3f84e296	1.0381649
23	0x3f78d416	0.9719862
24	0x3f8049d3	1.0022529
25	0x3f86d348	1.0533228
26	0x3f747164	0.9548552
27	0x3f7e690e	0.9937905
28	0x3f782b59	0.96941143
29	0x3f825e10	1.0184956
30	0x3f7d3a8e	0.9891747
31	0x3f732e5e	0.94992626
32	0x3f72b521	0.9480763
33	0x3f76212e	0.9614438
34	0x3f811d03	1.0086979
35	0x3f845e54	1.0341287
36	0x3f853ded	1.0409523
37	0x3f811ad2	1.008631
38	0x3f8525a2	1.040211
39	0x3f7b7845	0.9823039
40	0x3f845e2c	1.0341239
41	0x3f6abdc6	0.9169582
42	0x3f7cd738	0.987659
43	0x3f808674	1.0041032
44	0x3f6d1f22	0.9262563
45	0x3f7f67c9	0.9976774
46	0x3f803402	1.0015872
47	0x3f7afe88	0.98044634
48	0x3f810317	1.0079068
49	0x3f81d3eb	1.0142797
50	0x3f84391b	1.0329927
51	0x3f75e8e8	0.9605851
52	0x3f7ed63e	0.9954566
53	0x3f6beb3e	0.92155826
54	0x3f7861a2	0.97023976
55	0x3f71d181	0.944603
56	0x3f749760	0.9554348
57	0x3f85d48a	1.0455487
58	0x3f80c9ad	1.0061547
59	0x3f74c925	0.9561942
60	0x3f7f5714	0.99742246
61	0x3f7b53d7	0.98174804
62	0x3f7c39dd	0.9852579
63	0x3f7ffbe0	0.99993706
64	0x3f80789a	1.0036805
65	0x3f7ea74f	0.9947404
66	0x3f7c3dba	0.9853169
67	0x3f7da6de	0.99082744
68	0x3f73f395	0.9529355
69	0x3f850bb2	1.0394194
70	0x3f7c155e	0.98470104
71	0x3f813199	1.0093261
72	0x3f8405cd	1.031427
73	0x3f7d60e8	0.9897599
74	0x3f81ba55	1.0134989
75	0x3f7d06d1	0.98838526
76	0x3f798dc3	0.97481936
77	0x3f82ab3d	1.0208508
78	0x3f8074b2	1.0035613
79	0x3f7e926b	0.99442166
80	0x3f81957e	1.0123746
81	0x3f771b96	0.9652647
82	0x3f7f7db4	0.9980118
83	0x3f828e76	1.0199726
84	0x3f7d5bcd	0.989682
85	0x3f8120b4	1.0088105
86	0x3f83f249	1.0308315
87	0x3f7f38bc	0.99695945
88	0x3f77be00	0.9677429
89	0x3f723015	0.9460462
90	0x3f81cdbf	1.0140914
91	0x3f7c1d77	0.9848246
92	0x3f8227c0	1.0168381
93	0x3f7e8247	0.9941754
94	0x3f714518	0.94246054
95	0x3f81d3da	1.0142777
96	0x3f83af90	1.0287952
97	0x3f80f289	1.0074016
98	0x3f81f4c0	1.0152817
99	0x3f82880e	1.019777
100	0x3f7d1729	0.98863465
101	0x3f814f11	1.0102254
102	0x3f8029bc	1.0012736
103	0x3f80f531	1.0074826
104	0x3f7583d3	0.9590427
105	0x3f782d89	0.9694448
106	0x3f791476	0.97296846
107	0x3f76bee5	0.9638503
108	0x3f7c4326	0.9853996
109	0x3f806b60	1.0032768
110	0x3f81e91d	1.0149266
111	0x3f832ffe	1.0249021
112	0x3f7de46a	0.9917666
113	0x3f79ffe6	0.97656095
114	0x3f8290bf	1.0200423
115	0x3f7df67e	0.9920424
116	0x3f7470e7	0.95484775
117	0x3f7ac2ce	0.979535
118	0x3f7be991	0.9840327
119	0x3f7bbcd7	0.9833502
120	0x3f7a6183	0.9780504
121	0x3f82685c	1.0188098
122	0x3f814c4e	1.0101411
123	0x3f7b9385	0.9827197
124	0x3f7b1b29	0.9808832
125	0x3f8312b9	1.0240089
126	0x3f82ae0a	1.0209363
127	0x3f79caa3	0.97574824
128	0x3f7b6f0c	0.9821632
129	0x3f7e0215	0.99221927
130	0x3f6a334c	0.9148452
131	0x3f78ac97	0.9713835
132	0x3f84a601	1.036316
133	0x3f7fdad5	0.99943286
134	0x3f82426e	1.0176523
135	0x3f8179fc	1.0115352
136	0x3f78012a	0.96876776
137	0x3f78c414	0.9717419
138	0x3f80ae1a	1.0053132
139	0x3f791dec	0.9731128
140	0x3f78917c	0.9709699
141	0x3f8ad012	1.0844748
142	0x3f8245bb	1.017753
143	0x3f7ad926	0.9798759
144	0x3f7a8485	0.9785846
145	0x3f8c1149	1.0942775
146	0x3f7fd45d	0.99933416
147	0x3f7bf638	0.98422575
148	0x3f82702f	1.0190486
149	0x3f80cc3c	1.0062327
150	0x3f81e4ae	1.0147913
151	0x3f7601dc	0.9609659
152	0x3f7c416d	0.9853733
153	0x3f82b250	1.0210667
154	0x3f763bc9	0.96184975
155	0x3f7a3ef4	0.9775231
156	0x3f868d51	1.0511876
157	0x3f77fd28	0.9687066
158	0x3f83d87b	1.030044
159	0x3f784d71	0.96993166
160	0x3f7b46e3	0.9815504
161	0x3f7d7365	0.99004203
162	0x3f7efaf7	0.9960169
163	0x3f84c8fb	1.0373834
164	0x3f81c0b4	1.0136933
165	0x3f6e6fbe	0.93139255
166	0x3f7c69be	0.9859885
167	0x3f7f30ec	0.99684024
168	0x3f81d38e	1.0142686
169	0x3f7da9cf	0.9908723
170	0x3f751a18	0.9574294
171	0x3f6fceac	0.9367473
172	0x3f810090	1.0078297
173	0x3f804716	1.0021694
174	0x3f8181d0	1.0117741
175	0x3f7e0910	0.9923258
176	0x3f7c0162	0.9843961
177	0x3f804f28	1.0024157
178	0x3f7b40c1	0.9814568
179	0x3f77efb7	0.9685015
180	0x3f816656	1.0109355
181	0x3f84affe	1.0366209
182	0x3f8203c9	1.0157405
183	0x3f803474	1.0016007
184	0x3f84eb7a	1.0384362
185	0x3f7be431	0.9839507
186	0x3f79adda	0.975309
187	0x3f7cbea9	0.98728424
188	0x3f7f346f	0.9968938
189	0x3f7c9c22	0.9867574
190	0x3f8467ca	1.0344174
191	0x3f82913d	1.0200573
192	0x3f818764	1.0119443
193	0x3f75e6d3	0.96055335
194	0x3f8219ec	1.0164161
195	0x3f7762c6	0.9663509
196	0x3f84542b	1.0338186
197	0x3f86fa95	1.0545222
198	0x3f80759f	1.0035895
199	0x3f821296	1.0161922
200	0x3f79425c	0.9736688
201	0x3f7f88ef	0.9981832
202	0x3f7ee150	0.9956255
203	0x3f85c9f3	1.0452255
204	0x3f8045be	1.0021284
205	0x3f829296	1.0200984
206	0x3f7f0742	0.9962045
207	0x3f84acf4	1.0365281
208	0x3f8336db	1.0251116
209	0x3f849bdf	1.0360068
210	0x3f7659ea	0.9623095
211	0x3f849e1a	1.0360749
212	0x3f74631e	0.9546374
213	0x3f81a29c	1.012775
214	0x3f7f9cb2	0.99848473
215	0x3f7e5fad	0.9936474
216	0x3f85354c	1.040689
217	0x3f80eb81	1.007187
218	0x3f7b5a61	0.9818478
219	0x3f7b5833	0.98181456
220	0x3f78abd6	0.971372
221	0x3f8e70b2	1.1128142
222	0x3f7b570a	0.98179686
223	0x3f81bd04	1.0135808
224	0x3f863f7b	1.0488123
225	0x3f7f1c89	0.99652916
226	0x3f810b97	1.0081662
227	0x3f75ce2e	0.9601773
228	0x3f7bd69d	0.9837435
229	0x3f872e8e	1.0561082
230	0x3f7e9775	0.99449855
231	0x3f8e3ff7	1.111327
232	0x3f76abf9	0.9635616
233	0x3f7d992d	0.9906185
234	0x3f81c5b7	1.0138463
235	0x3f785afe	0.97013843
236	0x3f7e5fba	0.9936482
237	0x3f82ca8d	1.0218064
238	0x3f7d524e	0.9895371
239	0x3f80889a	1.0041687
240	0x3f81cf84	1.0141454
241	0x3f80f058	1.0073347
242	0x3f805957	1.0027264
243	0x3f778bda	0.9669777
244	0x3f74afbe	0.9558066
245	0x3f869cf0	1.0516644
246	0x3f7ee0c3	0.9956171
247	0x3f7e7f48	0.99412966
248	0x3f817a4c	1.0115447
249	0x3f8036b3	1.0016693
250	0x3f746b17	0.95475906
251	0x3f826c17	1.0189236
252	0x3f80e785	1.0070654
253	0x3f76e065	0.9643615
254	0x3f850195	1.0391108
255	0x3f769d83	0.96334094

blocks.block0.bn1.bias f4 [256]
0	0x3e0a982e	0.13534614
1	0xbc02682a	-0.007959405
2	0xbd7d9795	-0.061912138
3	0xbe1f3c90	-0.15550447
4	0xbdc02e0c	-0.09383783
5	0xbb07f975	-0.0020748053
6	0xbb1c94cc	-0.00238924
7	0xbcdbc7a6	-0.026828598
8	0x3b64b18b	0.0034895863
9	0xbd807877	-0.06272977
10	0x3dd824d8	0.105539024
11	0xbb316d6d	-0.002707328
12	0x3e0a8afa	0.13529578
13	0xbd626de6	-0.05528059
14	0xbdf7834e	-0.12085591
15	0xbdc5e460	-0.096627
16	0xbda10353	-0.07861962
17	0x3d210f78	0.039321393
18	0xba9a3e2e	-0.0011767799
19	0x3d1b8623	0.03796972
20	0xbc6a4fe1	-0.014301271
21	0x3d0bdd2b	0.03414647
22	0xbe1c37b2	-0.15255621
23	0xbd82ced5	-0.06387106
24	0x3d8ef06e	0.06979452
25	0x3d732e9e	0.05937063
26	0xbe035831	-0.12826611
27	0x3bb87ea2	0.00563033
28	0xbcd0ad52	-0.02547327
29	0x3cf6c98f	0.030125408
30	0x3d590219	0.052980516
31	0x3c74e88e	0.0149480235
32	0xbe2802d9	-0.16407336
33	0x3cbfcedd	0.02341407
34	0xbd12c3c4	-0.035831228
35	0x3b7741ac	0.0037728352
36	0x3d704a82	0.058664806
37	0x3cca837c	0.0247209
38	0xbd8cde55	-0.06878344
39	0xbd1fe78f	-0.03903919
40	0xbe300f04	-0.17193228
41	0xbd4b3283	-0.04960872
42	0xbd82c58c	-0.06385335
43	0xbd07784d	-0.033073712
44	0xbe174cb8	-0.1477536
45	0xbd85e5a3	-0.0653794
46	0xbc40128a	-0.01172317
47	0x3a3f6a60	0.0007301923
48	0x3c5e13e1	0.013554544
49	0xbd882726	-0.06648092
50	0xbd5415c3	-0.051778566
51	0xbc069b5e	-0.008215753
52	0xbbf99c6f	-0.0076175253
53	0xbcea1838	-0.028576002
54	0xbd9523d4	-0.07282224
55	0xbce20fe0	-0.02759546
56	0x3d5bd2e4	0.053667918
57	0xbcd3beb5	-0.025847772
58	0xbd0e3101	-0.034714703
59	0xbd198ccf	-0.0374878
60	0x3d110dc6	0.035413526
61	0x3c244450	0.010026053
62	0xbd2f7131	-0.042832557
63	0xbc8001af	-0.015625803
64	0xbe10e22a	-0.14148775
65	0x3de4f7d3	0.11180081
66	0xbdc2d8ea	-0.09514029
67	0xbd2a09a7	-0.04151311
68	0xbdeee166	-0.11664085
69	0xbbfe1178	-0.0077535473
70	0xbd870410	-0.06592572
71	0xbdb3a62f	-0.087719314
72	0xbdad1c87	-0.08452707
73	0xbdbf7821	-0.09349085
74	0x3d2cf897	0.04222926
75	0xbc162610	-0.009164348
76	0x3d9b2e75	0.0757722
77	0xbe854e89	-0.2603648
78	0x3c4de4c2	0.012566747
79	0xbcbf2503	-0.023333078
80	0xbdf4c5c4	-0.11951783
81	0x3af6486f	0.0018789897
82	0xbc8b21d9	-0.016983913
83	0xbd22b879	-0.039726708
84	0xbce4fcc2	-0.027952556
85	0xba1f69a3	-0.000608111
86	0x3d0f22d4	0.034945324
87	0xbcf13864	-0.029445834
88	0xbe8239d1	-0.25434735
89	0xbcb68aa5	-0.022282908
90	0x3e020d26	0.12700328
91	0x3e0ce132	0.1375778
92	0xbcf3d2bb	-0.02976357
93	0x3d20d316	0.039263807
94	0xbcfbc888	-0.03073527
95	0x3df65b9f	0.12029194
96	0xbe04268c	-0.1290533
97	0xbb946694	-0.00452883
98	0xbc59e83e	-0.0133
99	0xbdc72f45	-0.09725813
100	0xbac88ad1	-0.001530016
101	0x3bd2dea1	0.006435231
102	0x3d266bc6	0.040630125
103	0xbcbc786c	-0.02300664
104	0xbb69ff4b	-0.0035705145
105	0x3d4d546b	0.050129335
106	0x3d5702ba	0.052492835
107	0x3d941c4b	0.07231959
108	0x3d909412	0.07059492
109	0xbcd0eff6	-0.025505047
110	0x3ceac228	0.028657034
111	0x3ca1049a	0.019655515
112	0xbdf45859	-0.119309135
113	0xbe0f6e34	-0.14006883
114	0xbb9b7e21	-0.0047452603
115	0xbe9015da	-0.2814167
116	0x3e117b0f	0.142071
117	0x3cf55b48	0.029950753
118	0x3d799e24	0.06094183
119	0xbd9a4411	-0.07532514
120	0x3c715457	0.014729581
121	0x3d55bec7	0.052183893
122	0xbc77803c	-0.015106257
123	0xbd10c379	-0.035342667
124	0xbc70d2f9	-0.014698737
125	0x3dd044ef	0.10169398
126	0xbcd60e40	-0.026129842
127	0x3d998205	0.074955024
128	0xbbd95b78	-0.0066332184
129	0x3b76fd4b	0.0037687595
130	0xbc99b499	-0.018762873
131	0x3d6f466b	0.058416765
132	0x3e11622b	0.14197604
133	0xbcb5958d	-0.022166038
134	0x3d9f9980	0.0779295
135	0x3d3a92b7	0.045550074
136	0x3c94f4cb	0.018183133
137	0xbbed8631	-0.007248663
138	0x3d05ee4f	0.032697972
139	0x3b4d32cd	0.0031310797
140	0xbd031832	-0.032005496
141	0x3d3fefc3	0.046859514
142	0x3d5ee027	0.054412987
143	0xbd0b12b0	-0.03395337
144	0x3d4302df	0.04761016
145	0x3e636dc2	0.22209838
146	0x3c2c65eb	0.010522346
147	0xbe1aece1	-0.15129425
148	0x3d51dcec	0.05123608
149	0xbc5ec716	-0.0135972705
150	0x3c5e9455	0.01358517
151	0xbd988036	-0.07446329
152	0xbd69687e	-0.056984417
153	0xbc7d1e56	-0.015449127
154	0xbd99b313	-0.07504859
155	0xbd4e88f9	-0.050423596
156	0x3ded4bd6	0.1158673
157	0xbcb3c6b7	-0.02194534
158	0x3c317b19	0.010832571
159	0xbe4752e0	-0.19465208
160	0xbdad9f0c	-0.084776014
161	0xbbf45e8a	-0.007457559
162	0xbdcb906f	-0.09939658
163	0xbd14d0fb	-0.03633211
164	0x3d089283	0.03334285
165	0xbd5fb4ea	-0.054615892
166	0xbddb80eb	-0.107179485
167	0x3d64bc68	0.05584374
168	0x3b0248ea	0.0019879886
169	0x3a40a1c5	0.0007348324
170	0x3ce05dcb	0.027388474
171	0xbce4bc70	-0.027921885
172	0xbba5524f	-0.0050452123
173	0x3c5f4cd8	0.013629161
174	0xbde35485	-0.11100105
175	0x3d0c5308	0.034258872
176	0xbd5755c7	-0.052572038
177	0x39b2c6ba	0.00034098868
178	0xbceb01fe	-0.028687473
179	0x3d0cf9a0	0.03441775
180	0x3d2c2bab	0.042033833
181	0xbe0fe4ac	-0.14052075
182	0x3c384b37	0.011248401
183	0x3da7f2ae	0.08200584
184	0xbd712356	-0.05887159
185	0xbd83688b	-0.06416424
186	0x3df01296	0.11722295
187	0xbdd25205	-0.1026955
188	0x3d76e89f	0.06028044
189	0x3da8f754	0.08250299
190	0xbd8a3284	-0.06747916
191	0x3e0b3570	0.13594604
192	0xbd0ee612	-0.03488738
193	0xbe0705b6	-0.13185772
194	0xbd15e7c8	-0.036597997
195	0xbcec35c1	-0.028834226
196	0xbde690c1	-0.11258078
197	0xbde5aacc	-0.112142175
198	0xbc3c4d62	-0.011493059
199	0xbd135e51	-0.03597862
200	0xbd7e364f	-0.06206351
201	0xbdad8fe4	-0.084747106
202	0xbd5cea96	-0.053934656
203	0xbc7f4394	-0.015580077
204	0x3a368181	0.00069620466
205	0xbc8b18d2	-0.016979609
206	0x3d1c3640	0.038137674
207	0xbcccd5be	-0.025004264
208	0x3c2ca327	0.010536945
209	0xbb9c466e	-0.004769138
210	0xbca54ab5	-0.020177225
211	0x3e2edf6c	0.17077416
212	0xbcc401ab	-0.023926577
213	0xbc7a268b	-0.015267978
214	0x3d6df998	0.05809936
215	0xbd807486	-0.06272225
216	0xbc9ab3af	-0.018884508
217	0xbd64e33b	-0.055880766
218	0xbcab5f39	-0.02091943
219	0xbd1fd480	-0.039021015
220	0xbdf14d2f	-0.117823
221	0xbe05078e	-0.12991163
222	0x3cbc7bf8	0.023008332
223	0xbd30155e	-0.042989127
224	0x3d284b37	0.041087355
225	0x3da86bdb	0.08223697
226	0xbd55598c	-0.05208735
227	0x3ca2302b	0.019798359
228	0xbbb8502e	-0.0056247925
229	0x3d27ef78	0.04099986
230	0x3cd77e87	0.02630545
231	0x3db393a6	0.08768396
232	0x3dbe6bbb	0.09297892
233	0xbd21dbcd	-0.03951626
234	0x3d362ab1	0.044474307
235	0x3d54c048	0.051941186
236	0x3c9e4899	0.019321727
237	0xbd3918e7	-0.045189764
238	0x3ce1989d	0.027538592
239	0x3d24af4e	0.040206246
240	0xbb16ca44	-0.0023008743
241	0x3c1ababf	0.009443938
242	0x3d4d616b	0.050141733
243	0xbd9526f9	-0.07282824
244	0x3d92d7da	0.07170077
245	0xbe4914f7	-0.19636904
246	0xbcfec9a9	-0.031102018
247	0xbbfcc9a7	-0.0077144685
248	0x3da94903	0.08265879
249	0xbccea9c0	-0.025227427
250	0xbd23c28b	-0.039980453
251	0x3d8a817c	0.067629784
252	0xbd54e9c4	-0.05198075
253	0xbd9e65f8	-0.07734293
254	0x3caa27ce	0.020770933
255	0x3c80c3b9	0.015718328

blocks.block0.bn1.running_mean f4 [256]
0	0xbed7752e	-0.42081589
1	0x3e757a62	0.23972467
2	0xbd31c57b	-0.043401223
3	0x3e8c8739	0.27446917
4	0x3e811bca	0.25216514
5	0xbf3765fd	-0.71639997
6	0x3e9a6bb1	0.30160287
7	0x3e9c1fbb	0.30492958
8	0x3ebcce48	0.3687613
9	0xbcf3b40e	-0.029748943
10	0x3e66454f	0.22487377
11	0xbe10e2d5	-0.1414903
12	0x3e17e35a	0.14832821
13	0x3cc91c0c	0.024549507
14	0xbe9ce522	-0.30643564
15	0x3e33cf9e	0.17559668
16	0x3f19c075	0.6005929
17	0xbee990bb	-0.45618233
18	0x3deeda25	0.116627015
19	0x3d916e5b	0.07101127
20	0xbee205ff	-0.441452
21	0xbf35b745	-0.7098277
22	0xbe69cd6c	-0.22832268
23	0x3eb4428a	0.35207015
24	0xbea2cf29	-0.31798676
25	0xbed09f01	-0.4074631
26	0xbefd7f60	-0.49511242
27	0xbf5ae359	-0.85503155
28	0x3ebfc5dd	0.37455645
29	0xbefd392c	-0.4945768
30	0x3e6be25a	0.23035565
31	0xbe29e593	-0.16591482
32	0xbf1d3402	-0.6140748
33	0x3c50f395	0.012753387
34	0xbe54c5a6	-0.20778522
35	0xbe865da3	-0.26243314
36	0x3e5295e8	0.20564997
37	0xbecdf66e	-0.40227073
38	0x3e4f0bb0	0.20219302
39	0xbe201f45	-0.15636928
40	0x3e87f12e	0.26551193
41	0xbec6f923	-0.3886195
42	0xbdedca6e	-0.11610876
43	0x3e857e7a	0.26073056
44	0x3e42fc5f	0.19041584
45	0xbf0bc51e	-0.5459765
46	0xbe9d818f	-0.30762908
47	0x3ebdb819	0.37054518
48	0x3d560272	0.052248426
49	0xbe32a7f2	-0.17446879
50	0xbf09a923	-0.5377371
51	0x3e2132b8	0.15742004
52	0x3ee077ae	0.43841308
53	0xbd777e34	-0.06042309
54	0x3f35e0a9	0.7104593
55	0x3deccceb	0.115625225
56	0x3ee313bd	0.44350997
57	0x3f02d958	0.5111289
58	0x3f0263c2	0.5093347
59	0x3dc60c7f	0.09670352
60	0xbe9fab3f	-0.31185338
61	0xbe5c5cb7	-0.21519743
62	0xbca7c481	-0.020479443
63	0x3ee0d171	0.4390979
64	0x3eb4a286	0.35280246
65	0x3de0ecc4	0.109826595
66	0x3ee2f27f	0.44325635
67	0x3e9dd23d	0.30824462
68	0x3d863625	0.06553296
69	0xbb280e0d	-0.002564314
70	0x3c5f26f2	0.013620125
71	0xbcfeff5b	-0.031127622
72	0xbf071927	-0.52772754
73	0xbe4f14a5	-0.20222719
74	0xbe9657f4	-0.29363978
75	0x3f1a608d	0.60303575
76	0xbeee952d	-0.46598187
77	0xbcf0ac4b	-0.02937903
78	0xbe399456	-0.18122992
79	0x3c47110b	0.012150059
80	0x3dd1d521	0.10245729
81	0x3dd25603	0.10270312
82	0xbed5bd88	-0.41746163
83	0x3f0b381f	0.5438251
84	0x3e8754cb	0.2643188
85	0xbe999ae1	-0.30000976
86	0xbe1e5e0b	-0.15465562
87	0x3ddcba89	0.10777766
88	0x3ebb9b80	0.36642075
89	0xbe33d6df	-0.17562436
90	0x3e3f9b31	0.18711545
91	0xbe5c76c5	-0.21529682
92	0x3eccb16b	0.3997911
93	0x3e219639	0.15779962
94	0x3e156366	0.14588699
95	0x3e0d4974	0.13797551
96	0x3e260896	0.16214213
97	0xbdac71c4	-0.084201366
98	0xbdc9d907	-0.09855848
99	0x3e65cb15	0.22440751
100	0xbdaf148c	-0.08548841
101	0x3d399448	0.045307428
102	0x3f2ce835	0.6754182
103	0x3e20d96c	0.1570794
104	0x3d9ae264	0.07562712
105	0xbe1eaff1	-0.15496804
106	0xbf164dff	-0.5871276
107	0xbe1a5526	-0.15071544
108	0x3dbf4c49	0.09340722
109	0xbcd712c6	-0.026254069
110	0xbe09d000	-0.13458252
111	0x3e090825	0.13382013
112	0x3c2d37dd	0.010572401
113	0xbe08071a	-0.13283959
114	0x3e2fbfc8	0.17163002
115	0x3e21cb4e	0.15800211
116	0xbe7b0a54	-0.24515659
117	0xbe7b7b43	-0.2455874
118	0xbeae0985	-0.33991638
119	0x3f5d7572	0.8650733
120	0xbe0d661e	-0.13808486
121	0x3b4a3b4b	0.0030858095
122	0x3da95a2d	0.08269153
123	0xbd01de4a	-0.031706132
124	0xbe6bf7c5	-0.23043735
125	0x3d3a1d0a	0.04543785
126	0x3d39f41b	0.045398813
127	0x3ea795af	0.32731387
128	0xbe64827f	-0.22315405
129	0x3e78c8ca	0.24295345
130	0xbf10432f	-0.56352514
131	0x3ebe1777	0.37127277
132	0x3cbeb091	0.023277553
133	0xbcd3f171	-0.025871964
134	0x3ec29eea	0.38011867
135	0x3d9ff27a	0.078099206
136	0x3d930be7	0.071800046
137	0xbe02a212	-0.12757137
138	0x3e776cd3	0.24162607
139	0xbe7729b1	-0.24136998
140	0x3f16950b	0.5882117
141	0x3e33728f	0.1752417
142	0xbf2ee8e2	-0.683241
143	0x3e053fad	0.13012572
144	0xbec46e8f	-0.383656
145	0x3dc42d69	0.09578974
146	0xbeb4833c	-0.35256374
147	0xbc71d670	-0.014760599
148	0x3f063930	0.5243101
149	0xbec90338	-0.39260268
150	0x3f002b6e	0.5006627
151	0x3c9a8b6d	0.018865312
152	0xbea66b5d	-0.32503787
153	0x3e47c156	0.19507346
154	0x3ec68fd5	0.3878161
155	0x3e9d9175	0.30775037
156	0xbda2277e	-0.07917689
157	0xbf4f8288	-0.8105855
158	0xbe77ba27	-0.24192105
159	0x3f10a99b	0.565088
160	0xbe8c7470	-0.27432585
161	0x3f2bf797	0.6717467
162	0x3d9f6661	0.07783199
163	0xbec8470c	-0.39116704
164	0xbe10c94e	-0.14139292
165	0xbd5479a3	-0.051873814
166	0xbd40f0c7	-0.047104623
167	0xbef71291	-0.48256353
168	0xbe9bcc5f	-0.3042936
169	0xbd94e120	-0.07269502
170	0xbdc8cefd	-0.09805105
171	0x3d16573c	0.036704287
172	0xbea0f999	-0.31440428
173	0x3bdf2d52	0.0068108225
174	0x3f30d153	0.69069403
175	0x3e0c7e3a	0.13720027
176	0x3e90e386	0.28298587
177	0xbed85bcf	-0.42257544
178	0x3eda3c89	0.4262431
179	0xbe18611f	-0.14880799
180	0x3efa3e5c	0.488757
181	0x3e0259f2	0.12729624
182	0x3d8abc64	0.06774214
183	0xbe1e7269	-0.15473332
184	0xbd24267f	-0.040075775
185	0xbf660612	-0.8985301
186	0xbf3276d9	-0.697126
187	0xbf17c334	-0.5928223
188	0x3d9479a0	0.07249761
189	0xbe194e50	-0.1497128
190	0x3d85e87b	0.06538483
191	0xbf13d182	-0.5774156
192	0xbcb56ee7	-0.022147609
193	0xbec99c29	-0.39376953
194	0xbe4d53da	-0.20051518
195	0x3da5a0e4	0.08087328
196	0x3d84668d	0.064648725
197	0x3e67a98c	0.22623271
198	0x3f13d153	0.5774128
199	0xbc798533	-0.015229511
200	0x3e003c48	0.12522995
201	0xbef51baf	-0.47872683
202	0x3ddb2bb3	0.10701694
203	0x3ec54167	0.3852646
204	0xbdfe7844	-0.124252826
205	0x3ee44452	0.44583374
206	0xbd256614	-0.040380552
207	0xbf25a403	-0.6470339
208	0x3e6517a2	0.22372296
209	0x3e5df8b5	0.21676905
210	0x3d91ac27	0.071129136
211	0x3f0cfdf8	0.55075026
212	0xbf0cee7f	-0.55051416
213	0xbd9f43b4	-0.07776585
214	0xbe412103	-0.18860249
215	0x3df416fc	0.119184464
216	0x3e8bb666	0.27287596
217	0xbd95c026	-0.0731204
218	0xbe7ce4e6	-0.24696693
219	0xbde6699e	-0.11250614
220	0xbef3548f	-0.4752545
221	0xbf0d11b6	-0.5510515
222	0xbe248a83	-0.16068463
223	0x3efe2f70	0.49645567
224	0xbb8c3105	-0.0042783045
225	0x3f475490	0.7786341
226	0x3c95d388	0.018289343
227	0xbc1a157b	-0.009404535
228	0x3dc17424	0.0944598
229	0xbce4c510	-0.027925998
230	0x3eac5b42	0.33663374
231	0x3f0492ba	0.51786387
232	0x3ee9257e	0.45536417
233	0xbeb96533	-0.3621002
234	0xbe6eab65	-0.2330757
235	0x3ead0bab	0.33797964
236	0xbf073574	-0.5281594
237	0xbd6b68ab	-0.057472866
238	0xbf07383c	-0.5282018
239	0xbd8fa21d	-0.070133425
240	0xbf0329d0	-0.51235676
241	0xbe91b296	-0.28456563
242	0x3cab8e07	0.020941747
243	0xbd00e034	-0.031463817
244	0x3f013602	0.50473034
245	0x3e52b385	0.20576294
246	0x3ebb6c2a	0.3660596
247	0x3e00bf5f	0.12573002
248	0x3eebcce2	0.4605475
249	0xbe60d742	-0.21957114
250	0xbe7a38ba	-0.24435702
251	0xbe01e19c	-0.1268372
252	0xbf6a5ba9	-0.9154611
253	0x3ea6f847	0.32611296
254	0x3dbc525e	0.09195398
255	0x3f112e7c	0.56711555

blocks.block0.bn1.running_var f4 [256]
0	0x3c79545e	0.015217869
1	0x3bbe6f69	0.005811621
2	0x3c68e525	0.014214789
3	0x3cc76e1f	0.024344502
4	0x3cabbcb7	0.02096401
5	0x3ceb54be	0.028726932
6	0x3c68dc64	0.0142127015
7	0x3cbbd193	0.022927081
8	0x3cc6def0	0.024276227
9	0x3cb65f8d	0.022262359
10	0x3c0952c7	0.008381552
11	0x3cbcc7d9	0.023044514
12	0x3d06e770	0.03293556
13	0x3d169d20	0.03677094
14	0x3c129ae1	0.008948059
15	0x3ca2bcdd	0.019865448
16	0x3ccbc482	0.024873976
17	0x3c9841b2	0.018586013
18	0x3ca9b526	0.020716261
19	0x3bfcfc8a	0.0077205347
20	0x3c813f0d	0.015777135
21	0x3c62c842	0.0138416905
22	0x3bcd9e58	0.0062749796
23	0x3ca95024	0.020668097
24	0x3c99330b	0.018701097
25	0x3cf343e1	0.029695453
26	0x3c0a9d17	0.008460305
27	0x3c4b079c	0.012391951
28	0x3c9f86c7	0.019473447
29	0x3cd40926	0.025883269
30	0x3be7b9e2	0.0070717195
31	0x3cacad8a	0.021078844
32	0x3c60d965	0.013723706
33	0x3c9ee6fc	0.019397251
34	0x3c9de44a	0.019273896
35	0x3abf2551	0.0014583265
36	0x3d05d950	0.03267795
37	0x3c6e4c9f	0.014544635
38	0x3cad8d38	0.021185502
39	0x3c717833	0.01473813
40	0x3ca8a83e	0.020588037
41	0x3c0c503e	0.008564053
42	0x3c9cc646	0.019137513
43	0x3cad88c1	0.021183373
44	0x3c0aa1da	0.00846144
45	0x3cc358e8	0.023846105
46	0x3c715f54	0.014732201
47	0x3c91c038	0.017791852
48	0x3b86d5ba	0.0041148337
49	0x3c8b45e7	0.017001105
50	0x3c5c16db	0.013433184
51	0x3c0861f0	0.008324131
52	0x3c6da8e6	0.014505601
53	0x3bc36530	0.00596299
54	0x3c770022	0.015075715
55	0x3cd51ea2	0.026015583
56	0x3cc2d9d2	0.023785505
57	0x3cd765c2	0.02629364
58	0x3c7e3f93	0.015518087
59	0x3c2168bd	0.009851632
60	0x3d0d84b3	0.03455038
61	0x3cb90381	0.022584679
62	0x3ceb803e	0.028747674
63	0x3ccff5de	0.025385793
64	0x3ca747ab	0.020419916
65	0x3c89fb8f	0.016843585
66	0x3c68bf80	0.014205813
67	0x3cec40be	0.028839465
68	0x3c26ea0b	0.010187636
69	0x3c94f814	0.0181847
70	0x3c9f5322	0.01944882
71	0x3c62a69f	0.013833671
72	0x3c91037e	0.01770186
73	0x3d010a03	0.03150369
74	0x3cbe3377	0.0232179
75	0x3ce8f84f	0.028438715
76	0x3c8114e9	0.015757041
77	0x3c8b3df1	0.01699731
78	0x3cc43802	0.023952488
79	0x3ca2f321	0.019891324
80	0x3cb2f35c	0.021844558
81	0x3bbab665	0.0056980127
82	0x3c93b0e1	0.018028678
83	0x3cdc0f43	0.026862746
84	0x3c416e83	0.011806133
85	0x3bf3517f	0.0074254866
86	0x3ba0c629	0.004906435
87	0x3c9347e2	0.017978612
88	0x3d1618a8	0.036644608
89	0x3c389856	0.0112667885
90	0x3c6f902f	0.014621778
91	0x3d19a86e	0.037514143
92	0x3c279524	0.010228429
93	0x3c8ed5d4	0.017435946
94	0x3c84e8d3	0.0162243
95	0x3cb61d7b	0.022230854
96	0x3d07b049	0.033127103
97	0x3c358d77	0.011081091
98	0x3d1598e9	0.03652278
99	0x3d2cc75f	0.042182323
100	0x3ccd4b27	0.02506025
101	0x3c877107	0.016533388
102	0x3ca1e83d	0.01976406
103	0x3d00dccb	0.031460565
104	0x3c6d94fe	0.014500855
105	0x3ba031eb	0.004888763
106	0x3c7a1608	0.015264042
107	0x3d024637	0.031805243
108	0x3ca03397	0.01955585
109	0x3cc706a0	0.024295151
110	0x3cc85213	0.024453199
111	0x3cbc1298	0.022958085
112	0x3c3eb572	0.01163994
113	0x3c6a9c15	0.014319439
114	0x3cb6fa46	0.022336137
115	0x3cfae668	0.030627444
116	0x3c0f8168	0.00875888
117	0x3caeefa9	0.021354513
118	0x3cc3a1e9	0.023880916
119	0x3ca2b496	0.0198615
120	0x3c790922	0.015199931
121	0x3cecf3d1	0.028924854
122	0x3cbab298	0.022790238
123	0x3c5bc045	0.01341254
124	0x3c67fe16	0.0141597
125	0x3c9e1b7a	0.019300211
126	0x3c936c1a	0.017995883
127	0x3cd6b13e	0.026207563
128	0x3cb082dd	0.021546775
129	0x3d206a25	0.039163727
130	0x3c2cac5b	0.01053914
131	0x3bfc6c8a	0.0077033686
132	0x3ca1e8e2	0.019764367
133	0x3c67c65c	0.014146414
134	0x3c75bc15	0.0149984555
135	0x3c5695c0	0.013097227
136	0x3c880f63	0.0166089
137	0x3b94c30d	0.0045398534
138	0x3bb774d2	0.005598643
139	0x3c0c608c	0.00856794
140	0x3c0e664b	0.008691381
141	0x3c4fd1a6	0.012684261
142	0x3c955888	0.018230692
143	0x3cc7ff11	0.024413617
144	0x3c273ce9	0.010207393
145	0x3c000b2c	0.007815164
146	0x3cc69929	0.024242954
147	0x3cdc9349	0.0269257
148	0x3cdc3303	0.026879793
149	0x3c171245	0.009220664
150	0x3cb83835	0.02248774
151	0x3c51539a	0.01277628
152	0x3ca54b62	0.020177547
153	0x3cf85f6e	0.030318942
154	0x3cbb3c5c	0.02285593
155	0x3d08cbf7	0.03339764
156	0x3cf27f36	0.029601675
157	0x3cb187d8	0.02167122
158	0x3ca490da	0.020088602
159	0x3c145786	0.00905407
160	0x3d011cd1	0.031521622
161	0x3c60c558	0.013718925
162	0x3cb56aa1	0.022145571
163	0x3cd639e0	0.026150644
164	0x3c4b1fd5	0.012397726
165	0x3c0d5348	0.008625813
166	0x3c047a1a	0.008085752
167	0x3cb45805	0.022014627
168	0x3c27f887	0.010252125
169	0x3c2f7b9d	0.010710624
170	0x3cade51d	0.021227414
171	0x3c843267	0.016137315
172	0x3bbb8318	0.0057224147
173	0x3cbce92e	0.023060407
174	0x3cb6d2ce	0.022317316
175	0x3ca0174a	0.019542355
176	0x3cc0a8f5	0.023518065
177	0x3cec474a	0.028842587
178	0x3c49bea8	0.012313522
179	0x3cb3fbde	0.021970686
180	0x3c4acb50	0.012377575
181	0x3c601d80	0.013678908
182	0x3c836be7	0.016042663
183	0x3c4dbb43	0.012556854
184	0x3c91759c	0.017756276
185	0x3d002b1a	0.031291105
186	0x3cc32e9a	0.023825932
187	0x3c765f9e	0.015037445
188	0x3cce6191	0.025193008
189	0x3c8bc6c9	0.017062562
190	0x3cb21c0d	0.021741891
191	0x3cf2c797	0.029636187
192	0x3cebdb4a	0.028791089
193	0x3c9ffacc	0.019528769
194	0x3c33f947	0.010984725
195	0x3c80bedb	0.015716007
196	0x3bf8473f	0.0075768526
197	0x3d0201fd	0.031740177
198	0x3cc9c336	0.024629217
199	0x3c14857f	0.009065031
200	0x3cf6b6da	0.030116487
201	0x3ca5ee06	0.0202551
202	0x3d000b84	0.031260982
203	0x3bcdc023	0.006279008
204	0x3c831152	0.01599947
205	0x3cbc83a9	0.023012
206	0x3cc12611	0.023577722
207	0x3cc8e06b	0.024521073
208	0x3cfa8d38	0.030584916
209	0x3d034dea	0.032056727
210	0x3cbdcd7f	0.023169277
211	0x3d17db12	0.037074156
212	0x3c93afac	0.018028103
213	0x3c154a2a	0.00911192
214	0x3c9fcf71	0.019508095
215	0x3ca638dc	0.020290785
216	0x3c696daf	0.014247342
217	0x3cc9e9c6	0.024647605
218	0x3c8cede1	0.017203273
219	0x3ca54e59	0.02017896
220	0x3ca36bb9	0.019948827
221	0x3c6fb436	0.014630368
222	0x3c4caa8d	0.012491834
223	0x3c7c6000	0.015403748
224	0x3ce5f418	0.028070495
225	0x3d1bbe83	0.038023483
226	0x3ca61664	0.020274349
227	0x3c5f2766	0.013620233
228	0x3cb132b5	0.021630624
229	0x3b222051	0.00247385
230	0x3cf6191d	0.030041272
231	0x3cb666fe	0.022265907
232	0x3c99f93b	0.0187956
233	0x3c974077	0.018463356
234	0x3c2a57f4	0.010396946
235	0x3ca462bb	0.02006661
236	0x3c8c5e1b	0.017134717
237	0x3c807015	0.015678445
238	0x3c8871db	0.016655853
239	0x3d16db03	0.03682996
240	0x3c6dbe0d	0.014510644
241	0x3ce1de12	0.027571712
242	0x3cbb0883	0.022831207
243	0x3c801d85	0.015639076
244	0x3c94e7fc	0.018177025
245	0x3d03d9ad	0.032190014
246	0x3ce87266	0.028374862
247	0x3cb466c3	0.022021657
248	0x3cb61276	0.0222256
249	0x3ca999df	0.020703254
250	0x3c4257ad	0.011861724
251	0x3c4da8c5	0.012552445
252	0x3cc2951d	0.023752743
253	0x3c4879b1	0.012236045
254	0x3c5eb78a	0.013593564
255	0x3c5fa01f	0.013649016

blocks.block0.fc2.weight f4 [256, 256]
0	0x3d86c254	0.06580034
1	0x3d5bf07c	0.05369614
2	0x3cd7d520	0.026346743
3	0xbcd41d7f	-0.025892971
4	0x3c5ecb28	0.013598241
5	0x3d117f7d	0.035521973
6	0x3d116bd3	0.03550322
7	0x3cec4a65	0.028844068
8	0x3ce54dd9	0.027991222
9	0xbc6d2801	-0.01447487
10	0xbd21df97	-0.039519873
11	0x3d3a8ed9	0.045546386
12	0xbce9ef7f	-0.028556583
13	0x3c8d54fb	0.017252436
14	0xbc7617c5	-0.015020316
15	0x3d0a62c4	0.033785596
16	0xbcc35761	-0.023845376
17	0x3d4ffc04	0.05077745
18	0xbcd36cfc	-0.025808804
19	0x3d1a1eed	0.03762715
20	0x3e00b2af	0.12568162
21	0x3d58d963	0.05294169
22	0x3d1ad6e3	0.03780259
23	0x3d288d6a	0.041150488
24	0x3d24f9b4	0.040277198
25	0xbcb4d718	-0.022075221
26	0xbb86f0e4	-0.004118072
27	0xbd2e35a2	-0.042531617
28	0xbc2d9cc9	-0.0105964625
29	0xbc72e84f	-0.0148258945
30	0x3c8fa196	0.017533105
31	0xbd3fb44d	-0.046802808
32	0xbd627b47	-0.055293348
33	0x3bc04959	0.0058681187
34	0x3a24fcf3	0.0006293796
35	0x3d61e5bd	0.055150736
36	0xbd0483f2	-0.032352395
37	0x3d0ac452	0.033878632
38	0xbd5d4c6d	-0.054027963
39	0xbd957c72	-0.07299127
40	0xbcd320f6	-0.025772553
41	0xbd0ecaab	-0.034861248
42	0x3ca11c41	0.019666793
43	0xbccae241	-0.02476609
44	0x3d34aa01	0.04410744
45	0x3d71a6cc	0.05899696
46	0x3b8de704	0.0043305177
47	0x3d5bea32	0.053690143
48	0xbdc6c4fb	-0.0970554
49	0xbd2dee4e	-0.042463593
50	0x3cb5a845	0.022174964
51	0x3c218817	0.0098591065
52	0xbd122182	-0.035676487
53	0xbcbc3b56	-0.022977512
54	0x3cfc0180	0.030762434
55	0x3d7244b0	0.059147537
56	0x3d9b62ad	0.0758718
57	0xbd0b3bbb	-0.03399251
58	0x3c3449f4	0.01100396
59	0xbd306dc7	-0.04307344
60	0x3d1cb3e9	0.038257513
61	0xbc8c80a1	-0.017151179
62	0x3d61c597	0.055120077
63	0x3d16e2f3	0.03683753
64	0x3d676179	0.05648944
65	0x3d175a46	0.036951326
66	0xbbd66e07	-0.006543878
67	0x3c6693a9	0.014073291
68	0xbcebccbc	-0.028784148
69	0x3d4decf1	0.050274793
70	0x3d69f727	0.05712047
71	0x3d169858	0.03676638
72	0xbcb213ec	-0.021738015
73	0xbcb34e17	-0.021887822
74	0x3cdf581f	0.0272637
75	0x3d10e367	0.035373118
76	0x3d2ff76f	0.04296058
77	0x3c184fc3	0.00929636
78	0x3d668830	0.056282222
79	0xbd394431	-0.045231048
80	0xbd34a81c	-0.044105634
81	0x3d4ad80d	0.04952245
82	0x3ca5372c	0.02016791
83	0xbd2db765	-0.042411227
84	0x3c2ae9ae	0.01043169
85	0xbd93ba16	-0.072132275
86	0xbc24ebc1	-0.010065974
87	0x3c1a5461	0.009419532
88	0x3d58ba05	0.052911777
89	0xbd4c3f1b	-0.04986487
90	0xbcfcf94c	-0.030880593
91	0xbd32380f	-0.043510493
92	0x3d470f14	0.048598364
93	0xbd0fe013	-0.035125803
94	0x3c0727de	0.008249251
95	0xbd483e7c	-0.048887715
96	0xbd97b43f	-0.07407426
97	0xbc7f2630	-0.015573069
98	0x3b205396	0.0024463884
99	0x3d55dec3	0.052214395
100	0x3c56f9e5	0.013121103
101	0xbc22430e	-0.009903682
102	0xbd4d8f27	-0.05018535
103	0xbb0d8d34	-0.0021599056
104	0xbcf15ad7	-0.029462261
105	0xbb9a676d	-0.0047120363
106	0x3bc72db3	0.006078446
107	0x3d14cfb6	0.0363309
108	0x3c3c2578	0.011483543
109	0x3c3f7454	0.01168545
110	0xbbc3343f	-0.005957156
111	0x3d083396	0.03325232
112	0x3cdc4610	0.026888877
113	0xbd8e38ae	-0.069444045
114	0xbc5349c9	-0.01289601
115	0xbc21fcae	-0.009886904
116	0xbd969ca2	-0.07354094
117	0x3d138f2c	0.03602521
118	0x3a4c6740	0.0007797368
119	0xbd2fb42d	-0.04289644
120	0x3d340f9f	0.04396021
121	0xbc9a7c58	-0.01885812
122	0x3cf5b02e	0.029991236
123	0x3d5cff88	0.05395463
124	0x3bda2703	0.0066574826
125	0x3d3149c0	0.043283224
126	0x3c477515	0.012173911
127	0x3d1537c2	0.036430128
128	0xbb2d9fbe	-0.002649292
129	0xbd225f94	-0.03964193
130	0x3bddcb6d	0.006768635
131	0x3d95287c	0.072831124
132	0x3bf89503	0.007586123
133	0x3d28ecfe	0.04124164
134	0xbd2fd014	-0.04292305
135	0x3d065fef	0.032806333
136	0xbb1163d3	-0.0022184744
137	0x3bbd2768	0.00577252
138	0xbd75f8ac	-0.060051605
139	0xbd358f62	-0.044326194
140	0x3c334d64	0.010943744
141	0x3d5166e7	0.051123526
142	0x3cd1243e	0.025529977
143	0x3c62e6ad	0.013848943
144	0x3d7726d2	0.060339756
145	0x3c6055e1	0.01369235
146	0xbc92ffa1	-0.017944159
147	0xbd348b2e	-0.044078045
148	0xbd807c8c	-0.062737554
149	0x3bfd33e0	0.0077271312
150	0xbcf9db46	-0.030500066
151	0x3c629d88	0.013831504
152	0x3c7caea6	0.015422499
153	0x3c8b1667	0.016978456
154	0x3d2953a8	0.041339546
155	0x3d14b2de	0.036303394
156	0x3d79fcc9	0.06103209
157	0xbd025969	-0.03182355
158	0xbccdd02f	-0.025123684
159	0x3ba69560	0.005083725
160	0x3d2bc214	0.041933134
161	0xbb4f3846	-0.0031619235
162	0xbcba47a6	-0.022739243
163	0xbce26e23	-0.027640408
164	0x3d1667ac	0.036719963
165	0xbca995ba	-0.020701278
166	0xbc3d5082	-0.011554839
167	0xbc0de06c	-0.008659463
168	0x3d6565a4	0.056005135
169	0xbccb7470	-0.024835795
170	0xbd463cfb	-0.048398
171	0x3d30ba69	0.043146525
172	0xbca76394	-0.020433225
173	0xbcf45680	-0.029826403
174	0xbb8ca17e	-0.0042917123
175	0xbc205adf	-0.00978729
176	0xbd863cea	-0.06554587
177	0x3c6aeaa1	0.014338166
178	0xbd5c9cf0	-0.053860605
179	0x3a939a0a	0.0011261117
180	0x3d4d366a	0.05010072
181	0xbd3f7495	-0.04674204
182	0xbaf6ed4d	-0.0018839032
183	0xbb876b4b	-0.0041326634
184	0x3d1d25e4	0.038366213
185	0x3d26acac	0.040692016
186	0xbcb78f36	-0.022407155
187	0xbcf67603	-0.03008557
188	0xbdbbb92b	-0.09166177
189	0xbcf886b6	-0.030337673
190	0x3cbf5436	0.023355585
191	0x3d5a625b	0.053316455
192	0x3d2f37fc	0.042778
193	0xbc5958bd	-0.013265786
194	0x3d00261d	0.031286348
195	0xbd34b763	-0.044120204
196	0x3cd7efc0	0.026359439
197	0x3d92b452	0.071632996
198	0xbd746cc4	-0.05967404
199	0xbd00ddef	-0.031461652
200	0x3ccdd81b	0.025127461
201	0xbad8e206	-0.0016546852
202	0xbc726ef4	-0.014796961
203	0x3db4ad7d	0.08822153
204	0x3c2e4534	0.0106366165
205	0x3ca77ba9	0.020444708
206	0xbd0edd10	-0.03487879
207	0x3cbaa491	0.02278355
208	0x3d51f12a	0.051255383
209	0x3a84f113	0.0010142646
210	0x3c35535b	0.011067237
211	0x3cb12c25	0.021627495
212	0x3d8e73e2	0.06955697
213	0xba4188aa	-0.000738273
214	0xb9b9b108	-0.00035417848
215	0x3d8dd8d1	0.0692612
216	0xbd891fb9	-0.06695504
217	0x3dbce5d0	0.09223521
218	0xbd7b549a	-0.06135998
219	0x3d3a1667	0.04543152
220	0xbd2b797f	-0.041863915
221	0xbbd0a3b6	-0.006367172
222	0x3da63ef6	0.081174776
223	0x3d1383c0	0.03601432
224	0x3c16b666	0.009198761
225	0x3cde7f40	0.027160287
226	0xbd796078	-0.060883015
227	0xbd038c5f	-0.03211629
228	0xbd14d0d9	-0.036331985
229	0xbd1d351a	-0.03838072
230	0x3cf2f752	0.029658947
231	0xbc61eb08	-0.013788946
232	0x3c67007a	0.014099235
233	0x3b2bcce3	0.0026214651
234	0x3d13c79d	0.036079038
235	0xbc5a3710	-0.013318792
236	0xbd2f6f8b	-0.042830985
237	0x3a344ac4	0.0006877596
238	0xbd51c9cb	-0.051217835
239	0x3d8cc55c	0.06873581
240	0xbc959aa1	-0.01826221
241	0x3cd86932	0.026417349
242	0xbd046140	-0.032319307
243	0x3d2c22a8	0.04202524
244	0x3cf04bae	0.029332962
245	0xbc39b036	-0.011333516
246	0x3d4ddeae	0.050261192
247	0x3c1421cd	0.009041262
248	0xbb811b0c	-0.003939992
249	0x3c151ae9	0.009100654
250	0x3ca9ca37	0.020726306
251	0x3d8f575f	0.069990866
252	0x3cf71b4a	0.03016438
253	0x3c82acf1	0.015951606
254	0x3db13850	0.08653319
255	0xbc78acd9	-0.015177929
