results/7DoF-7R-Panda/ResMLP_7DoF-7R-Panda_layers_1_neurons_384_batch_250000_Adam_l2_1_qlim_scale_10_samples_1000000/epoch_20.pth (torch, 649529 bytes, 20 tensors)

blocks.block0.fc1.weight f4 [384, 6]
00000000: 974d caba a8b9 753e d2df afbe 7656 95be
00000010: 791a 22be ee20 de3d eafb 583c 247b a73e
00000020: fbb1 44bd d417 ec3d f78a cebd adc3 86bd
00000030: 34dc c2be 7573 7ebe 7a68 29be 22e0 803c
00000040: cf9b 2d3e 349c 843e 69bc 74be e30f 46be
00000050: 4d45 253e 1ccc a73e 747d d9bd d19f a33e
00000060: d565 9cbd 91e0 b33c dc52 c03e 5aec c1be
00000070: ab0b 73be cf7b b1bd b646 12be 4118 aa3e
00000080: 33e4 93be fc03 4fbe eb4d 86be fa48 c5be
00000090: 2a12 6cbe ff6a a43e bcaf 2b3e 13d8 6c3e
000000a0: e2e4 b23c cda3 76be 8844 9f3d 8ebe c3be
000000b0: f4f4 94be c34c 48be ffee 733e ff34 843e
000000c0: ccab 36be d018 e9bc 14bd 8a3e 7d68 ce3e
000000d0: d4a1 2a3e babc 263d 0c17 863e 5035 83be
000000e0: ed69 9d3d d0ef a5be 5e7a 90be 68ed 50be
000000f0: 1e52 483e df25 233e 5ecf 8bbe c017 ff3d
00000100: 981d 4f3e fd33 05bd 296d 19bb bb90 f43d
00000110: 90e1 673e cf7c d43e 2436 94be c52e 3ebe
00000120: abf7 193e 3844 9d3e 0a6b b43e cbe1 bc3e
00000130: 15df 883d 5ffc bdbe e38c 3e3d d928 8ebe
00000140: 3f72 bfbe 0b03 b03e 6590 ae3e fb17 cfbe
00000150: 4fbc 8b3d b9e5 81bd 2d82 73bd 574e 51be
00000160: c41e 323e f3ec 61be 172f 183e 86ac 523e
00000170: 486c 9a3e 2b1f 1e3e 9995 c9be 3b36 86be
00000180: 2d37 463e ef80 873d c4c5 9cbe fe0c 80be
00000190: 3d40 c93e f781 923e 7363 39be 1f09 b2bd
000001a0: 7f9c c4be 55b5 c0ba 5804 a2be 586e a5be
000001b0: b614 e4bc 4ff7 733d d71f 25be 4730 6c3e
000001c0: 73ea 7dbe e859 c93e 620d 953e 477c adbe
000001d0: d463 c5bd daca d03c 2bea 833d df08 963d
000001e0: 9868 1d3e 3830 f23c 08fc 3cbe 7bd2 553e
000001f0: 23d2 c2be 011b 82be b3e8 c0bd 2018 36be
00000200: ca6d 0bbe 8a4a b2be 2605 c3bd bba9 bb3d
00000210: 4529 79be 6db9 03bc a932 a13e 896c 5abd
00000220: f06e 173c a326 91bc d450 9e3d 4ca4 833e
00000230: 19d3 c23e cc20 883e c783 cd3e 7b7d cbba
00000240: 8b4c b2be 8c1a 39be e470 913e 1555 cbbb
00000250: 8e59 47be 5311 a3be 574b cfbe 7513 bcbe
00000260: cf6f 98bd fac8 5b3e 7f0d 503e bf87 bcbe
00000270: 4fd7 813e 0be4 97be b547 91bd 71e0 2abe
00000280: 02f4 ccbd 658c ebbd f958 c0be bd01 bdbe
00000290: 4910 65bd 1d41 1fbc a065 2fbe 61c4 033e
000002a0: c7c8 acbe d1db 3cbd 935a c13e 9c69 26be
000002b0: b12b c33e b28f 1c3e ea0e b2be 3230 843e
000002c0: ed03 66bd eefb 49be d66f a13e e1fc adbe
000002d0: f0f9 683d 4d1f a7bd 4a0b 8f3e 07a5 f03d
000002e0: 2cc2 463e 349e 213e 95bf 9cbd e96e aebd
000002f0: 843e b0be 7e60 763e 025e aa3e fc93 853e
00000300: 0800 82be be6b a03c dc5c 90be 76e2 61be
00000310: 6b6a 7fbe f499 173e be3c 89be f18e be3b
00000320: a821 563b 3126 923e 2182 94be c2fb 89be
00000330: 9ad3 5fbe 04d3 913e 22ea 0cbe 7fcd c33e
00000340: 7356 103e 1027 f93c 9ffe cb3c a5d7 94bd
00000350: 7a63 613d 6e0d adbd 2895 1c3c 15c0 9a3d
00000360: dc7c 97be 75c7 4cbe 4e44 ae3e 1a4a b0be
00000370: 6724 a8bc d127 cc3e b51d 0d3e 9845 e13c
00000380: 6445 bdbe 5cd4 4c3e a690 8bbe 3cd0 f8bd
00000390: 6915 febd 09eb 3abd 9c13 283d a172 a73e
000003a0: dec1 6d3d ac4a c43e 48e4 833e 70df 82be
000003b0: 2622 3b3e 3490 91be e83e 1dbe 0a9f 163e
000003c0: 4f3f 093e 9c06 963e 0c44 08be a014 ae3a
000003d0: b4e8 503e 02e2 d2be 0747 9d3e eff2 acbe
000003e0: 3d3f c938 93ec 75bd 49de 45be 4040 783d
000003f0: 5a3b a83e 292b a2bd 8714 70be 37f2 26be
-0.00154345 0.23996603 -0.3435045 -0.29167527 -0.15830411 0.108461246 0.013243655 0.32711136
-0.048021298 0.11527982 -0.10085099 -0.06580291 -0.38058627 -0.24848731 -0.16543761 0.015731875
0.16953968 0.25900424 -0.23899998 -0.19341998 0.16139717 0.3277291 -0.106196314 0.31957868
-0.076366104 0.021957668 0.37563217 -0.37875634 -0.2373492 -0.08666193 -0.14284787 0.3322163
-0.2888504 -0.20216364 -0.26231322 -0.3853224 -0.23053804 0.32112882 0.16766256 0.23129301
0.021837655 -0.24085923 0.07776743 -0.3823132 -0.29093134 -0.19560532 0.23821639 0.25821683
-0.17838973 -0.028454214 0.2709738 0.40314093 0.16663295 0.040707327 0.26189458 -0.25626612
0.07686219 -0.32409525 -0.2821836 -0.20403063 0.19562575 0.15932415 -0.27306646 0.12455702
0.20226133 -0.032520283 -0.0023411012 0.11941668 0.22644639 0.4150147 -0.28947556 -0.18572529
0.15035884 0.3071611 0.35237914 0.36891016 0.066831745 -0.37106606 0.04652108 -0.2776554
-0.3739185 0.34377322 0.3409454 -0.40447983 0.068230264 -0.06342644 -0.059450317 -0.2044004
0.17394549 -0.22063045 0.14861713 0.20573625 0.30160737 0.15441577 -0.39371946 -0.2621325
0.19356985 0.06616389 -0.30619633 -0.25009912 0.39306822 0.2861478 -0.18104343 -0.08693146
-0.38400647 -0.0014702479 -0.3164394 -0.32310748 -0.027841907 0.059562024 -0.16125427 0.23065291
-0.24796467 0.39326406 0.29111773 -0.3388388 -0.09638181 0.025487352 0.06441148 0.07325911
0.1537193 0.029564008 -0.18455517 0.20881073 -0.38050947 -0.25411227 -0.09419384 -0.1778264
-0.136161 -0.34822494 -0.09522466 0.09163233 -0.2433215 -0.008039814 0.31483963 -0.053326163
0.009242758 -0.017718619 0.077302605 0.25711286 0.3805168 0.26587522 0.401396 -0.0015525067
-0.34824023 -0.18076533 0.2840644 -0.006205211 -0.19467756 -0.31849155 -0.40487167 -0.36733595
-0.07443201 0.21463385 0.20317648 -0.36822316 0.2535958 -0.2966617 -0.07093755 -0.1668718
-0.10007478 -0.115013875 -0.3756788 -0.3691539 -0.055923734 -0.009720114 -0.1712861 0.12867881
-0.3374693 -0.04610807 0.37764415 -0.16251224 0.3811927 0.1528919 -0.34777004 0.2581802
-0.056156088 -0.1972501 0.31530637 -0.33981994 0.056878984 -0.08160267 0.279383 0.117502265
0.19410008 0.15783006 -0.07653729 -0.08517248 -0.34422696 0.24060246 0.33274847 0.26089466
-0.2539065 0.019582625 -0.28195846 -0.22059044 -0.24942939 0.14804822 -0.26804155 0.00581538
0.003267387 0.28544763 -0.2900553 -0.26949888 -0.21858063 0.28481305 -0.1376119 0.3824272
0.14095478 0.030414134 0.024901686 -0.072676934 0.05502651 -0.08449827 0.009557046 0.07556168
-0.29587448 -0.19997962 0.34036487 -0.34431535 -0.02052517 0.39874128 0.13780864 0.027499005
-0.36967003 0.20002884 -0.27258795 -0.121490926 -0.124064274 -0.045634303 0.041034326 0.32704642
0.058046214 0.3833822 0.25760102 -0.25561094 0.18274745 -0.2843033 -0.15356028 0.14709106
0.13403057 0.29301918 -0.13307208 0.0013281293 0.20401269 -0.41188055 0.30718252 -0.33779094
9.596206e-05 -0.060040068 -0.19323076 0.06060815 0.32857782 -0.079183884 -0.2344533 -0.16303335

blocks.block0.fc1.bias f4 [384]
00000000: b464 c2be 3de8 b9be a921 733e 1dda 75be
00000010: 9934 993e 0ce8 053e 4cac c63d fa7e a73e
00000020: 2950 c1be 080e 983e 363f 013e 7fec 8cbe
00000030: d496 cb3d 20a5 e8bd 82c9 25be b2e4 33bd
00000040: 60c0 44be bea1 b33e 69c8 b33e b814 2dbd
00000050: bcdf b9be 65d0 bfbc a1f4 e53c c211 8e3e
00000060: c803 173c 6f25 f43d 34b6 d13d db0b 6ebe
00000070: 887f 80be 354e b8be 2c78 3d3b 57ea 033e
00000080: 8298 18bd 735b cb3e fd4c 9ebd f27c 8cbe
00000090: bcab 893d 8c9d e9bd c1b6 60bd 2d1e ca3e
000000a0: e797 55bc 09cf b43e 3caa 583d 6346 19be
000000b0: 32a1 9d3e ec51 6bbe 8c6c 563c ba13 c13d
000000c0: 750c 3c3e 12cc bdbe 62a0 7b3c 8c83 cfbd
000000d0: 7f2e 853e e82d 0a3e ce85 2e3e 6ffb 7d3e
000000e0: 242d bdbd c6f2 00bd fc66 a83e 1001 a7be
000000f0: 9423 92be c79a cc3c 68f8 24be bb83 de3c
00000100: 928a ba3e f728 4bbd 8c18 b2be 7dd1 3dbe
00000110: b5e7 bb3e 937d bbbd 7589 38be fadc 383e
00000120: 9343 413d 4ddc b8be 6d25 ac3e be32 703e
00000130: 6cd5 b53e 0bde 333e fc28 0dbe e0e9 0fbe
00000140: 7e70 4b3e 45c6 a2bd 700b a93d cc0e cabe
00000150: 5e73 50be 90a1 1b3e 5fdd a6bc 6f7d 4fbe
00000160: dcbd b6be 1b47 833e 9610 a5bd 12c0 cabe
00000170: 96ac cb3e 2223 4d3e e368 7bbe 807a 98be
00000180: 2677 c83e 6d76 aabb dee5 7cbe 4cb7 683e
00000190: 343d a8bd 7f04 f53c da4a 53be e04e b2be
000001a0: 657d 8bbe deaa 50bd 13db 94be 9829 cc3e
000001b0: d814 213b 0c23 20be dcfc 273e 5b38 b6be
000001c0: 10e5 55be c64f 193e 8234 afbe fe6b 4b3e
000001d0: 645d 103d 7650 b0be 7365 d0be 0216 fc3d
000001e0: f275 463e 5a6a abbd f705 bcbe 3a26 76be
000001f0: a8f4 263d 3818 833c 75c1 cf3d e9ef 8c3d
00000200: af0e 9cbc b10a 5e3e 643d cd3e 73cc aa3e
00000210: efce bd3e 716b 10be cd0f 11be 381c 3abd
00000220: 672a 003e 611b 293e a833 fdbc 3bb4 8bbe
00000230: 90a8 9fbe 67b5 c93e 2cf8 efbd 354c 64bd
00000240: 1a1b 81be 63b1 3ebe cfd8 b83d f525 343e
00000250: 8a64 27be a73c 20be 8f75 a33e b531 51be
00000260: 09c1 9dbe 44e9 81bd 8716 c93e dca5 b33d
00000270: fb14 6a3d 9bcf 63bd 1e99 813e 876a 50be
00000280: a48a 8d3e fc40 bd3d e537 4a3d d949 5e3d
00000290: f1c1 7dbe 95f7 983e fdf6 583e 580c a6be
000002a0: 7d8f c2be 1fe7 e1bd bc49 8a3e 9e6d 4cbe
000002b0: dfa4 c23e babb 55be 042f bcbe 10c7 3b3e
000002c0: a504 7bbe 58ef 89bd 1f27 febd 3a46 fcbc
000002d0: 9c39 b6be d827 bfbe bc32 343e f9aa 37bd
000002e0: 76d7 74be c96d 20bc 22a5 c1be 6751 e63d
000002f0: 43d4 403e 5d4b c93e 4d14 a8be 6efe 41bd
00000300: 311f 633e ad6d bd3e 6a1d 93be e789 303e
00000310: e462 333e ec03 7d3e d79b 90be d468 983e
00000320: e3a4 36be d86b 7abe f590 a23d a365 a73e
00000330: 0edc 8dbe 0a9d 573e 60da 39bd 883d 073e
00000340: 17e9 9e3e a2d5 da3d 36cc acbe 81df 02be
00000350: 3335 a63d fca3 b3be 2f64 893d c5aa 5fbe
00000360: 79c2 a8bd cc38 103e ff6b a6be aee8 84be
00000370: 11a9 3d3e 7e46 ccbe 071a 8e3e bfab 9fbe
00000380: 73a7 19bc d5d9 af3d 431c 1d3e 1a45 80be
00000390: ca1b 6e3d 67bc 353e 2008 b13e 77b5 9cbe
000003a0: 86d1 51be af1b f73d 43d8 45bc e029 8abe
000003b0: 2ec4 acbe ba69 babe f24f 93be 2b88 32be
000003c0: 109c 8ebe 57c8 b7be 2fe0 023d d7af 703e
000003d0: 534b 45be e3f2 283d 1299 2bbb 3a51 493e
000003e0: a59f 90be 365f 9b3c 059b c33e 9754 953e
000003f0: 8fa4 d2be 990a 72bd 8aad 233b 6936 0abe
-0.37967455 -0.36309996 0.23743309 -0.24008985 0.2992294 0.130768 0.09700832 0.32714063
-0.3775647 0.29698205 0.1262177 -0.27524182 0.099408776 -0.1135962 -0.1619015 -0.043919273
-0.1921401 0.35084337 0.35113838 -0.042256087 -0.36303508 -0.0234148 0.02807075 0.27747923
0.00921721 0.119212024 0.102398306 -0.2324671 -0.250973 -0.35997167 0.002891074 0.12882362
-0.037254818 0.39718208 -0.07729528 -0.27439076 0.06722209 -0.11407003 -0.054861788 0.39476147
-0.013036705 0.35314205 0.052896723 -0.14968257 0.30787045 -0.2298047 0.013087403 0.09427591
0.18364127 -0.37069756 0.015358062 -0.101325125 0.26012036 0.13494074 0.1704323 0.24802946
-0.092371255 -0.031481527 0.3289107 -0.32617998 -0.2854277 0.024976147 -0.16110384 0.027162423
0.36433846 -0.049599614 -0.34784353 -0.18536945 0.36700216 -0.09154811 -0.18021186 0.18053046
0.047183584 -0.36105576 0.33622304 0.23456857 0.3551439 0.17565171 -0.13785166 -0.1405406
0.19867131 -0.07947973 0.08254135 -0.39464414 -0.20356509 0.1519835 -0.02036923 -0.20262693
-0.35691726 0.25640187 -0.08059804 -0.39599663 0.3978011 0.20032933 -0.2455173 -0.2978096
0.39153403 -0.0052021057 -0.24697062 0.22726172 -0.082147986 0.02990937 -0.20634022 -0.34825802
-0.27244106 -0.0509442 -0.2907339 0.39875484 0.0024579074 -0.1563837 0.16405052 -0.3558987
-0.20888162 0.14971837 -0.34219748 0.19865415 0.035245314 -0.34436387 -0.407024 0.12308885
0.1938093 -0.08369894 -0.367233 -0.2403802 0.040760666 0.01600276 0.10144321 0.06881697
-0.01904997 0.21683766 0.400859 0.33359107 0.3707194 -0.14103486 -0.14166184 -0.045437068
0.12516175 0.1651435 -0.03090842 -0.27285942 -0.3118329 0.39396212 -0.11717257 -0.05573674
-0.2521599 -0.18622355 0.09025728 0.17592604 -0.16346946 -0.15648137 0.31925628 -0.20429118
-0.30811337 -0.0634332 0.39275 0.087718695 0.057148915 -0.05561791 0.25312132 -0.20353137
0.27644837 0.092409104 0.04936971 0.054269645 -0.24781014 0.2987639 0.21187969 -0.32431293
-0.38000098 -0.11030411 0.2700938 -0.1996369 0.38016412 -0.20872393 -0.3675462 0.18337655
-0.2451349 -0.06735104 -0.124098055 -0.030795205 -0.35590827 -0.37335086 0.17597479 -0.044840787
-0.23910317 -0.0097918 -0.378213 0.11245995 0.18830971 0.3931531 -0.32827988 -0.047361784
0.22179867 0.36997738 -0.2873338 0.17240106 0.17518193 0.24708527 -0.28243896 0.29767478
-0.17836337 -0.24455202 0.079378046 0.3269473 -0.2770695 0.21056 -0.045374274 0.13207066
0.31037208 0.106852785 -0.3374955 -0.12780572 0.08115616 -0.35086048 0.06708562 -0.21842487
-0.08240218 0.14084166 -0.3250427 -0.2595877 0.18521525 -0.3989753 0.27754232 -0.3118572
-0.009378302 0.0858647 0.15342812 -0.2505272 0.05813197 0.17747651 0.3457651 -0.30607197
-0.20490083 0.12065827 -0.012075487 -0.26985073 -0.33743423 -0.36408788 -0.2877193 -0.17434756
-0.2785344 -0.35895035 0.03195208 0.23504578 -0.19267015 0.04124726 -0.0026183766 0.19659892
-0.282468 0.018966299 0.38204208 0.291661 -0.41141173 -0.059092138 0.0024975264 -0.13497318

blocks.block0.bn1.weight f4 [384]
00000000: c17f 813f dc31 803f ff21 7d3f 3fbc 803f
00000010: 8778 803f 3eda 803f 0015 823f 4dd5 7d3f
00000020: 079d 7c3f f3e8 7d3f 8999 813f d426 7f3f
00000030: 786f 813f 0a2b 803f 5aea 7f3f e614 823f
00000040: c137 7d3f 8110 7c3f a21b 813f d958 813f
00000050: 1ee1 7e3f c801 7f3f 23ae 803f efe4 7e3f
00000060: 812f 7e3f 35a4 813f 497f 7c3f 3535 803f
00000070: 7e39 823f 6841 813f 9bcf 7d3f a518 7f3f
00000080: bdc4 7c3f 4668 813f 7a28 7e3f 4b77 7d3f
00000090: 63a2 7f3f 68c2 803f db49 803f 8baf 7f3f
000000a0: fe8d 803f 9c7e 803f 5ea3 7f3f 60e4 803f
000000b0: 3432 7a3f 0fd2 803f 723e 7d3f 4246 7f3f
000000c0: b2ef 803f 64c9 823f 26f9 7e3f 8442 803f
000000d0: dcdb 803f eca1 7e3f a92a 7d3f 5185 7d3f
000000e0: 40f5 7e3f c5e9 803f 8e6e 7f3f c734 803f
000000f0: 6d8e 7c3f 12b7 7d3f 932d 7f3f 1824 7e3f
00000100: 01bc 7f3f 09c4 7b3f d277 803f f8d4 7d3f
00000110: a691 813f dd12 803f fe4c 803f bfa6 7d3f
00000120: a497 7d3f 51d9 803f bcf3 803f db1b 7e3f
00000130: d070 803f 8637 823f 54b6 7c3f 1ff3 7c3f
00000140: 1b52 7e3f 8e68 7e3f 2867 823f 27d8 7e3f
00000150: aead 803f 2f70 803f 371a 813f 13d8 7c3f
00000160: a6b8 803f 6f0a 7a3f 5daf 803f 36ac 813f
00000170: 5046 7c3f 3013 7f3f 72f0 7b3f be31 823f
00000180: ef8f 803f 7205 7b3f dc3c 803f 7046 823f
00000190: b70c 833f 3c30 823f e619 7d3f a8fa 7d3f
000001a0: aac6 7f3f a368 803f 38d0 813f 06f1 803f
000001b0: 4c46 803f 8d30 813f 202a 7c3f 953d 833f
000001c0: 6007 7e3f 8a71 843f 2f9a 823f c791 813f
000001d0: fe5e 7f3f d4a8 7e3f f11a 7d3f d915 813f
000001e0: c1c0 813f 2bef 813f fbab 7c3f 32e6 7c3f
000001f0: edb1 813f 995e 7f3f 5d92 813f 0e93 803f
00000200: 2546 803f 72ed 7e3f 60cb 7b3f bad8 813f
00000210: fbbb 7e3f 73d6 7b3f 4aff 803f e569 7f3f
00000220: 06af 7d3f b1bc 803f a2df 7c3f e0a7 7c3f
00000230: c907 7d3f 726c 803f c067 7c3f 2fb2 803f
00000240: 9bc3 7e3f 9082 843f bde8 7f3f 320e 7c3f
00000250: e0dc 813f 0d0e 7e3f a84a 803f 86b8 803f
00000260: c233 803f 642d 813f f1ec 7b3f 0cae 7e3f
00000270: 40d3 7e3f 0416 7b3f 526a 7f3f 391f 803f
00000280: 8035 7d3f 9b9a 803f 051d 7b3f 7717 803f
00000290: 4805 813f 2d9c 803f 5e8f 803f 6c13 7c3f
000002a0: d678 7e3f f320 833f 364a 803f 5f51 7e3f
000002b0: 30c4 793f 1875 7e3f 6be1 803f 45d1 7e3f
000002c0: 9488 7d3f 73bf 7c3f cec9 7d3f 97c4 7f3f
000002d0: b10a 813f 8773 7e3f e3ad 7f3f 9934 7f3f
000002e0: 2b44 813f a958 7e3f 12d7 7e3f b801 813f
000002f0: 2a38 813f 3847 813f 71a4 823f 4b14 813f
00000300: 9f13 7e3f 854e 833f 8ed8 7f3f c31a 7f3f
00000310: a2c4 823f 0f18 7c3f 2132 813f 557e 7d3f
00000320: 027e 803f 2967 823f b5f7 7f3f 686a 853f
00000330: 7438 7d3f 81f9 813f 57a6 823f f3dc 7f3f
00000340: a444 833f 7ea8 803f 59c0 7f3f 02a7 813f
00000350: 8e41 7e3f bdcc 7a3f 07bc 7f3f 8662 7d3f
00000360: 1774 803f 0199 803f 072a 803f 130e 803f
00000370: 7eb6 7f3f 977a 833f 13a4 7f3f 748e 813f
00000380: 44f7 803f 17a4 7e3f 7bb2 813f 0119 803f
00000390: 080f 813f 391a 803f d794 803f 5f07 7f3f
000003a0: c486 813f 6600 813f f816 7f3f 88ea 7a3f
000003b0: edc5 803f 1e7e 7d3f 3f3e 7e3f c50b 7e3f
000003c0: 8890 803f c9a0 7d3f 64a0 813f a4a8 7c3f
000003d0: b8f2 7e3f 35e9 7e3f cab6 7d3f dc9f 7a3f
000003e0: c48f 7d3f 9bce 803f d558 7e3f 6686 803f
000003f0: f5dc 7b3f bc7f 813f f828 803f 7547 813f
1.0117112 1.0015216 0.9888 1.0057448 1.0036782 1.0066602 1.0162659 0.99153596
0.98677105 0.9918358 1.012498 0.9966862 1.0112143 1.0013134 0.9996697 1.0162628
0.989132 0.9846268 1.0086558 1.0105239 0.9956225 0.9961209 1.0053142 0.99568075
0.99291235 1.0128237 0.9863172 1.0016237 1.0173795 1.0098085 0.99144906 0.9964698
0.987377 1.0109947 0.9928051 0.9901015 0.9985716 1.0059328 1.0022539 0.9987723
1.0043333 1.0038638 0.99858654 1.0069695 0.97732854 1.0064105 0.9892341 0.9971658
1.0073149 1.021771 0.9959892 1.0020299 1.0067096 0.99465823 0.9889322 0.9903155
0.9959297 1.0071341 0.9977807 1.0016106 0.98654824 0.9910747 0.99678916 0.99273825
0.99896246 0.98346 1.0036566 0.9915309 1.0122573 1.0005757 1.0023496 0.9908256
0.9905951 1.006632 1.0074382 0.99261254 1.0034428 1.0173194 0.9871571 0.98808473
0.99344033 0.9937829 1.0187731 0.9954857 1.0053003 1.0034236 1.0086125 0.98767203
1.005635 0.9767217 1.0053517 1.013068 0.9854479 0.9963865 0.98413765 1.017143
1.0043925 0.98055184 1.0018573 1.0177746 1.0238255 1.017097 0.9886764 0.99210596
0.9991251 1.0031933 1.0141668 1.0073555 1.0021453 1.0092942 0.9850178 1.0253168
0.99230003 1.0347149 1.0203303 1.0122613 0.9975432 0.9947636 0.98869234 1.0084792
1.0136949 1.0151113 0.9869992 0.9878875 1.0132424 0.9975372 1.0122792 1.0044878
1.0021406 0.9958106 0.983572 1.0144265 0.99505585 0.983741 1.0077908 0.9977096
0.9909519 1.0057584 0.98778737 0.98693657 0.98840004 1.0033095 0.9859581 1.0054377
0.9951722 1.0352345 0.99964505 0.9845916 1.0145531 0.9924019 1.0022783 1.0056312
1.0015795 1.0091977 0.9840842 0.99484324 0.9954109 0.9808047 0.99771607 1.0009528
0.9890976 1.0047182 0.98091155 1.0007161 1.0079737 1.0047661 1.0043752 0.98467135
0.9940313 1.024443 1.0022647 0.9934291 0.97564983 0.9939742 1.0068792 0.9953807
0.99036527 0.9872963 0.99136055 0.9990935 1.0081388 0.9939503 0.99874705 0.9968963
1.0098928 0.99354035 0.9954692 1.007865 1.0095265 1.0099859 1.0206434 1.0084318
0.9924869 1.0258337 0.9993981 0.9965021 1.0216258 0.9847421 1.0093423 0.9902089
1.0038455 1.0187732 0.99987346 1.0423098 0.98914266 1.0154268 1.0207013 0.99946517
1.0255322 1.005142 0.99902874 1.0129092 0.9931878 0.97968656 0.9989628 0.9897846
1.0035428 1.0046693 1.0012826 1.0004295 0.99887836 1.0271786 0.9985973 1.0121598
1.007546 0.9946913 1.0132593 1.000763 1.0082712 1.0008003 1.0045422 0.9962062
1.0119252 1.0078247 0.9964442 0.98014116 1.0060402 0.99020565 0.9931373 0.9923671
1.0044107 0.99073464 1.0127072 0.98694825 0.9958911 0.99574596 0.9910704 0.97900176
0.99047494 1.0063051 0.99354297 1.0041015 0.9838403 1.0117106 1.0012503 1.0099932

blocks.block0.bn1.bias f4 [384]
00000000: 99e3 dfbb 3d2d 22bc 1c30 c13a 5058 c8bc
00000010: a031 d8bc b6a1 a53c 6b0c 3fbb 3ac7 06bb
00000020: 539c ecbb 96da 38bc bf13 1bbc e9b2 d4bc
00000030: 01c4 a7bc 74b5 03bd 478a 2f3c d7c1 ee3b
00000040: d094 f9bb 8cff a2bc 74d6 7c3c 5439 833c
00000050: 8591 86bb ecd8 ffba 513e 173c d9cf 02bc
00000060: 7203 adbb d7f1 883b 0466 89bc d907 81bb
00000070: fdc5 113b 036b 8db9 74f5 223b 20b3 21ba
00000080: c31d 84bc b927 f63b a0e1 9fbb 5ecf cdbc
00000090: d612 16bd 0df2 cb3c 0f66 a5bb e33b e3bc
000000a0: 480d 1b3c aa2e 61bb d0fd 54bc 66c0 00b9
000000b0: efd3 02bd bdc2 b3bb 84d5 293c dd10 6abc
000000c0: cb0b f0ba e1e5 373c a137 6bbc ecc4 dd3a
000000d0: 2d6c 043d ad55 52bc 5870 9dbc f54b 22bc
000000e0: 8ec9 82bb dc5d b93b 157f d2bc fefa 883b
000000f0: c6bd 1e3c ceca 32bc 5313 6fbc 10eb 35bc
00000100: 56fa c3bc ebbf 483c a763 e23b 348e 90bb
00000110: 36c9 143b 41ce 40b9 701f 29bb 5850 c5bc
00000120: e67c b93a de86 bcbc 33be 2a3b 7885 2ebc
00000130: bdee a0bb e2ca f4bb 337c 51bc 87c8 ebbb
00000140: cd06 52bc 42d9 11bc 5fce 41ba f67e 0bbb
00000150: 8686 58bc a84e af3a f806 013b b933 94bc
00000160: 4b39 94bc 2f47 ecbc cd88 2a3c 5fee 6e3c
00000170: ddf5 cabb 6d61 0fbc f19b 27bc 4329 823c
00000180: b6ed b4bc 7e45 78bc 69bd 8dbb 8606 6e3c
00000190: 857f 353d 9470 9dbc 3bb3 32bc 22e5 d3bc
000001a0: b6c3 653b 31a1 21bc a160 c23c 651c d73c
000001b0: 20d5 7bbc 06c7 123b 0649 c3bc ec1c f539
000001c0: d6e1 1bbd ec7f 86bb 50f4 813a 2dd5 05bd
000001d0: e7fb 5fbc 6916 623c 34f7 683b 5938 b3bc
000001e0: 9c4a c43c 53ff f93b 7988 1dbc 2c17 513b
000001f0: 4c2a 3dbc a8e8 aebc e847 873c 9dbd 8d3c
00000200: ebb3 a23a b09c 913b 4178 b6bc 93fe fcbb
00000210: 153c 783a c8f1 0bbd 7c67 a9bc fcb8 dabc
00000220: b882 6dbb 4088 093c 72dd 93bb f22f 80bc
00000230: aa5d aebc 780c cbbb 3f8d a9bc e75a 353c
00000240: 9cba b63a 1593 703d 9601 8bbb 3b85 24bd
00000250: ab33 b43c 4218 03bc fe08 15bb 565e 483b
00000260: fe0b c5bc cda9 7a3b bc21 2fbd 0cf8 68ba
00000270: f496 7d3c 1ea2 ce39 c305 e13b 9434 e13b
00000280: e906 b8bc 92a9 ec3a bbeb 12bd 58e3 d2bb
00000290: a04d 89bb 26d6 943a e983 db3b f1f6 b1bc
000002a0: 2021 9939 cf62 383c 0d62 4ebc b127 f3bb
000002b0: 7bda f6bb 8a27 70bc 6cbc bcbc 81eb 5ebb
000002c0: b424 3fbc f84e 413c 9294 92bc 3250 643b
000002d0: 426d 12bc 4784 15bd a94c 10bd a64d 8abc
000002e0: 38d8 ff3b 3c7d b73b 7cb1 b2bc 0de2 083c
000002f0: 8d5f 8e3b 57ed c83c 1ea2 73bc dd34 2f3b
00000300: a92a 38bc 97a6 34bc 813e 2a3a 3237 85bc
00000310: e8bd 85bb 4d84 f0bc d83e 783c 9096 a03c
00000320: 3985 ba3b cff0 88bb 422a 54bc 924a c63b
00000330: 826d a1bc eba4 45bc d9db 733c ac0e 343c
00000340: d2b1 333c 0e07 833c 53d3 69bc aa64 2e3c
00000350: bf0e 863b ba64 ccb9 51b9 87bb 3895 ca3b
00000360: a846 03bb db20 18bc f150 c6ba 8863 0abc
00000370: 20ef e8bc 6fa3 08bd 5499 5c3b 7087 adbb
00000380: aaad 433b d95b 82bc 1814 bebb 6c7a 1b3a
00000390: b559 40ba c3ce 4ebc c52d 16bc 88a0 513c
000003a0: 3fa7 19ba 7291 bcbb 3d51 58bc 8d64 b5bc
000003b0: d4f2 1e3b 36f1 f83a 6e78 7abc 8887 7b3c
000003c0: bda5 efba e4b0 9abc fe14 10bd f98a 413c
000003d0: 2bee 063c 9392 1cbd 0696 ecbc b96b a3bb
000003e0: e11e 96bc 4582 e43b e737 5b3b ff60 373c
000003f0: da0a d7bc 88e3 2abc a559 ebbb 415e 4ebc
-0.0068325517 -0.009898481 0.0014739069 -0.024456173 -0.02639085 0.020218711 -0.0029151689 -0.0020565526
-0.0072207837 -0.011282584 -0.009465157 -0.025964217 -0.020479204 -0.03215547 0.01071412 0.007286291
-0.007616617 -0.019897245 0.015431989 0.016018547 -0.0041067027 -0.0019519604 0.009231166 -0.007984125
-0.0052799517 0.00417922 -0.016772278 -0.003937703 0.0022243254 -0.00026973346 0.002486554 -0.00061683543
-0.016127473 0.0075120595 -0.0048791915 -0.025123294 -0.036639057 0.024895692 -0.0050475667 -0.027738517
0.009463616 -0.003436009 -0.012999967 -0.00012278705 -0.031940397 -0.005485861 0.0103658475 -0.014286247
-0.0018314061 0.011224241 -0.014356525 0.0016919649 0.032329727 -0.0128378095 -0.019218609 -0.009905805
-0.0039913123 0.005656941 -0.025695363 0.004180311 0.0096888 -0.01091261 -0.01459201 -0.011103407
-0.02392308 0.012252788 0.006908852 -0.004411483 0.002270294 -0.00018387382 -0.0025806092 -0.024086162
0.0014151603 -0.023013528 0.002605331 -0.010651939 -0.0049112723 -0.0074704746 -0.012785959 -0.0071955356
-0.012819004 -0.008901896 -0.00073931174 -0.0021285391 -0.013215667 0.0013374882 0.0019687992 -0.01809107
-0.018093726 -0.028842537 0.010408592 0.014583199 -0.00619386 -0.008751255 -0.01023005 0.015888816
-0.022086006 -0.015153287 -0.004325558 0.0145279225 0.044311065 -0.01921872 -0.01090699 -0.025866095
0.003505928 -0.009865091 0.023727717 0.026258657 -0.015370637 0.002239646 -0.023838531 0.0004675159
-0.03805717 -0.004104605 0.000991473 -0.032674003 -0.013670898 0.013799288 0.0035547735 -0.021877455
0.023961358 0.007629314 -0.009615057 0.003190468 -0.011545729 -0.021351174 0.01651378 0.017302329
0.0012413239 0.0044437274 -0.022274138 -0.0077207773 0.0009469402 -0.034166127 -0.020679228 -0.026699536
-0.0036241245 0.008394301 -0.0045124823 -0.015647862 -0.021284897 -0.0061965548 -0.020697234 0.011069036
0.0013941112 0.05873402 -0.0042421324 -0.04016612 0.021997293 -0.008001389 -0.0022740955 0.0030573807
-0.02405357 0.0038248182 -0.04275678 -0.00088870595 0.015477885 0.0003941217 0.006867142 0.006872723
-0.022464233 0.0018055907 -0.03586934 -0.006435793 -0.004190162 0.0011355325 0.0066990745 -0.021724196
0.00029207114 0.011254027 -0.012596619 -0.007420503 -0.007533369 -0.014657864 -0.023039065 -0.0034014883
-0.011666466 0.011798613 -0.01789311 0.003483784 -0.008937182 -0.036503103 -0.03522936 -0.016882729
0.0078077577 0.005599646 -0.021813147 0.008354676 0.0043448866 0.024527235 -0.014870195 0.002673439
-0.01124064 -0.011026046 0.0006494299 -0.01626167 -0.0040814765 -0.02935996 0.015151702 0.019603044
0.005692151 -0.0041790972 -0.012949528 0.00605137 -0.019705538 -0.012063245 0.014883959 0.010989826
0.010967689 0.015994575 -0.014271575 0.010644117 0.0040911133 -0.0003898496 -0.0041419645 0.006182339
-0.0020031128 -0.009285177 -0.0015130324 -0.008446582 -0.028434336 -0.033358987 0.0033660727 -0.0052956864
0.002985815 -0.015912937 -0.005800735 0.0005931023 -0.0007337586 -0.012622538 -0.009166186 0.012794621
-0.00058614084 -0.005754643 -0.013202962 -0.022142673 0.0024253624 0.0018992785 -0.015287502 0.015352137
-0.0018283647 -0.018883176 -0.03517627 0.011812919 0.008235495 -0.03822572 -0.02888013 -0.004987207
-0.018325271 0.006973537 0.0033450068 0.011192559 -0.026250292 -0.010430224 -0.0071823173 -0.012595714

blocks.block0.bn1.running_mean f4 [384]
00000000: 7f3b 1abf f789 77be 0cef 703d e85d dbbd
00000010: ff6a d63d 8613 aebe 805d 733e 79a5 353e
00000020: f7d5 1fbd 3e9a 8cbd 21b5 a23e a8eb 07be
00000030: c310 0c3f 5543 8ebe f296 a2be a067 0d3d
00000040: 39c3 61ba 88b0 98be 4959 f13e 24e3 07bd
00000050: 19d6 13bf 2123 cfbe 37ec db3c bdaa 783f
00000060: e9b8 bfbe 9157 90be b358 17be 83cc 28bf
00000070: 7943 90bd 8d7e 0abf 8259 b93e f029 943e
00000080: b259 e9be 5f34 043e 6b1b 263e 4172 8bbe
00000090: b72b d03a 287a a0be 5a30 853e 8988 ad3e
000000a0: aa6d 103d 82b6 733e 5838 0cbe e9c3 febd
000000b0: 9d11 083f 625a 5abf f9b7 10bd 4f19 943e
000000c0: b17b e83d e752 0abf abdd 42be 4337 fcbd
000000d0: d2b8 b83e a03b 093e e75b 1f3f 6202 523e
000000e0: a114 fd3e 1a1b 033f 20a9 c53e e727 89be
000000f0: 8383 a0be 633d 31be ba27 c1be ad35 3a3f
00000100: 3a1b 683f 97ac a5be 7dff 92bc d78d 3f3e
00000110: e5a4 d53e 552b 1fbe ad40 87be 4581 82bd
00000120: b7a3 ecbd 8aaa 33bf 9557 f63d f4ad 5e3f
00000130: 95b3 55bd 9bf0 c13d 5930 b03c 670a c2be
00000140: 74e6 163c e784 c43d a0b8 92bd 20a6 2d3e
00000150: fa26 693a e07b 533e 3287 f43b c0e0 b5be
00000160: 5408 b9be 4f8f f7bd e24d e0bd 39f5 42bf
00000170: 99fa c93e 1378 4e3d 8f79 23bc 16cf 8dbd
00000180: 5d3b 533e 1bde 26be f17c efbd 3e89 4e3f
00000190: e0fa dcbe cd90 8cbe 4587 873e cc95 53be
000001a0: ce85 00bf c36e 663e df2f 38bf a1ea 193f
000001b0: 7c6f 1dbe 83c1 44be 6c2d 843e 4fdc b3be
000001c0: 2a5c d83c 1db2 923e 8c29 1ebe 5bd3 993e
000001d0: 7f69 6c3d 32fc dbbe ccb5 59bf ec67 253f
000001e0: 5eec b7bb 45c9 e03d d92d 06bf ee5a c9be
000001f0: a66c 913e a7b2 703e 2add ca3d 8f83 d03d
00000200: 0251 18be 9ec1 b03e 9fa3 363e 16e7 373e
00000210: 7cff 323e f907 46be 2eff 2f3e 76ef 1fbe
00000220: 4a11 d43e 50c3 cb3d 51d2 a33d c3bb e0be
00000230: 8062 b9bd 3ffb 543f e4eb f3be d083 6a3e
00000240: 6c29 5fbe b93b a3be c9ba 9b3c ba19 c33e
00000250: 27c8 ae3e 0ac3 62be a33a 923f 1bdc cbbe
00000260: 79e9 87be cf9a fabd df81 ea3e d732 a23e
00000270: 53da a4bd d19a 19bf ea94 a3be 855e 8d3c
00000280: 2f47 8eba 3909 d33e ad7c 0f3f ed1f c4be
00000290: 1e86 f2be 0fd0 173f 8d67 02bd 27aa 35bf
000002a0: c743 eebe fdf9 c63d bc56 a63c 7b5d 273d
000002b0: 7fe8 f33d db3d bebe 8717 72bd 0f73 193e
000002c0: 8b83 2e3e 7780 77be f575 e93d 9400 c0bd
000002d0: 36d3 3dbe c88a b1be 1adb bcbd 656c 1f3e
000002e0: ddce 0bbf f0ad 33bf 6101 78bf 2393 ffbe
000002f0: 279b 913e 5ad3 173e 52fc 10bf 9f46 aabe
00000300: 6e0e d43d d496 693e 53ac 07bf a330 b6bd
00000310: bfe6 99bd 33dc 793d 01b4 b83d c934 a53e
00000320: 8622 d9bd b019 08bf 4062 51be f36a d83e
00000330: 0576 84be 255e a63e 4671 60bc 3e9a 09bf
00000340: dba2 233f 3a4b 0d3f 5ed8 a3be 1057 1f3f
00000350: 5ca4 01bd 1401 26be ebd5 b5bc 10fa c6be
00000360: cf0e a1bd 27e0 c43e aa6a 00bf dc51 71be
00000370: d16a cb3c e6ca 69bf 69f9 b63e 5170 b2bd
00000380: a8dd be3d bee3 373f 90b1 dd3e 8738 98bd
00000390: 8100 0cbe dafa aa3e 04d5 313f 5e39 0bbe
000003a0: 8c03 d83d d919 a4bc cd83 963d 6bb8 7a3e
000003b0: 4940 2cbf fc24 ffbe 11e6 29bf a017 1cbf
000003c0: 983b 1bbf 0231 b3be 5006 d3bd 65e4 14be
000003d0: 1921 35bd 1175 5b3e d5b3 9d3e 3415 cb3e
000003e0: 1d8f bf3c 75a4 a1bc e852 863e 7321 f53e
000003f0: cb8f 7fbf 5799 f3bc 13bd debc c278 8e3d
-0.60247034 -0.24173723 0.058821723 -0.107112706 0.10469627 -0.3399927 0.23766136 0.17738904
-0.039022412 -0.06865357 0.31778815 -0.1327349 0.54713076 -0.27785745 -0.31755787 0.034522653
-0.0008612159 -0.29822183 0.47138432 -0.033175603 -0.5774856 -0.4045649 0.026846034 0.97135526
-0.37445763 -0.28191808 -0.1477993 -0.6593706 -0.070441194 -0.5409935 0.36201102 0.28938246
-0.45576245 0.12910603 0.16221397 -0.27235606 0.0015882169 -0.31343198 0.26013452 0.3389323
0.035260834 0.2380009 -0.13693368 -0.12439711 0.53151876 -0.85294163 -0.0353317 0.2892556
0.11351717 -0.5403275 -0.19029872 -0.12315228 0.36078507 0.13401651 0.62249607 0.20508721
0.494298 0.5121323 0.38605595 -0.26788256 -0.31350335 -0.17308573 -0.3772562 0.7273815
0.90666544 -0.32358238 -0.017944092 0.18706451 0.41727367 -0.15543874 -0.2641653 -0.063723125
-0.11554664 -0.70182097 0.12028424 0.8698418 -0.052173216 0.0946972 0.021507429 -0.3789856
0.009210218 0.095956616 -0.07164121 0.16957903 0.00088940526 0.20652723 0.0074624056 -0.35523033
-0.36139166 -0.12087881 -0.10952355 -0.7615543 0.39449003 0.05040748 -0.009977712 -0.06924264
0.20628114 -0.16295664 -0.116937526 0.80678165 -0.43160152 -0.27454224 0.2647039 -0.20662612
-0.5020417 0.2250319 -0.71948045 0.6012364 -0.15374559 -0.19214444 0.25815904 -0.3512902
0.026411135 0.28651515 -0.15445536 0.30044064 0.057717796 -0.42965847 -0.85043025 0.646117
-0.005612894 0.10975889 -0.5241371 -0.39327186 0.28403205 0.2350565 0.09905465 0.10181343
-0.14874652 0.34522718 0.17835854 0.17959246 0.17480272 -0.19338979 0.17187187 -0.15618691
0.4141944 0.09949362 0.07999099 -0.4389325 -0.090519905 0.8319587 -0.47640908 0.22901845
-0.21793145 -0.31881502 0.019009965 0.38105565 0.3413708 -0.22144714 1.1424145 -0.39816365
-0.26545313 -0.12236559 0.4580221 0.31679413 -0.080494545 -0.60001856 -0.3194955 0.017256984
-0.0010854955 0.41217974 0.56049615 -0.38305607 -0.47367948 0.5930185 -0.031837035 -0.70962757
-0.46536085 0.0971565 0.02030503 0.040860634 0.119095795 -0.37156567 -0.05910447 0.14985298
0.17042367 -0.24170099 0.11399452 -0.0937511 -0.18537602 -0.34676194 -0.09221478 0.15568693
-0.54612523 -0.7018728 -0.96877104 -0.49916944 0.28438684 0.14826718 -0.5663501 -0.33257005
0.10354315 0.22811443 -0.5299732 -0.088959955 -0.075147144 0.061001014 0.09018708 0.32266834
-0.10602288 -0.53164196 -0.20447636 0.42269096 -0.25871292 0.32493702 -0.0136988815 -0.5375098
0.6392037 0.5519291 -0.32001013 0.6224222 -0.031650886 -0.16211349 -0.02219673 -0.38862658
-0.07864153 0.38452265 -0.50162756 -0.23566383 0.024831207 -0.91325223 0.3573716 -0.08712829
0.09319621 0.7183188 0.43299532 -0.07432657 -0.13672067 0.3339451 0.6946566 -0.13596103
0.105475515 -0.020031856 0.07349358 0.24484412 -0.6728559 -0.49832904 -0.6636668 -0.6097355
-0.6063781 -0.34998327 -0.103039384 -0.1454025 -0.044221018 0.21431376 0.30801263 0.39664614
0.023383671 -0.01973174 0.26235127 0.47877082 -0.99828786 -0.029736204 -0.027189767 0.069566265

blocks.block0.bn1.running_var f4 [384]
00000000: 838c 7f3c dea0 b63b fb97 6f3c 1d9e b43c
00000010: 1a05 ac3c 67b9 d73c 8672 7a3c c9cb 9f3c
00000020: deb3 9a3c 8acc a83c 3b86 063c 2fb0 c03c
00000030: 6c7a 003d 9b9a 163d 1b18 1d3c 29a1 a73c
00000040: 4588 c53c a244 a63c 6c2d af3c f400 f63b
00000050: 1593 933c bce7 593c 8e01 c23b d760 ae3c
00000060: 789f 943c a91c dd3c 05fe 133c c2f4 413c
00000070: 4567 a43c a02a c23c 0d64 083c d537 a83c
00000080: 7807 653c 9d31 9d3c d520 923c a4ad c53a
00000090: 7b8f 013d d7a8 643c d6f6 b43c 75a0 783c
000000a0: 710b a43c 00c0 143c bebd 9b3c 9e0d a83c
000000b0: b72e 1d3c 6944 b03c d265 623c 93ea 9d3c
000000c0: 8b2f a13b 8ae2 823c 1366 3b3c b30b 043c
000000d0: 7314 413c 118f ce3b d3e8 6e3c 150d da3c
000000e0: 7276 c13c 565e c63c d3ca 703c 07b0 1a3c
000000f0: fbc2 153d b4b3 ac3c b0c1 fd3c 8cd8 cb3c
00000100: e228 913c 5201 913c 6b24 8b3c 9998 f33c
00000110: ad88 283c 3cf6 973c d69d 933c 038d 553c
00000120: 7704 973c 1c18 063d 7771 ac3c a268 e73c
00000130: 9af1 873c dacc 743c 1cef af3c 3f97 9b3c
00000140: a05b a43c d10e ba3b 628a 923c d7f8 e53c
00000150: 1841 293c 5525 ed3b 9229 a53b 61eb 8a3c
00000160: e946 083d cfaf 3b3c af04 803c 52be 143d
00000170: 83c1 0b3c 1127 8b3c 9e94 813c 71a7 b43c
00000180: d29f f93c 0928 2a3c 29dc 1a3d 0dc5 183d
00000190: f187 c13c 99b2 5d3c bdc6 9b3c 8021 033d
000001a0: 3f79 6b3c c423 a03b b9e4 733c 2340 e93c
000001b0: 8c7d a33c 8d08 a63c 34a2 c63c 8f2f ad3c
000001c0: 61d0 363c f9a0 5f3c 8681 8a3c 8186 f63c
000001d0: 2c56 1b3c 7b6a 913c a4b4 c03c 2a74 a23c
000001e0: 87db 783c aa65 c33c 85b4 a43c 5044 593c
000001f0: 8d32 553c 68ee 953c f4c3 8a3c a26d dd3c
00000200: 9b04 ab3c 0ea2 103d 7358 393c 5c64 f93b
00000210: 671d 963c 1209 853c 88ed 7b3c a472 443c
00000220: 3202 873c 22ef 963b 9a0c b43b e911 0f3c
00000230: 6871 e03b 6bff 383c f612 903c 1e9a ce3c
00000240: 6eae 243c 18d5 e53b dabe c03c 499e cd3c
00000250: 3d88 d83c 2d62 123c d860 cb3c f740 4a3c
00000260: 6a9d a13c 9fab f63c 1824 b53c ca90 0d3d
00000270: 4891 dd3c 34c0 b33c 8b30 b33c e7a1 0c3c
00000280: e4a3 ef3c 89bd 733c 3144 b23c 1f9a dd3c
00000290: e1b6 3f3c 5e97 053c 7634 1f3c f68f 9a3c
000002a0: 79bf 223c 7ced 273c 777b ab3c 62b6 883c
000002b0: 0c12 d73b 0e55 ce3c 316e a03c 59cb 8e3c
000002c0: 99a4 c33c 3d57 cb3c 1099 3f3c f151 b03c
000002d0: 1885 533c 0d82 5f3c 0567 8e3c 5118 5a3c
000002e0: 70f3 923c cd73 e83c 1b97 ae3c e608 8f3c
000002f0: bdd5 c23c 711f a73c a1db a63c 96cb 023d
00000300: e2ef f33c 3b8e a63c 1246 243c 2c0d 743c
00000310: 0bc9 073c ff2f fa3c 989e c23c 055b 1e3c
00000320: b23a ea3c 4e1d 9b3c b59a ec3c d15a df3b
00000330: 75b6 7c3c 89af b43c 595e b33c 720e dc3c
00000340: e31b 013d 2726 023d 6ff4 a63c 6ff6 f43c
00000350: 4d15 903c 19ec 1b3c 36fc a43c c5fc a83c
00000360: d56a 603c 3ffb a23c e33d 943c e6e1 ac3c
00000370: 9ae7 ac3c c307 853c c042 303c 1d3f 743c
00000380: abc1 e73c 513d 0c3d eea5 a03c 4df8 483c
00000390: 6360 b53c 5303 2c3b 5335 d23c 4f72 c03c
000003a0: 4ef2 973c 1e07 883c a055 303c 9dfa a53c
000003b0: d30b 943c cf1e 6c3c d164 803c 02d4 0c3d
000003c0: 1b10 673c f5ca e53c 5146 9e3c 2e94 823c
000003d0: 83a1 993c a2aa f93c a42b db3c e33e bd3c
000003e0: 49af b13c 1676 ad3c 011b 423c 2d82 483c
000003f0: 119c 9c3c 4232 2c3c d4b1 603c aacb 583c
0.015597465 0.005573376 0.014623637 0.02204805 0.020998526 0.026333524 0.015286094 0.019506352
0.018884595 0.020605344 0.008210714 0.02352151 0.03136675 0.036768537 0.009588267 0.02046259
0.02411283 0.020296399 0.021383964 0.007507438 0.01801447 0.013299879 0.0059205955 0.021286411
0.018142447 0.026991205 0.009032731 0.01183814 0.020068774 0.023701966 0.008324635 0.020534435
0.0139788315 0.019188697 0.017837921 0.0015081656 0.031630974 0.01395627 0.022090357 0.015174975
0.020024987 0.0090789795 0.019011375 0.020514306 0.009593657 0.021516996 0.013818221 0.019276893
0.0049189976 0.015977163 0.011437911 0.00805943 0.011784661 0.006303676 0.014581877 0.026617566
0.02361605 0.024214905 0.014696795 0.009441382 0.0365629 0.021081783 0.030976146 0.024883531
0.01771969 0.017700825 0.016985139 0.02973585 0.010286492 0.01855003 0.018019598 0.013034108
0.018434746 0.032737836 0.021050198 0.028248135 0.016594697 0.014941419 0.02147632 0.018993018
0.020063221 0.005678036 0.017888252 0.028072758 0.010330461 0.0072371163 0.005040356 0.01695794
0.03327075 0.01145549 0.015627233 0.036314316 0.0085300235 0.016986402 0.015817937 0.022052499
0.030471716 0.010385522 0.037807617 0.037297297 0.023624392 0.0135313505 0.019015664 0.03201437
0.014372169 0.004887076 0.014886075 0.028472966 0.019957326 0.02026775 0.024247266 0.021140842
0.01115808 0.013649219 0.016907465 0.030093433 0.009480994 0.01775097 0.023523636 0.019830782
0.015189058 0.023852188 0.02010561 0.013260916 0.0130125405 0.018302158 0.01693914 0.027029816
0.02087622 0.035310797 0.011312592 0.0076108407 0.018324567 0.016239677 0.015376456 0.011990223
0.016480539 0.0046061436 0.0054946663 0.008732297 0.0068494566 0.011291365 0.017587166 0.025219973
0.010051353 0.007013928 0.023528505 0.02509989 0.026432151 0.00893454 0.024826452 0.01234459
0.019728381 0.030111132 0.022111937 0.03456191 0.027046815 0.021942236 0.021873733 0.008583522
0.029252954 0.014876732 0.021761032 0.02705103 0.011701317 0.0081537645 0.0097170975 0.018867474
0.009933346 0.010249492 0.020932896 0.01668853 0.0065634307 0.025187042 0.019583793 0.017430948
0.023882197 0.024821872 0.011694208 0.021523448 0.01291015 0.013641846 0.017383108 0.013311462
0.017938346 0.02837553 0.021312287 0.017460298 0.023783559 0.020400735 0.0203684 0.031932436
0.029777471 0.020331493 0.010026472 0.014895719 0.0082876785 0.030540464 0.023757264 0.009665255
0.028592441 0.018934872 0.028882364 0.006816246 0.0154243605 0.022056358 0.021895574 0.026862357
0.031520735 0.031774666 0.020380227 0.029902665 0.017588282 0.009516739 0.020139795 0.020628342
0.013697346 0.019895194 0.018095916 0.02110381 0.02110653 0.016239053 0.010758102 0.0149076255
0.02829059 0.034238163 0.019610371 0.012266231 0.022140687 0.0026247099 0.025660193 0.023492007
0.018548157 0.016604956 0.010762602 0.020261103 0.018072044 0.014411642 0.015673073 0.034381874
0.014102961 0.028050879 0.019320639 0.015939798 0.018753773 0.030476872 0.026754208 0.023101276
0.021690028 0.021174472 0.011847259 0.012238068 0.019117387 0.010510029 0.0137142725 0.013232151

blocks.block0.fc2.weight f4 [384, 384]
00000000: 2f6d bf3c 2179 7cbc d080 693d aec1 b83b
00000010: ffe1 c3bc bb34 033c 36fa c33c 22ee af3b
00000020: c107 0f3d 5d6d 2dbd 459c dc3c 4715 343c
00000030: 8557 913c ef71 5bbc 3513 033c d9c1 76bd
00000040: f4bb 12bd 80ff 14bc 200b 6bbc 717c 323d
00000050: 6def d13c da8e 3a3d 8282 6dbc 384b 0dbd
00000060: 5a00 61bd d63a 293c 71ba 2dbd 8de3 3abd
00000070: b566 81bc 37a4 39bd 232f 74bc cc76 07bd
00000080: 4aff cbbc ef7f 203d 46da 7ebc 5cd6 423d
00000090: e245 b53b 8ab2 84bc 4226 70bc 83a0 07bd
000000a0: 0723 4fbd d33d 213d 6809 aabc a5c4 4fbd
000000b0: 0688 4c3d 3190 cdbb 189e 27bd 1285 3fbd
000000c0: 3ea2 46bd 7d76 2ebd b221 163d daf1 f23c
000000d0: aa41 a9bb 1b06 6ebd d5c4 00bc 1775 1abd
000000e0: ba65 923c 2945 49bc 5001 96bc 6c54 e3bc
000000f0: 9967 c13c 3078 e73c 573b 953c 3842 4d3a
00000100: 0255 bbba baf1 023c 8e06 16bd 68be 713d
00000110: 5b3c 5bbc bcd8 193d a979 25bd 643e 57bb
00000120: e55b bb3c 85c3 14bd f38c 823c 2097 0dbd
00000130: d2a8 a03a 88d3 d4bc 086a a23c 6bfa 553d
00000140: 6d16 ad3b 74a0 093c f396 39bd e7de bf3c
00000150: a223 babc 8939 013d 3748 b6bc d5f5 1b3d
00000160: 60f5 ac3c 74e3 0a3d 4cdb 223c 99ff 6b3c
00000170: 2fbb 27bd dbdb 473d ade2 80ba 192f d13c
00000180: b0a3 aebc 9f7d b0bb 7e77 66bc 1a55 073d
00000190: c97e 0fbd 1c02 80bc 101e ce3c 352b a9bc
000001a0: dcb8 41bd 4333 38bd b132 e2bc a383 273d
000001b0: 2c68 32bd 0b98 c03c a0d0 203d 36e8 f3bc
000001c0: d843 16bd d063 fbbc d579 803c 03c8 c5bc
000001d0: 693b 7d3b 99a7 033d ebe6 7b3c f5e4 56bc
000001e0: f172 023c 6f14 563c 4d9d 2abc 9027 923c
000001f0: 0bb1 24bc dda9 163d 5d46 bf3b 1ec6 9d3b
00000200: c787 19bd e58d 37bd 08af 0bbb bd9f caba
00000210: 131d 01bd 5706 683c 67db 133c 7b23 cc3c
00000220: dd88 253d 724f acbc 8833 1bbd 9ad3 39bb
00000230: 2c09 0abc 4743 97bc bc45 8cbc bfb8 e1bb
00000240: 8b6f e53c 92c1 303d 1b99 e83c 9446 7839
00000250: 5070 6abb 427d a53c b753 7c3b 9698 013b
00000260: d61a 4e3a 6cba 0dbd 891a 19bd f419 873b
00000270: 61c5 afbc b849 04bd 9e28 5bbd 57b6 333d
00000280: b55b 773b b748 d9bc fdc0 80bc 2e00 753c
00000290: 8287 19bd 2aff 713c 008d 1cbc cc87 b23b
000002a0: 3a50 213c 6b59 a6bc 778e cd3b 656c 0d3d
000002b0: 4b9c c2bb f6f3 9d3c f8a6 93bc fda7 ddbb
000002c0: cd4c 993c fcb7 d2bc 75ef f43c fdae 2cbd
000002d0: 64e3 8abc a459 cdbc 6700 17bd e3f4 d2bc
000002e0: 40cb 39bd e212 173a fcf0 65bc 5d37 45bd
000002f0: d6ab 63ba 9e40 99bc 05c2 9b3c e467 68bd
00000300: 3a60 09bc a975 a53c 9438 003c 45d9 aa3b
00000310: 97e2 0a3c b10f 723d 7898 7abc fef2 153d
00000320: 103e 4b3d de40 3abd 70a7 903c a832 313d
00000330: 9bc9 a8bc f41e 093d 0e5b 1d3c ce81 023d
00000340: 54a1 d3bc 0529 e0bc 47fc 483d ad0d ab3c
00000350: 7ed8 4f3d dd7d aa3c 9b87 db3b 3113 b93c
00000360: a890 783c a2f2 f1bc 9741 803b 4bdb eabc
00000370: d360 f83b 7e23 b5bc f552 433c 5a85 30bd
00000380: 1c01 0c3d e8b3 22bd d46c e73c 981c ef3c
00000390: 7d20 54bd cd58 3b3d 0918 0cbd d31a 84bc
000003a0: f447 163d 596f 18bc e112 163d 1cdf bbbc
000003b0: cb6c 8bbc dd7a e6bc 86fc d8bc 34e8 653d
000003c0: 6f18 3f3d 75a1 263c abcf e53b 3dd8 4fbd
000003d0: 6e28 fe3c e8af b3bc 2114 5fbc 1b4e 8bbd
000003e0: 1f6f 063d 1115 133d 6c70 083d 5c0e 13bb
000003f0: 9ac0 02bd ce7f 9338 b6da 313c 6be4 553c
0.023367492 -0.015409739 0.05700761 0.005638323 -0.023911474 0.008008177 0.02392302 0.005368964
0.034919504 -0.042340625 0.026929984 0.010991401 0.017741928 -0.013393863 0.008000185 -0.06024346
-0.035823777 -0.009094119 -0.014345914 0.043575708 0.025626862 0.04554639 -0.0144964475 -0.034495562
-0.054931976 0.010328969 -0.042414133 -0.045627166 -0.015796045 -0.045322623 -0.014903816 -0.033072278
-0.024902005 0.039184507 -0.01555497 0.04756771 0.0055320123 -0.016198415 -0.014657559 -0.03311206
-0.050570514 0.0393656 -0.020756438 -0.050724644 0.04993441 -0.0062732925 -0.040922254 -0.046757765
-0.04849457 -0.042593468 0.036653228 0.02965634 -0.0051652985 -0.05811129 -0.007859428 -0.03770932
0.017870773 -0.0122845555 -0.018311173 -0.027750216 0.02360897 0.028255552 0.018216772 0.0007829997
-0.0014292302 0.007992202 -0.036627345 0.059019476 -0.013381089 0.03756021 -0.040399227 -0.0032843584
0.022870967 -0.036319274 0.01593635 -0.034567952 0.0012257344 -0.025979772 0.01982595 0.05224077
0.0052822144 0.008400071 -0.045309972 0.023421718 -0.02272207 0.03154901 -0.022251232 0.03807624
0.021113098 0.033908322 0.00993998 0.014404201 -0.040949997 0.048793655 -0.000983318 0.025535153
-0.021318287 -0.005386069 -0.014066575 0.033040144 -0.03503302 -0.015626006 0.02516082 -0.020650486
-0.047295436 -0.044970762 -0.027612062 0.040897023 -0.043556377 0.02351 0.03926146 -0.029773813
-0.036685795 -0.030687243 0.015683094 -0.024143225 0.0038640148 0.032142255 0.015374879 -0.013116111
0.0079619745 0.013066395 -0.01041348 0.01784113 -0.010051976 0.036783088 0.0058372454 0.004814877
-0.037483003 -0.044813056 -0.0021314044 -0.0015458983 -0.031521868 0.014161668 0.009024478 0.024919262
0.040413726 -0.021033976 -0.03789094 -0.0028354884 -0.008425038 -0.018464698 -0.017123096 -0.0068884785
0.02800729 0.043153353 0.028393319 0.00023677415 -0.003577251 0.02020133 0.0038502046 0.0019774786
0.0007862275 -0.034601614 -0.03737882 0.004122967 -0.021456422 -0.032296866 -0.053505532 0.043875065
0.003774387 -0.026523931 -0.015717024 0.014953656 -0.037482746 0.0147703085 -0.009555101 0.005448317
0.009845788 -0.02030631 0.0062730866 0.0345272 -0.0059390417 0.019281369 -0.018023953 -0.0067644105
0.01871338 -0.025722496 0.029899338 -0.04215907 -0.016954131 -0.025067158 -0.036865618 -0.025751537
-0.04535985 0.00057630066 -0.014034506 -0.0481485 -0.00086849683 -0.01870757 0.019013414 -0.056739703
-0.008384759 0.020197706 0.007825989 0.005213889 0.008476875 0.059096996 -0.01529514 0.03660869
0.049619734 -0.04547202 0.017657965 0.0432612 -0.020603945 0.033476785 0.009604229 0.031862073
-0.025833763 -0.02736331 0.049068715 0.020880545 0.050743572 0.02081197 0.006699515 0.022592159
0.0151712075 -0.029534642 0.003914069 -0.02866902 0.0075799017 -0.02211165 0.011921634 -0.043095924
0.034180745 -0.039722353 0.028250135 0.02918844 -0.051788796 0.045738984 -0.03420261 -0.016126072
0.036689714 -0.009303891 0.036639098 -0.022933535 -0.01701965 -0.028134758 -0.0264876 0.05612965
0.04665416 0.01017033 0.0070132813 -0.05074333 0.031025138 -0.021934465 -0.013615639 -0.06802007
0.032820817 0.035908762 0.03331034 -0.0022438979 -0.03192196 7.033312e-05 0.010855367 0.013054947

blocks.block0.fc2.bias f4 [384]
00000000: 81de 4c3c 0c9b 953b a058 453c 44b7 48bc
00000010: c9f4 5a3b 6b2f 83bc c1c8 d53c 89e9 3abd
00000020: bd3c 27bc 1192 69bc f108 f23c 0ff0 2c3d
00000030: ca5a fb3c 3db3 3c3d 0fa6 3b3d eb5b a0bc
00000040: 911b d9bb 3522 333d 0ab9 d53b 8401 283d
00000050: 25c8 b53c 0198 413d df07 2c3d b058 43bd
00000060: d16a fabc a414 6abc cb24 a0bc c505 2a3d
00000070: cb6e 46bd 8247 4c3d 76b3 073d 0829 bd3c
00000080: 15dd 1bbd a820 07bd a594 13bc 4b3a 12bd
00000090: 169c ccbb b019 2bbd 88d1 adbc 6e5f d0bc
000000a0: 9028 85bc a2cd 82bc 04b9 e6bc cc6a 863c
000000b0: 0310 04bd 4463 033d 8984 a53c 862f bfbb
000000c0: 0e1f 38bb 9b1d 053d d160 4c3d 2132 053d
000000d0: f6b3 9d3c ed3a 2bbd d6b4 86bb cb77 cebc
000000e0: 4a35 393c f450 4abd 2313 393d fb83 76bc
000000f0: 3abc 293d 4d78 16bd aac3 5dbb edf9 9e3c
00000100: 8940 ed3c e5aa c7bc 9e13 09bc d23b be3b
00000110: b0b4 cc3c cdbb 8bbc cd22 b93c bc7f 373d
00000120: 4668 83bb 4f77 13bd 87a4 f3ba efcd ce3c
00000130: 095f d4bc 3388 013c 0656 0d3d a2a4 30bb
00000140: deee 0e3d fe0f 0a3c fccb 403d 9b48 c6bb
00000150: 7deb fdbc 287b 1bbd 11cc 6a3c d64f e7bc
00000160: 709e 4cbd b58b 553c c199 43bd 8676 353d
00000170: 3fa6 843c e3cc 2a3c 8969 dc3c ac42 e9bc
00000180: 5c98 083c 1ae6 f63b 8daa 34bb b65b 0b3c
00000190: 4357 873c d294 b23c a975 0d3c 41b1 cebc
000001a0: 48db 45bc 51d9 c5bc ac80 1d3d d5f7 303d
000001b0: bb44 a5bc 692e 35bd 2008 5e3b dd77 41bd
000001c0: 9a10 b8bc 11d1 2cbc 5e17 adbb efba f8bb
000001d0: 57d5 47bd c043 063d 76d4 7a3c 654a 393d
000001e0: eab6 153d 52c5 8dbc 684f e93c 67f3 e93c
000001f0: a374 383c 53c6 f6bc 6681 cabc b8a0 e3bb
00000200: b56f dd3c 7135 25bd 3d31 0c3d 3a91 383d
00000210: 8e0b 0fbc 8428 f33c 3428 263d f951 ecbb
00000220: eab2 adbc b20f b3bc b1ff 1b3d 30d9 18bd
00000230: c680 d83b 1452 cfbb d5a5 783b 5473 f3bb
00000240: 1643 653c 823d c2bc d4ce 133d ac9b 42bd
00000250: f053 263d a04e 63bc d2eb 12bd 7087 923c
00000260: 2c12 183d f609 4cbd 1e6c 3dbd 8dd5 fc3c
00000270: 2aa4 80bc e504 2a3d f013 2d3d 4511 403d
00000280: a511 acbc 6c66 7a3c 72aa c9bc 6c4e 23bd
00000290: 0884 2bbd cca4 313c e491 3c3d b3a3 a4bc
000002a0: 4293 30bb e728 053b 685d bfbc dbd5 3abd
000002b0: c330 59bc 1c85 e7bc c79b 48bd 5710 8fbc
000002c0: 0221 963c e1dd 823c dd8e 81bc 440a 91bb
000002d0: 27a2 1d3d d1a9 cfbc c382 28bc 35f2 2cbd
000002e0: e2b6 533c 9347 873c 3d99 d7bb 35c3 e73c
000002f0: 27f6 63bc 9c9d 1e3d 673f 223d 9ca2 393d
00000300: 1bee 47bd 8267 fb3c 1c5d 873c 8668 fc3c
00000310: 5796 213c ae7a b33c 8171 083d 962f 5f39
00000320: dbcb 3e3c f35e e6bb 5174 8f3c 3809 9b3a
00000330: e152 013d 260a c5bb 2fc5 253d 0ed9 10ba
00000340: ae7d 05bd 9132 aebc e022 3d3d aacb 81bc
00000350: e6b5 6bbc fa6e 113c 277f 4c3d f77e b4bb
00000360: 242a ffbc 2c6f aa3c 6fc1 433d 7fbd 093d
00000370: e0ac e8bc 6137 323d 551d 913c 276b ff3b
00000380: 07eb 3e3d 926d 3b3c 7d5b 49bb 3a25 cdbc
00000390: b18d cb3c c950 05bd 53d6 e03c 6fac cebc
000003a0: 3b10 743c 8bc1 923c ec1b 243d e681 4abb
000003b0: 8bdd 353c 6a67 663c cd63 323d b14d 2dbc
000003c0: 52b7 cd3b 1373 3bbd 57d7 183d 2102 1dbd
000003d0: 9928 5dbc e9d4 42bd 5224 bfb9 81ea fcbc
000003e0: ce46 b9bc 095e 11bb 0fe7 57bc 206a 7fbb
000003f0: 08e8 143d 6a5a 5b3c 8497 febc 3d71 4abd
0.012504221 0.004565602 0.012045056 -0.012250725 0.0033410063 -0.016013822 0.026096703 -0.045632873
-0.010207352 -0.014256016 0.02954528 0.042221125 0.03068294 0.046069372 0.045812663 -0.01957508
-0.0066256006 0.043733794 0.0065223025 0.04101707 0.022190163 0.047264103 0.041999694 -0.047692
-0.030568512 -0.014287148 -0.019548794 0.04150941 -0.048445504 0.049872883 0.03313013 0.023090854
-0.038052637 -0.032990128 -0.009007608 -0.035700124 -0.006244193 -0.041772544 -0.021218076 -0.02543613
-0.016254693 -0.015967194 -0.028164394 0.016408347 -0.032241832 0.03207709 0.0202048 -0.0058345227
-0.0028094682 0.032498937 0.04989702 0.03251851 0.019250851 -0.041804243 -0.004110913 -0.025203606
0.011304209 -0.04939361 0.045184266 -0.015046115 0.041439272 -0.03673582 -0.0033838549 0.019406283
0.028961437 -0.024373481 -0.0083664935 0.005805471 0.024988502 -0.017057324 0.022599602 0.04479955
-0.004010233 -0.036002453 -0.0018588462 0.025244681 -0.025924223 0.007906008 0.034505866 -0.0026953598
0.03489577 0.008426664 0.047069535 -0.0060511357 -0.030996079 -0.037959248 0.01433088 -0.02823631
-0.049955785 0.013033797 -0.047754053 0.044302486 0.016192554 0.010424825 0.026905792 -0.028474174
0.008337107 0.0075347545 -0.0027567476 0.008505752 0.016521102 0.021799479 0.008634009 -0.025231006
-0.0120762065 -0.024151476 0.03845279 0.0432051 -0.020174375 -0.044233713 0.0033879355 -0.04723345
-0.022468854 -0.010547892 -0.0052823266 -0.0075906436 -0.04878744 0.032779455 0.015309444 0.045236964
0.036551394 -0.017306004 0.028480247 0.028558446 0.011258277 -0.030123865 -0.024719905 -0.0069466494
0.027030805 -0.04033417 0.034226645 0.045060374 -0.008730782 0.029682405 0.040565684 -0.0072119203
-0.021203477 -0.02185807 0.038085643 -0.0373165 0.006607148 -0.006326923 0.003794064 -0.0074295197
0.013993045 -0.02371097 0.03608592 -0.04751174 0.040607393 -0.013873726 -0.035869427 0.017886847
0.037126705 -0.049814187 -0.046245687 0.030863548 -0.01570328 0.041508574 0.042255342 0.04689147
-0.021004507 0.015283208 -0.024617407 -0.03986971 -0.04187396 0.010842513 0.04603757 -0.02009759
-0.0026943241 0.002031857 -0.02335997 -0.045614105 -0.013256255 -0.028261714 -0.048976686 -0.017463846
0.018326286 0.01597494 -0.015815193 -0.0044262726 0.03848472 -0.02534953 -0.010285082 -0.042223174
0.012922021 0.016513621 -0.0065795467 0.028291324 -0.013913668 0.038724527 0.039611246 0.045321092
-0.04881106 0.030689005 0.01652389 0.03081156 0.009862504 0.021909084 0.03331137 0.00021284664
0.011645283 -0.007030362 0.017511519 0.0011828309 0.03157318 -0.0060131727 0.040471252 -0.0005525508
-0.03259056 -0.021264346 0.046175838 -0.015844185 -0.01438663 0.0088765565 0.04992595 -0.0055082995
-0.031148024 0.020804964 0.047791895 0.033627983 -0.028402746 0.043509845 0.017714182 0.007794756
0.04661086 0.011439698 -0.0030724697 -0.025042165 0.024847837 -0.032547746 0.027445948 -0.025228707
0.014896448 0.017914554 0.04006569 -0.003090018 0.011100183 0.014062742 0.04355221 -0.010577605
0.006277957 -0.04576404 0.03731474 -0.03833211 -0.013498449 -0.04756633 -0.0003645742 -0.030873539
-0.02261677 -0.0022181293 -0.013177647 -0.0038973168 0.036354095 0.013388256 -0.031078108 -0.0494244
