results/7DoF-7R-Panda/ResMLP_7DoF-7R-Panda_layers_1_neurons_384_batch_250000_Adam_l2_1_qlim_scale_10_samples_1000000/epoch_60.pth (torch, 649529 bytes, 20 tensors)

blocks.block0.fc1.weight f4 [384, 6]
0.002951821 0.260227 -0.3626178 -0.27798438 -0.13875926 0.099369496 0.029852536 0.325091
-0.036036525 0.11469691 -0.09005853 -0.08010793 -0.3618472 -0.23506384 -0.1661516 0.036130145
0.18006486 0.27154988 -0.17035376 -0.19912468 0.16043387 0.36756095 -0.06939119 0.3309817
-0.066281036 0.04009102 0.36705562 -0.41555673 -0.17760138 -0.06779269 -0.122051865 0.30270007
-0.28779182 -0.18712355 -0.23713526 -0.42469847 -0.22319525 0.26138973 0.12271678 0.27688855
0.025521036 -0.26744306 0.10374847 -0.36108425 -0.29694536 -0.18461408 0.22181875 0.26921058
-0.17714539 -0.012268645 0.27018204 0.4042198 0.16864556 0.039869472 0.26136887 -0.25965565
0.09716963 -0.33961442 -0.23699543 -0.20195031 0.17603551 0.16845572 -0.29599157 0.13808408
0.16707955 -0.029036554 -0.032821286 0.11933702 0.22102566 0.46604472 -0.23177348 -0.19781828
0.1326291 0.22381037 0.33655667 0.42656076 0.04340684 -0.36177352 0.043889664 -0.2777599
-0.37926963 0.3414415 0.32659525 -0.41031766 0.092608236 -0.039290283 -0.069830656 -0.2033236
0.19498128 -0.19510165 0.15543672 0.19806536 0.3047624 0.14841461 -0.39319658 -0.26380253
0.20614038 0.02541571 -0.3087751 -0.24845408 0.3632703 0.31588966 -0.15520135 -0.06630102
-0.39130023 0.018178916 -0.30537245 -0.33802828 -0.030464586 0.10620432 -0.15301687 0.25134775
-0.20972383 0.38917592 0.27838683 -0.3491245 -0.116031855 0.015644196 0.05109053 0.070097595
0.14843744 0.0009151457 -0.2039497 0.23614751 -0.32337788 -0.25700542 -0.075959615 -0.18728356
-0.09166343 -0.36362976 -0.10193286 0.08715803 -0.19870491 0.0026093626 0.34500235 -0.066641286
0.017755963 -0.0060394043 0.08129966 0.25665355 0.3774694 0.27334163 0.3899954 0.009360027
-0.39543694 -0.13571234 0.27748352 0.008128033 -0.1636997 -0.32797334 -0.38406506 -0.30688652
-0.100624435 0.23208393 0.15360202 -0.42690948 0.251611 -0.29759744 -0.10948679 -0.15976427
-0.08933605 -0.1240439 -0.3620033 -0.38018307 -0.09647798 0.007278415 -0.1583906 0.12170065
-0.3020841 -0.026505047 0.38847739 -0.1372205 0.41931537 0.16316503 -0.32398817 0.23301467
-0.067126215 -0.23234054 0.27355012 -0.3619598 0.093124926 -0.050770886 0.27981144 0.11341395
0.19752495 0.15826319 -0.03959716 -0.07436117 -0.35632423 0.24758573 0.33126128 0.25354382
-0.25154072 0.014277517 -0.28011435 -0.21865465 -0.2525112 0.1498728 -0.25131965 0.023653498
-0.01755581 0.28956813 -0.2772376 -0.27929243 -0.16482 0.24251546 -0.13679549 0.44456306
0.13721552 -0.013936869 0.05235018 -0.019753125 0.055779796 -0.08948595 -0.0058375727 0.10253529
-0.24471012 -0.15992899 0.32636976 -0.3706491 -0.019987922 0.4253553 0.06510628 0.01140141
-0.37229395 0.22772557 -0.22859003 -0.16525126 -0.08392737 -0.05689352 0.092675224 0.33797288
0.06874292 0.36645338 0.24299192 -0.22893956 0.17584051 -0.30560333 -0.13905962 0.17579354
0.119374104 0.27898195 -0.11028254 0.01788652 0.20891841 -0.4417188 0.30726042 -0.36214834
-0.012560889 -0.06379359 -0.15664628 0.06626314 0.32437876 -0.042383995 -0.22410591 -0.16976784
00000000: 5773 413b 793c 853e 0aa9 b9be f853 8ebe
00000010: e816 0ebe 3c82 cb3d 4e8d f43c 5472 a63e
00000020: 099b 13bd 37e6 ea3d 9b70 b8bd a00f a4bd
00000030: 0944 b9be 93b4 70be a523 2abe 34fd 133d
00000040: ec62 383e 9608 8b3e 3771 2ebe 57e7 4bbe
00000050: c748 243e f330 bc3e f81c 8ebd 6f76 a93e
00000060: 5abe 87bd 7b36 243d b7ee bb3e dac3 d4be
00000070: 23dd 35be e5d6 8abd 54f6 f9bd 81fb 9a3e
00000080: 7359 93be 519d 3fbe 96d3 72be 1472 d9be
00000090: 4c8d 64be e0d4 853e ef52 fb3d 56c4 8d3e
000000a0: 7e11 d13c 4cee 88be 147a d43d 09e0 b8be
000000b0: 3909 98be 790b 3dbe 7424 633e f8d5 893e
000000c0: 9a65 35be 6d02 49bc 4d55 8a3e e6f5 ce3e
000000d0: 6cb1 2c3e 2c4e 233d 24d2 853e 96f1 84be
000000e0: df00 c73d f1e1 adbe eeae 72be 10cc 4ebe
000000f0: a742 343e a87f 2c3e 358c 97be ea65 0d3e
00000100: e716 2b3e 11de edbc 9d6f 06bd f866 f43d
00000110: 8d54 623e 6a9d ee3e 0756 6dbe e090 4abe
00000120: eccf 073e 8c2e 653e 2851 ac3e 2c66 da3e
00000130: 5fcb 313d 613a b9be a6c5 333d 8c36 8ebe
00000140: a12f c2be 6cd1 ae3e 7e37 a73e 2815 d2be
00000150: 63a9 bd3d d9ee 20bd 6003 8fbd 1034 50be
00000160: 2ca9 473e bac8 47be ce2a 1f3e a5d1 4a3e
00000170: d109 9c3e 00fa 173e 1051 c9be 2011 87be
00000180: 7716 533e 9b34 d03c c517 9ebe bf6a 7ebe
00000190: 91fe b93e 4abc a13e 1aed 1ebe d4c8 87bd
000001a0: 8158 c8be f3eb 943c c759 9cbe 0b12 adbe
000001b0: de90 f9bc a781 d93d 74b0 1cbe a7b0 803e
000001c0: d8c1 56be 1142 c73e b888 8e3e 72c0 b2be
000001d0: 1ca2 edbd 4228 803c 4e44 513d 548f 8f3d
000001e0: fcff 173e 63e6 6f3a 31d8 50be a7d0 713e
000001f0: c991 a5be 3796 83be b790 9bbd 43c7 3fbe
00000200: 09ba bbbd ae2d babe 2dc2 d0bd e97f b23d
00000210: 4d79 4bbe d701 2b3b 26a4 b03e 3a7b 88bd
00000220: f474 913c 32e6 c5bb 7080 a63d 1868 833e
00000230: ab43 c13e 6ff3 8b3e 7aad c73e cc5a 193c
00000240: b676 cabe 2df8 0abe 5212 8e3e 712b 053c
00000250: e5a0 27be 1fec a7be 2da4 c4be 3b20 9dbe
00000260: 2f14 cebd 69a7 6d3e d949 1d3e e193 dabe
00000270: 28d3 803e b15e 98be 9c3a e0bd 3f99 23be
00000280: d2f5 b6bd ba0a febd 7f58 b9be 5ba7 c2be
00000290: 3f96 c5bd c57f ee3b 2531 22be 313e f93d
000002a0: c4aa 9abe 1d21 d9bc 82e6 c63e 8883 0cbe
000002b0: 81b0 d63e bc14 273e c7e1 a5be 669b 6e3e
000002c0: 7879 89bd aeea 6dbe c30e 8c3e cb52 b9be
000002d0: 48b8 be3d 22f5 4fbd 7243 8f3e 9345 e83d
000002e0: fb43 4a3e bf0f 223e a230 22bd ab4a 98bd
000002f0: 2170 b6be 1d87 7d3e 149b a93e 7fd0 813e
00000300: f2c9 80be 3fec 693c 266b 8fbe 01e7 5fbe
00000310: 2649 81be 4178 193e f8ac 80be fbc4 c13c
00000320: 34d1 8fbc 4642 943e 16f2 8dbe 6bff 8ebe
00000330: 93c6 28be f955 783e 1e14 0cbe c59d e33e
00000340: 3a82 0c3e 7757 64bc 246d 563d 4ed1 a1bc
00000350: 5b79 643d 6944 b7bd 1c49 bfbb 06fe d13d
00000360: 4a95 7abe 6dc4 23be f019 a73e b8c5 bdbe
00000370: b6bd a3bc 2bc8 d93e 7156 853d fbcc 3a3c
00000380: 509d bebe e430 693e 8113 6abe a037 29be
00000390: 1de2 abbd 2e09 69bd 82cc bd3d c80a ad3e
000003a0: 17c9 8c3d c79f bb3e e0d2 783e 226f 6abe
000003b0: 890f 343e 0a78 9cbe a565 0ebe 3903 343e
000003c0: 697a f43d b9d6 8e3e d0db e1bd c086 923c
000003d0: b5ee 553e f728 e2be 3d51 9d3e 826b b9be
000003e0: 30cc 4dbc 37a6 82bd e267 20be f8b4 873d
000003f0: f914 a63e d79a 2dbd 057c 65be 9fd7 2dbe

blocks.block0.fc1.bias f4 [384]
-0.3815028 -0.3605478 0.23799953 -0.23951837 0.3016592 0.13074109 0.09770374 0.33003953
-0.37519246 0.29505047 0.13769338 -0.27574655 0.09759049 -0.11122879 -0.15365289 -0.04291578
-0.19099599 0.34953412 0.35297453 -0.04155607 -0.3578684 -0.021164307 0.028802563 0.2782788
0.008320927 0.11620807 0.10206848 -0.24232474 -0.25314748 -0.3588458 0.011570645 0.1294451
-0.035975117 0.40019408 -0.082196094 -0.26881033 0.06626567 -0.1094865 -0.05424477 0.39594325
-0.013642755 0.35418522 0.051070854 -0.14977048 0.31873664 -0.23111859 0.015896782 0.09442877
0.18055882 -0.37367022 0.016169371 -0.104571514 0.25803986 0.136097 0.16898522 0.24842173
-0.093304604 -0.03374384 0.32616952 -0.3319281 -0.28479975 0.0262825 -0.16306879 0.029637503
0.3625907 -0.048999883 -0.3459952 -0.18419415 0.36419582 -0.09256823 -0.17817973 0.18162881
0.046548393 -0.3573949 0.33455816 0.23994322 0.3559265 0.17694205 -0.13559926 -0.13993907
0.20010836 -0.076877825 0.08171383 -0.39601594 -0.20170288 0.15336812 -0.02289169 -0.20032576
-0.35614327 0.25760928 -0.0814596 -0.3960996 0.40200862 0.20288864 -0.24781324 -0.294578
0.38987467 -0.005607099 -0.24640565 0.22370353 -0.085653104 0.026327478 -0.20671257 -0.3489585
-0.27787867 -0.055361904 -0.2993193 0.39098817 0.0023108276 -0.1573048 0.16585435 -0.35359904
-0.21588618 0.1524523 -0.34192583 0.19713856 0.036305968 -0.3456656 -0.40556774 0.12420095
0.19518226 -0.08457446 -0.36805767 -0.24175423 0.040100083 0.016883275 0.10364701 0.07044595
-0.020228868 0.21492793 0.40179676 0.33695024 0.3736715 -0.13739209 -0.14184359 -0.043441363
0.12788112 0.16665086 -0.0319049 -0.2815522 -0.31107977 0.38760504 -0.11805714 -0.05664812
-0.2533175 -0.16736056 0.090263575 0.17898136 -0.1642837 -0.15260372 0.32123655 -0.20413731
-0.30796415 -0.062412 0.39598382 0.09051571 0.057553537 -0.054779753 0.24679123 -0.20451982
0.27672496 0.09270578 0.047782063 0.055221725 -0.2536949 0.3059296 0.21342485 -0.32983556
-0.38322636 -0.11191602 0.26798728 -0.19947012 0.38267463 -0.2088454 -0.36374092 0.18585713
-0.24396004 -0.069784954 -0.124550104 -0.029066889 -0.35059273 -0.3689959 0.17709571 -0.041548602
-0.23518914 -0.010152353 -0.38096806 0.11194212 0.18843634 0.39229202 -0.3305064 -0.043560233
0.22366357 0.36988458 -0.2832779 0.17026679 0.17773016 0.24773546 -0.2816565 0.30286846
-0.1797191 -0.23830593 0.0779059 0.3171906 -0.27735934 0.21402758 -0.042194933 0.13183638
0.30616993 0.10530802 -0.34260005 -0.1352354 0.08086393 -0.35248134 0.06933723 -0.21985053
-0.08283964 0.14233026 -0.32947972 -0.26158875 0.18226513 -0.39817363 0.2759367 -0.31237772
-0.008168754 0.08867791 0.15482092 -0.25075468 0.05866378 0.16177525 0.34905246 -0.30646688
-0.20546539 0.12254018 -0.013012554 -0.27016604 -0.34134513 -0.36872837 -0.28980294 -0.17174476
-0.2782011 -0.35816115 0.034724806 0.23557986 -0.1951907 0.040345747 -0.003270022 0.1946046
-0.27791676 0.020903436 0.3858366 0.28560838 -0.41092187 -0.058531493 0.0034186435 -0.13474675
00000000: 5654 c3be b999 b8be 26b6 733e 4e44 75be
00000010: 1373 9a3e fee0 053e e618 c83d f1fa a83e
00000020: 3a19 c0be db10 973e 7eff 0c3e a72e 8dbe
00000030: 86dd c73d ebcb e3bd 2f57 1dbe 75c8 2fbd
00000040: 7494 43be 23f6 b23e 14b9 b43e b336 2abd
00000050: 873a b7be c560 adbc 5af3 eb3c 8f7a 8e3e
00000060: 7f54 083c 7ffe ed3d 4709 d13d fa23 78be
00000070: 8c9c 81be a3ba b7be cd92 3d3c 428d 043e
00000080: a55a 13bd 3de6 cc3e 6d56 a8bd 82a1 89be
00000090: 4cb6 873d 753a e0bd c42f 5ebd 13b9 ca3e
000000a0: dd85 5fbc c457 b53e ac2f 513d 6f5d 19be
000000b0: 7331 a33e 5aaa 6cbe f839 823c df63 c13d
000000c0: 69e4 383e b451 bfbe a175 843c 9729 d6bd
000000d0: cd1d 843e 035d 0b3e 760a 2d3e 4462 7e3e
000000e0: 7c16 bfbd fb36 0abd b1ff a63e 7bf2 a9be
000000f0: 46d1 91be 664e d73c 81fb 26be 59ca f23c
00000100: 7da5 b93e 1ab4 48bd 4826 b1be 649d 3cbe
00000110: e077 ba3e 6a94 bdbd bf74 36be e7fc 393e
00000120: 87a9 3e3d 77fc b6be 354b ab3e adb3 753e
00000130: 003c b63e 4c30 353e 88da 0abe 304c 0fbe
00000140: 35e9 4c3e 1f72 9dbd 9559 a73d 9ac2 cabe
00000150: 338b 4ebe 880c 1d3e 5a87 bbbc 3222 4dbe
00000160: 6958 b6be 5de5 833e 4ad4 a6bd 91cd cabe
00000170: 13d4 cd3e 0ac2 4f3e c1c2 7dbe edd2 96be
00000180: a79d c73e c1bb b7bb c351 7cbe 8a12 653e
00000190: e56a afbd b9ac d73c 76ac 53be b0aa b2be
000001a0: 1d46 8ebe 2ac3 62bd 6140 99be 9a2f c83e
000001b0: 4171 173b 8214 21be b9d5 293e ef0a b5be
000001c0: 4411 5dbe 751c 1c3e e710 afbe b1de 493e
000001d0: 91b5 143d 15fb b0be 93a6 cfbe 115d fe3d
000001e0: dcdd 473e 6035 adbd 0e72 bcbe 6c8e 77be
000001f0: fc3f 243d cb4e 8a3c e244 d43d f745 903d
00000200: 03b7 a5bc 1116 5c3e 4eb8 cd3e be84 ac3e
00000210: df51 bf3e 83b0 0cbe 723f 11be 92ef 31bd
00000220: 45f3 023e 86a6 2a3e b6ae 02bd 9c27 90be
00000230: d945 9fbe 2b74 c63e f1c7 f1bd dc07 68bd
00000240: d5b2 81be 9160 2bbe 1cdc b83d e446 373e
00000250: fc39 28be 2644 1cbe 1e79 a43e 5f09 51be
00000260: 7aad 9dbe baa3 7fbd 64be ca3e 4d60 b93d
00000270: 42bd 6b3d bc60 60bd d7b6 7c3e a56d 51be
00000280: e5ae 8d3e 87dc bd3d 20b7 433d 2d30 623d
00000290: 4ce4 81be cea2 9c3e 0b8c 5a3e 35e0 a8be
000002a0: 3f36 c4be 3a34 e5bd a135 893e e541 4cbe
000002b0: eeed c33e 92db 55be 403c babe 5551 3e3e
000002c0: a9d0 79be 6aeb 8ebd 2014 ffbd af1d eebc
000002d0: e480 b3be 08ed bcbe 9458 353e de2e 2abd
000002e0: 6cd5 70be 0e56 26bc 3f0e c3be e941 e53d
000002f0: 75f5 403e 80da c83e 2338 a9be 376c 32bd
00000300: 1008 653e 8361 bd3e cd09 91be 6b5a 2e3e
00000310: e5fe 353e 5dae 7d3e 4835 90be 9311 9b3e
00000320: 4908 38be 7806 74be 218d 9f3d ce66 a23e
00000330: 0b02 8ebe 0c2a 5b3e 98d4 2cbd 1e00 073e
00000340: 4ec2 9c3e bbab d73d 4669 afbe 267b 0abe
00000350: fd9b a53d 6f78 b4be ad00 8e3d 7f20 61be
00000360: d4a7 a9bd 06bf 113e 91b1 a8be f6ee 85be
00000370: b6a3 3a3e 6add cbbe 9347 8d3e f9ef 9fbe
00000380: 3dd6 05bc c49c b53d 6089 1e3e eb62 80be
00000390: 6f49 703d 69a8 253e 01b7 b23e 3ae9 9cbe
000003a0: 8565 52be 59f6 fa3d 9b32 55bc 3453 8abe
000003b0: cac4 aebe f7c9 bcbe 0d61 94be dcdd 2fbe
000003c0: 6070 8ebe e660 b7be 993b 0e3d d93b 713e
000003d0: 12e0 47be 9541 253d de4d 56bb 6e46 473e
000003e0: 1b4b 8ebe af3d ab3c 608c c53e 433b 923e
000003f0: 5a64 d2be b8be 6fbd 520b 603b 0dfb 09be

blocks.block0.bn1.weight f4 [384]
1.005103 1.0033213 0.97425777 1.0188138 0.99883 1.009069 1.0140183 0.9780615
0.9852204 0.9969428 0.98889583 0.9958877 1.0255934 1.0149771 1.0076265 0.9902302
0.99219 0.9800089 1.0105389 1.0041554 0.9943282 1.0004969 1.0312083 0.99340004
0.98549074 0.9961182 0.98227805 0.97646177 0.99415827 0.9970705 0.9614284 0.9976133
0.99045515 1.0186592 0.98007935 1.015674 1.0004691 1.0145831 1.0116886 0.98609823
1.0001401 0.99815744 0.9921957 1.0041462 0.9535235 1.0034412 0.9961166 1.0191599
1.0120164 1.0181301 1.0014808 0.98678267 1.0116291 0.97674805 0.9947707 0.9739153
1.0024111 1.0021813 0.9985476 0.98875886 0.9972586 0.98771316 0.9691881 0.9852083
1.0034199 0.9742171 0.99329543 0.98374176 1.0004967 0.9930057 1.0246502 0.9912497
0.988811 1.0170357 1.005884 0.96674055 1.002309 1.0514153 0.98644316 0.9861593
0.9847294 0.96537316 0.9864014 0.9908829 1.0149734 0.98954624 1.0048435 0.987141
1.0030675 0.96721196 1.0062457 1.0160841 0.96928173 1.001019 0.9693595 1.0479584
1.009968 0.9758679 1.0142311 1.018761 1.0158225 1.0208309 0.99296063 0.99826527
0.9634807 1.0055988 0.96281064 1.0275927 1.0129861 0.9986731 1.0013397 1.0185323
1.0097418 1.0224304 1.0187365 1.008438 0.9747948 0.9924215 0.98842895 1.0084097
0.9890521 1.027228 1.013441 0.98734814 1.018701 1.0060245 1.0123323 1.0064529
0.99657774 0.99335045 0.9811079 0.9979945 0.9757859 0.9836535 0.99646 1.0062287
0.9753956 0.9970869 0.9941296 0.9830606 0.99112684 1.0233924 1.002704 1.0029764
0.9862442 1.0967962 0.9824744 0.9677656 1.0241536 1.0059026 0.99583495 1.0025805
0.9908791 1.0385914 0.97476184 0.98312587 0.99670124 0.9729963 0.9840039 0.980014
0.98997474 1.0101806 0.9675933 1.0187368 1.0042357 0.9973852 1.0225965 0.9744707
0.9924787 1.0205374 0.9991692 0.99438334 0.9372872 0.9987268 1.0056123 0.9918328
1.0032821 0.9827971 0.99687415 0.9930872 1.029075 1.0069587 1.0125918 0.9903758
1.0215933 0.9897779 0.99467254 1.0003434 1.010007 1.013058 1.035471 1.0117424
0.9952528 1.0162145 0.99902815 0.9972362 1.0420625 0.9863013 1.0160294 0.97986186
0.96258986 1.0348552 0.99118775 1.0583688 0.9961472 1.0142279 1.0300113 0.98269403
1.0353142 1.0121496 0.9822524 1.0156478 0.9927474 0.9820486 1.0092622 0.9713078
1.003991 0.99411225 0.99557465 0.9931731 0.9998475 1.0810764 1.0012654 1.0186962
1.0241264 0.9797237 1.0085379 0.9873622 0.994921 1.0612727 0.99454814 1.0194839
1.0020971 1.0168667 1.0116031 0.99041754 1.0001721 0.98191184 1.0077435 1.0099478
1.0064313 0.98821133 1.0170504 0.9828151 0.9821109 1.0213794 0.97646755 0.9580921
0.988792 0.998256 0.9842111 1.0268761 0.98432285 1.0010589 0.998923 1.011446
00000000: 37a7 803f d56c 803f f568 793f 7e68 823f
00000010: 53b3 7f3f 2c29 813f 5acb 813f 3d62 7a3f
00000020: 6737 7c3f a537 7f3f 4728 7d3f 7ff2 7e3f
00000030: a546 833f c5ea 813f e8f9 803f ba7f 7d3f
00000040: 2a00 7e3f dde1 7a3f 5759 813f 2a88 803f
00000050: 4b8c 7e3f 4810 803f a2fe 833f 774f 7e3f
00000060: 1f49 7c3f 9a01 7f3f 9376 7b3f 66f9 793f
00000070: 2881 7e3f 0340 7f3f 2c20 763f 9663 7f3f
00000080: 788e 7d3f 6d63 823f 7be6 7a3f 9b01 823f
00000090: 5f0f 803f dcdd 813f 037f 813f ef70 7c3f
000000a0: 9704 803f 3f87 7f3f 8a00 7e3f dd87 803f
000000b0: 1e1a 743f c370 803f 7f01 7f3f d573 823f
000000c0: c189 813f 1652 823f 8630 803f ca9d 7c3f
000000d0: 107d 813f 290c 7a3f 4ba9 7e3f 8352 793f
000000e0: 024f 803f 7a47 803f d1a0 7f3f 4d1f 7d3f
000000f0: 574c 7f3f c5da 7c3f b61c 783f 9c36 7c3f
00000100: 1070 803f 4b66 793f 9c48 7e3f 80d6 7b3f
00000110: 4710 803f 9f35 7e3f bd27 833f 8ac2 7d3f
00000120: b822 7d3f 3a2e 823f cfc0 803f 4f7c 773f
00000130: a94b 803f c794 863f 8a87 7c3f f074 7c3f
00000140: 3a17 7c3f b222 773f cd84 7c3f 80aa 7d3f
00000150: a6ea 813f e752 7d3f b69e 803f 46b5 7c3f
00000160: 8464 803f 349b 773f a9cc 803f 0b0f 823f
00000170: d922 783f 6421 803f f227 783f 8023 863f
00000180: a246 813f 7bd2 793f 53d2 813f c366 823f
00000190: 7906 823f 96aa 823f ab32 7e3f 508e 7f3f
000001a0: aca6 763f 76b7 803f c27a 763f 2888 833f
000001b0: 87a9 813f 0aa9 7f3f e62b 803f 445f 823f
000001c0: 383f 813f 00df 823f f565 823f 7f14 813f
000001d0: 278c 793f 560f 7e3f ae09 7d3f 9213 813f
000001e0: 8532 7d3f 357c 833f 6fb8 813f d9c2 7c3f
000001f0: cb64 823f 69c5 803f 1b94 813f 73d3 803f
00000200: b81f 7f3f 374c 7e3f e329 7b3f 917c 7f3f
00000210: 1bcd 793f b7d0 7b3f 0118 7f3f 1acc 803f
00000220: 87b3 793f 1641 7f3f 477f 7e3f dca9 7b3f
00000230: 7dba 7d3f 86fe 823f 9b58 803f 8861 803f
00000240: 807a 7c3f d163 8c3f 7183 7b3f 7dbf 773f
00000250: 7717 833f 6bc1 803f 0aef 7e3f 8f54 803f
00000260: 41aa 7d3f 90f0 843f fe89 793f 23ae 7b3f
00000270: d027 7f3f 4916 793f aee7 7b3f 33e2 7a3f
00000280: fc6e 7d3f 994d 813f 32b4 773f f865 823f
00000290: cc8a 803f a354 7f3f 71e4 823f e976 793f
000002a0: 1613 7e3f f8a0 823f 8dc9 7f3f e88f 7e3f
000002b0: 0ef2 6f3f 8fac 7f3f e7b7 803f c1e8 7d3f
000002c0: 8c6b 803f 9798 7b3f 2533 7f3f f63a 7e3f
000002d0: bbb8 833f 06e4 803f 9c9c 813f 4589 7d3f
000002e0: 92c3 823f 1662 7d3f dca2 7e3f 410b 803f
000002f0: e947 813f e2ab 813f 508a 843f c680 813f
00000300: e3c8 7e3f 5113 823f 4fc0 7f3f df4a 7f3f
00000310: 4e62 853f 3e7e 7c3f 400d 823f 3ad8 7a3f
00000320: 4a6c 763f 2376 843f 7bbe 7d3f a178 873f
00000330: 8103 7f3f 38d2 813f 69d7 833f d691 7b3f
00000340: 2d85 843f 1e8e 813f e574 7b3f bf00 823f
00000350: b224 7e3f 8967 7b3f 812f 813f a1a7 783f
00000360: c782 803f 247e 7e3f fbdd 7e3f 9840 7e3f
00000370: 01f6 7f3f b660 8a3f 7729 803f a364 823f
00000380: 9316 833f 2ccf 7a3f c517 813f c5c3 7c3f
00000390: 25b3 7e3f c9d7 873f b59a 7e3f 737e 823f
000003a0: b844 803f b028 823f 367c 813f 018c 7d3f
000003b0: a405 803f 935e 7b3f bdfd 803f f845 813f
000003c0: bed2 803f 6bfb 7c3f b52e 823f c599 7b3f
000003d0: 9f6b 7b3f 8fbc 823f c7f9 793f 8645 753f
000003e0: 7921 7d3f b58d 7f3f 42f5 7b3f ad70 833f
000003f0: 95fc 7b3f b322 803f 6bb9 7f3f 1077 813f

blocks.block0.bn1.bias f4 [384]
-0.068991445 -0.015379922 -0.022021977 -0.08774163 -0.07479035 0.026454251 0.02003598 -0.018101506
-0.0043873084 -0.0006030673 -0.065431975 -0.072524905 -0.03615707 -0.09882386 -0.0055882647 -0.024557462
-0.0004896613 -0.02752684 -0.00070175464 0.120855294 -0.032248877 0.00023453568 0.0065200184 -0.010263456
0.015226611 -0.07655529 -0.08415234 -0.015300583 0.014675503 -0.03245768 0.0008037268 -0.017616356
-0.020708773 -0.005388936 -0.048478782 -0.044958346 -0.035969075 0.028501397 0.012075942 -0.04078555
0.018245647 0.0018851937 -0.016123408 -0.0281678 -0.11245013 -0.041613024 0.011303961 -0.019709827
0.0028737893 0.03695589 -0.029781327 -0.006047694 0.07538179 -0.031023309 -0.02510592 0.018303353
0.0139824655 0.00059544283 -0.051234167 0.035425015 0.0943789 -0.0029380415 -0.04924506 -0.048085753
-0.07107037 0.043541912 0.0010900948 -0.057411727 -0.025500016 -0.032377645 -0.11381117 -0.03677067
-0.027110197 -0.07929999 -0.012195258 -0.047499433 -0.0006861548 -0.0631172 -0.033809874 0.052731924
-0.057257626 -0.009336478 -0.09566119 -0.015945865 -0.012712036 0.047801014 -0.0070196763 -0.037001766
-0.022667885 -0.05851711 0.06715675 0.021933239 -0.03246529 0.040587716 0.016235013 0.055932585
-0.10406728 -0.029377142 0.012473822 0.040363424 0.12605497 -0.039928768 -0.0077302507 -0.10763379
0.0753708 -0.025802623 0.05938452 0.07499774 -0.007878263 -0.01954344 -0.012191994 0.032684956
-0.06214839 -0.08649259 -0.002325395 -0.110605754 -0.010005593 0.051167674 0.015867056 -0.09153616
0.042279653 0.006701929 -0.02574361 0.0073167766 -0.0561401 -0.05688752 0.04691626 0.058941852
0.023343965 0.018292084 -0.013764967 -0.027546052 0.052224725 -0.06621345 -0.11259399 -0.040516857
0.0011241648 0.034068223 0.009611159 -0.027326243 -0.057896554 -0.051346526 0.020312952 -0.012017238
0.030346738 0.1880895 -0.032919493 -0.10816999 0.016299717 -0.031908475 -0.03883582 -0.009235183
-0.088324405 0.030648666 -0.09465364 -0.03004933 0.057722576 0.045387123 0.048956163 -0.0071848715
-0.07107958 -0.005428923 -0.04904385 -0.030870955 -0.000367725 -0.01246171 0.03647175 -0.021150323
-0.018257493 0.017724335 -0.054991715 -0.008429179 -0.023991847 -0.040847324 -0.053689107 0.0061784144
-0.06657741 0.052079845 -0.013667817 0.015758688 0.03344972 -0.12890577 -0.1134847 -0.07061015
-0.027417636 0.013538448 -0.087397724 0.046945944 0.011450378 0.038613584 -0.12025334 0.08986745
-0.073736824 -0.02469222 -0.0141184125 -0.06337547 -0.098746136 -0.03981164 0.017035445 -0.057308484
-0.061042298 -0.08012527 -0.03320267 -0.0034115757 -0.02021581 -0.03630211 0.048650153 -0.033862237
0.0567001 0.0146258045 -0.03190107 0.106049396 -0.031121863 0.013568056 0.026881415 0.007470122
-0.016007086 -0.045811392 -0.012719286 -0.028248532 -0.05383443 -0.13509004 0.009851907 -0.055243548
-0.009581532 0.020785866 -0.008460321 -0.008421941 -0.022060337 0.040653452 -0.056489125 0.06873815
-0.010162158 -0.013505436 -0.076578684 0.0019074813 0.006167686 -0.0074945935 0.0013259536 0.056988183
-0.0006495735 -0.06902726 -0.023104208 -0.00403436 0.011442315 -0.15690425 -0.11498077 0.016043117
0.018137904 -0.014212584 -0.039709635 0.009068473 -0.09942868 -0.06465584 -0.005212858 -0.041662984
00000000: 634b 8dbd 12fc 7bbc 6f67 b4bc e2b1 b3bd
00000010: af2b 99bd 96b6 d83c 7f22 a43c 9c49 94bc
00000020: 69c3 8fbb 2917 1eba 3301 86bd f087 94bd
00000030: 7019 14bd 2a64 cabd c31d b7bb bb2c c9bc
00000040: 9d5c 00ba f87f e1bc f5f5 37ba fb82 f73d
00000050: 6617 04bd b1ed 7539 e1a5 d53b 0e28 28bc
00000060: 0979 793c 05c9 9cbd 1058 acbd 4caf 7abc
00000070: 8571 703c 58f2 04bd 31b1 523a 2d50 90bc
00000080: 72a5 a9bc ac95 b0bb b091 46bd 3e26 38bd
00000090: 4f54 13bd c37b e93c 2cda 453c c00e 27bd
000000a0: e577 953c 9b18 f73a 3d15 84bc 28c0 e6bc
000000b0: 414c e6bd 6b72 2abd 4034 393c 8176 a1bc
000000c0: 2f56 3c3b 0f5f 173d f8f7 f3bc bc2b c6bb
000000d0: c561 9a3d 9824 febc eeaa cdbc eaf0 953c
000000e0: b616 653c 7e17 1c3a ebda 51bd d219 113d
000000f0: ba49 c13d 288c 40bb 30b5 49bd 91f5 44bd
00000100: 588d 91bd 0159 323d 83e1 8e3a 8f28 6bbd
00000110: 69e5 d0bc 6c9e 04bd d515 e9bd d89c 16bd
00000120: 3416 debc 0868 a2bd 9fce 47bc c48e 42bd
00000130: 12df 33ba 9743 81bd 397c 0abd 6efd 573d
00000140: f986 6abd 07f8 18bc 04ea c3bd e7a0 82bc
00000150: 2546 50bc ffca 433d 5005 e6bb 2a8f 17bd
00000160: 00b2 b9bc a3af 6fbd 7a89 893d 56ad b33c
00000170: 53fa 04bd 4e3f 263d 4aff 843c 9119 653d
00000180: 3a21 d5bd 55a8 f0bc 005f 4c3c 1e54 253d
00000190: 8e14 013e 598c 23bd 0b4e fdbb 1b6f dcbd
000001a0: 025c 9a3d 0660 d3bc 2f3d 733d 6a98 993d
000001b0: d413 01bc 9019 a0bc eec0 47bc a9e0 053d
000001c0: 4f8f 7ebd 0723 b1bd a765 18bb 4585 e2bd
000001d0: 80ee 23bc 3295 513d a1fb 813c 4f77 bbbd
000001e0: 6e2d 2d3d db9b db3b 43e4 d2bc 92c1 ef3b
000001f0: 29f3 65bd e302 69bd 442b 403d 036d 713d
00000200: d83b bf3c 48d9 953c 7586 61bc 42a8 e1bc
00000210: 98e9 553d eb9a 87bd ae97 e6bd 01f5 25bd
00000220: b658 933a 1f8b 0b3d 1f78 1d3c 49db dfbc
00000230: f024 6dbd bc50 52bd 5967 a63c f3e3 44bc
00000240: b999 f83c 899a 403e 97d6 06bd 3a88 ddbd
00000250: fc86 853c 76b2 02bd 4f12 1fbd 2a4f 17bc
00000260: 6de3 b4bd e912 fb3c c5d9 c1bd 032a f6bc
00000270: 826e 6c3d d9e7 393d 4286 483d 126f ebbb
00000280: 2c92 91bd 1be5 b1bb 34e2 48bd 16e5 fcbc
00000290: 37cb c0b9 332c 4cbc 6763 153d 7143 adbc
000002a0: bd90 95bc a032 913c fe3e 61bd 8a1a 0abc
000002b0: 8d8a c4bc 864f 27bd 1ce9 5bbd 4c74 ca3b
000002c0: bd59 88bd ad51 553d fbee 5fbc 5d18 813c
000002d0: 9302 093d e0ff 03be ab6a e8bd 0e9c 90bd
000002e0: f39a e0bc 5ed0 5d3c 94fd b2bd 644a 403d
000002f0: 5e9a 3b3c 4729 1e3d 6247 f6bd 6d0c b83d
00000300: 5503 97bd 5747 cabc ea50 67bc 00cb 81bd
00000310: 6a3b cabd 8811 23bd eb8d 8b3c 4dbc 6abd
00000320: 7d07 7abd b818 a4bd 86ff 07bd be94 5fbb
00000330: a09b a5bc 85b1 14bd 6245 473d 21b3 0abd
00000340: 5d3e 683d 12a1 6f3c b2aa 02bd 6d30 d93d
00000350: 47f3 febc 8d4c 5e3c 6a36 dc3c edc7 f43b
00000360: 4b21 83bc baa4 3bbd 8d64 50bc 7769 e7bc
00000370: 7e81 5cbd 0b55 0abe e569 213c 0f47 62bd
00000380: dcfb 1cbc 1f47 aa3c 299d 0abc 2efc 09bc
00000390: e1b7 b4bc 3c84 263d 2461 67bd 96c6 8c3d
000003a0: 2e7f 26bc e745 5dbc 49d5 9cbd 7404 fa3a
000003b0: 4d1a ca3b 3595 f5bb 9fcb ad3a 716c 693d
000003c0: 2448 2aba 2a5e 8dbd 0945 bdbc aa32 84bb
000003d0: 8c78 3b3c 82ab 20be 0a7b ebbd db6c 833c
000003e0: f195 943c e6db 68bc 92a6 22bd ef93 143c
000003f0: 44a1 cbbd 486a 84bd 9fd0 aabb cea6 2abd

blocks.block0.bn1.running_mean f4 [384]
-0.5910635 -0.2255581 0.09792291 -0.03528103 0.14204963 -0.34613174 0.20053232 0.20064339
-0.028487017 -0.047639858 0.30001673 -0.10603212 0.49984893 -0.29085007 -0.2667329 0.03527192
-0.014362782 -0.27000025 0.52934957 -0.06823814 -0.5582841 -0.39091584 0.07659961 0.9741605
-0.35914347 -0.299134 -0.16285303 -0.6763519 -0.002760411 -0.5922031 0.4063995 0.30827826
-0.4564694 0.14534412 0.17445646 -0.22505806 0.04457703 -0.34112912 0.30539545 0.35379583
0.023399828 0.23790018 -0.09217266 -0.0724947 0.5217475 -0.8272443 -0.011728043 0.30332968
0.09606816 -0.5423951 -0.17457305 -0.12579216 0.33544368 0.12899607 0.588681 0.17586727
0.5059124 0.52759576 0.38825193 -0.29139224 -0.20856297 -0.13157558 -0.33734185 0.6691826
0.91779226 -0.3233595 -0.011965754 0.17896418 0.40788764 -0.12905554 -0.28369293 0.012808444
-0.1548517 -0.58427066 0.10087598 0.85698926 -0.06506493 0.0684417 0.020498352 -0.35154578
0.030030144 0.09956824 -0.066038296 0.18234912 -0.027647471 0.21302061 0.02622298 -0.39412704
-0.3670587 -0.14327417 -0.17208956 -0.7523342 0.40572402 0.05119602 -0.026816031 -0.1286732
0.238318 -0.16648015 -0.0982113 0.8471248 -0.40720698 -0.2631472 0.26548705 -0.20825891
-0.4814374 0.1837029 -0.69720083 0.61874014 -0.17035098 -0.16105044 0.25456104 -0.344364
0.0393669 0.30578047 -0.20757973 0.291739 0.093884766 -0.38372976 -0.8524888 0.6872151
-0.0046875156 0.16551512 -0.49059692 -0.39242038 0.26393524 0.24333547 0.11627512 0.09583307
-0.1306824 0.2991658 0.15195774 0.19740967 0.17589904 -0.22451168 0.090703845 -0.080243796
0.43679908 0.08716827 0.100147344 -0.4495598 -0.10193922 0.786695 -0.4549969 0.2695873
-0.15553904 -0.3457892 -0.03498178 0.35991153 0.3588759 -0.2639544 1.0948731 -0.38221312
-0.26692578 -0.07206589 0.48716277 0.35082895 -0.06337613 -0.6166969 -0.32955134 -0.029986229
0.0015819519 0.44443747 0.57418984 -0.4246442 -0.5034013 0.59527344 -0.026930751 -0.67821324
-0.4946989 0.1342139 0.044297747 0.04643405 0.11798231 -0.39432013 -0.064885795 0.13511725
0.17669822 -0.26733014 0.12171099 -0.062287204 -0.22141623 -0.403008 -0.096531525 0.11747506
-0.5875826 -0.69358003 -0.9392712 -0.44216108 0.31664887 0.081574224 -0.6525429 -0.3850827
0.10172509 0.26336652 -0.5458363 -0.10762712 -0.053581852 0.063365325 0.112088904 0.33126253
-0.13859156 -0.5312634 -0.12769833 0.5005297 -0.24932036 0.26919827 -0.034642838 -0.52470714
0.6391744 0.48529133 -0.28397942 0.61505425 -0.048128497 -0.18797728 -0.028797485 -0.44006187
-0.09803246 0.3464022 -0.45920256 -0.25411373 0.07795618 -0.869546 0.37382668 -0.051910087
0.07558625 0.7162486 0.43660742 -0.074480586 -0.124181435 0.3357888 0.71818745 -0.13225174
0.03443103 0.03798157 0.05106244 0.24410535 -0.6758913 -0.44746342 -0.66424996 -0.6273053
-0.5858073 -0.3617059 -0.12136455 -0.16734122 -0.018305086 0.290253 0.30575004 0.38896024
-0.05127384 -0.016214224 0.26283205 0.46311986 -1.0068737 -0.02427545 -0.07458569 0.1123842
00000000: f04f 17bf b4f8 66be ce8b c83d d782 10bd
00000010: 7575 113e 2e38 b1be 5858 4d3e 7675 4d3e
00000020: 9b5d e9bc 0322 43bd cb9b 993e 5e27 d9bd
00000030: 33ec ff3e 4dea 94be 3791 88be 4a79 103d
00000040: e051 6bbc 793d 8abe 7483 073f 70c0 8bbd
00000050: b5eb 0ebf 1f26 c8be 42e0 9c3d 9562 793f
00000060: a7e1 b7be 1728 99be f2c2 26be 6625 2dbf
00000070: 03e8 34bb 9f9a 17bf 9813 d03e a6d6 9d3e
00000080: 5bb6 e9be 17d5 143e b7a4 323e 9f75 66be
00000090: 6796 363d 7aa8 aebe cb5c 9c3e ba24 b53e
000000a0: ffb0 bf3c 1b9c 733e 05c5 bcbd 1a78 94bd
000000b0: 3f91 053f 48c6 53bf fa26 40bc 074e 9b3e
000000c0: 62bf c43d 68da 0abf 47c3 32be a9cf 00be
000000d0: 46bf ab3e 8c17 043e ccb3 163f 8d16 343e
000000e0: 7a83 013f 8410 073f f5c8 c63e 5d31 95be
000000f0: 8891 55be c0bb 06be 12b8 acbe 8d4f 2b3f
00000100: 6ff4 6a3f 608f a5be 030c 44bc 6342 373e
00000110: a6d6 d03e 2327 04be 3340 91be 82da 513c
00000120: 7291 1ebe c392 15bf 1198 ce3d a663 5b3f
00000130: c340 85bd 292b 8c3d 29ec a73c cffd b3be
00000140: c701 f63c 6fea cb3d 163f 87bd bab9 3a3e
00000150: f37c e2bc 1322 5a3e 93d1 d63c 05cb c9be
00000160: 1eef bbbe 77b6 12be 3f38 30be f998 40bf
00000170: 0fbb cf3e ebb2 513d 4bad dbbc e8c2 03be
00000180: a209 743e c679 2abe 0223 c9bd 2cdd 583f
00000190: 6f7d d0be 3bbb 86be ebed 873e d341 55be
000001a0: f77e f6be 9d1c 3c3e c17b 32bf c165 1e3f
000001b0: 7d70 2ebe 68ea 24be d355 823e 7a50 b0be
000001c0: 303f 213d 428f 9c3e c88f 54be d05e 953e
000001d0: a846 c03d 3a78 c4be b53c 5abf 54ed 2f3f
000001e0: bb99 99bb cc7c 293e 852f fbbe 53eb c8be
000001f0: 8522 873e ef2c 793e a621 ee3d 2144 c43d
00000200: 9bd1 05be 422c 993e cf9a 1b3e c325 4a3e
00000210: e11e 343e 64e6 65be f0c2 b93d dc56 a4bd
00000220: 21a4 df3e 4785 b23d 0d1a cd3d b42c e6be
00000230: 83c5 d0bd d864 493f 5bf5 e8be 5907 8a3e
00000240: a045 1fbe 480b b1be 0e49 0fbd 5346 b83e
00000250: 95be b73e 0825 87be cd24 8c3f 70b1 c3be
00000260: 7faa 88be 4897 93bd 666d f93e da9f b33e
00000270: 58cb 81bd d9df 1dbf f4ba a8be aea5 f5bc
00000280: 7f59 cf3a 4f8d e33e 1bfe 123f f76a d9be
00000290: e8de 00bf d763 183f e19d dcbc 629f 2dbf
000002a0: 2d49 fdbe 5e6f 093e 8e71 353d a131 3e3d
000002b0: b6a0 f13d 54e4 c9be d8e2 84bd 2d5c 0a3e
000002c0: 61f0 343e 7fdf 88be 9d43 f93d de20 7fbd
000002d0: f0ba 62be 1157 cebe 52b2 c5bd c496 f03d
000002e0: d06b 16bf 768e 31bf 1474 70bf f062 e2be
000002f0: cd1f a23e 6310 a73d 0d0d 27bf 8f29 c5be
00000300: 3e55 d03d fad7 863e eebb 0bbf 9c6b dcbd
00000310: a578 5bbd aec5 813d de8e e53d 3e9b a93e
00000320: f2ea 0dbe e100 08bf 5ac3 02be b722 003f
00000330: d64d 7fbe 5bd4 893e a6e5 0dbd 3553 06bf
00000340: efa0 233f 1b78 f83e c065 91be 3274 1d3f
00000350: 6322 45bd 1e7d 40be b4e8 ebbc ca4f e1be
00000360: 3ec5 c8bd a15b b13e 991c ebbe 321b 82be
00000370: 7da7 9f3d 919a 5ebf 3666 bf3e ac9f 54bd
00000380: f7cc 9a3d 115c 373f 028b df3e 4789 98bd
00000390: d652 febd 82ec ab3e 22db 373f 006d 07be
000003a0: 8d07 0d3d 9092 1b3d d926 513d c1f6 793e
000003b0: 3607 2dbf ed19 e5be 490c 2abf 1597 20bf
000003c0: 78f7 15bf 8431 b9be fa8d f8bd 7f5b 2bbe
000003d0: 8cf4 95bc 0b9c 943e 458b 9c3e cc25 c73e
000003e0: 8504 52bd b1d3 84bc ec91 863e 0c1e ed3e
000003f0: 3de1 80bf 4fdd c6bc 62c0 98bd b029 e63d

blocks.block0.bn1.running_var f4 [384]
0.015190788 0.0054466208 0.014643353 0.023786714 0.021363245 0.026917713 0.016656041 0.018889783
0.018810308 0.020341922 0.008092486 0.026216794 0.032480728 0.036625423 0.0089439005 0.020238847
0.024450563 0.020358011 0.021244835 0.007356137 0.017308095 0.013799001 0.006027338 0.020941125
0.018461764 0.028507397 0.009037841 0.0114797745 0.020508546 0.024071498 0.008236622 0.020494072
0.013784647 0.019112691 0.020856539 0.0017517388 0.0331898 0.014344322 0.021625288 0.015961545
0.021638975 0.009017937 0.019183002 0.02232245 0.009615649 0.023199962 0.013890829 0.019660927
0.0049746213 0.015985072 0.013351593 0.008010112 0.013563072 0.0062822406 0.014564574 0.026534159
0.023277339 0.024644721 0.015158783 0.009720147 0.042882204 0.021636182 0.032138772 0.025744732
0.018192336 0.017834766 0.016744463 0.029491534 0.0102413185 0.019691283 0.018503428 0.013489408
0.018374626 0.035520453 0.021670656 0.028155435 0.017190961 0.015083945 0.021923007 0.01983077
0.020393645 0.0054379166 0.01841318 0.028389776 0.009981145 0.007477129 0.0049066693 0.01672957
0.033651024 0.012013967 0.015569538 0.035668567 0.009003281 0.016579757 0.015443178 0.022706738
0.031158509 0.010376218 0.039355565 0.039165884 0.02376849 0.01406056 0.020129783 0.033312835
0.014131278 0.0036810876 0.014837633 0.030112391 0.019784916 0.021108123 0.024515156 0.021890575
0.011545875 0.0134690115 0.018362653 0.030393822 0.009516576 0.018691862 0.02449918 0.020209027
0.015524851 0.025430802 0.020204686 0.013449503 0.01302062 0.01808227 0.017417148 0.027138647
0.021578815 0.036036056 0.011139994 0.0072658868 0.018390186 0.016861452 0.015901858 0.011523572
0.01632937 0.0048264116 0.00538846 0.008431884 0.0065107434 0.011877941 0.01947363 0.02892168
0.009505694 0.007815473 0.022847144 0.025273105 0.0271193 0.00877809 0.024970641 0.012708115
0.019029805 0.031537138 0.022677 0.035159282 0.027337868 0.021446917 0.023074778 0.009123434
0.030706404 0.018266562 0.022222681 0.030999538 0.011906809 0.007575751 0.009463956 0.019161846
0.009797737 0.009613613 0.020931019 0.018197065 0.006478422 0.026170589 0.01963678 0.01743447
0.024464604 0.024662487 0.012197865 0.021482807 0.013491736 0.0137938615 0.018080698 0.013865998
0.017456869 0.028688528 0.02102978 0.016033454 0.024697138 0.02151892 0.02005018 0.034392342
0.029674886 0.020602794 0.010773431 0.014159228 0.007102221 0.033741336 0.025770454 0.009997394
0.030453367 0.019981302 0.029114194 0.0071400884 0.015902849 0.023224847 0.022561314 0.02695501
0.034527697 0.03184022 0.021493798 0.030329017 0.01710009 0.00932996 0.019895157 0.021351539
0.015087601 0.022030788 0.017951638 0.02111482 0.022629892 0.014720969 0.0110441 0.015751371
0.030489294 0.035770208 0.021379193 0.012961193 0.022884777 0.0026847543 0.025553666 0.022726707
0.021122143 0.015931355 0.010643858 0.02019091 0.017560199 0.015474212 0.016408272 0.033262983
0.013425905 0.027448762 0.02030386 0.015647253 0.020385334 0.03078711 0.025391452 0.02369599
0.023110362 0.02277821 0.0114075355 0.012604439 0.019622045 0.010980693 0.013289455 0.012736386
00000000: c8e2 783c 9179 b23b adea 6f3c 5bdc c23c
00000010: f901 af3c 8982 dc3c 4072 883c bfbe 9a3c
00000020: 1318 9a3c 1aa4 a63c 5996 043c 9ac4 d63c
00000030: 830a 053d 8a04 163d 7089 123c f0cb a53c
00000040: 8c4c c83c d8c5 a63c a609 ae3c c00b f13b
00000050: b5c9 8d3c 3515 623c fa80 c53b b98c ab3c
00000060: 203d 973c 5888 e93c 7413 143c aa15 3c3c
00000070: 8a01 a83c 9731 c53c e6f2 063c 2fe3 a73c
00000080: 00d9 613c 3892 9c3c 55db aa3c 9a9a e53a
00000090: 07f2 073d 7204 6b3c 8427 b13c c9c1 823c
000000a0: 3844 b13c f8bf 133c ac25 9d3c 92dd b63c
000000b0: f48a 1d3c d90d be3c 5c96 633c f40f a13c
000000c0: 2602 a33b 20f3 823c a4c0 5a3c d83c 033c
000000d0: a637 5e3c 41db cd3b 40a0 6e3c 2a5e d93c
000000e0: 1eb0 be3c bae3 c93c 8b5c 783c 4041 1f3c
000000f0: 40a5 2f3d 5d3e b13c f2a3 033d 9ee6 d23c
00000100: 1808 953c 371a 923c af2b 893c 3b98 f13c
00000110: 34cb 273c 9d4f a13c 8094 973c ae02 5d3c
00000120: 6286 963c e57d 113d a986 b13c 3aa6 e63c
00000130: 0fd4 8c3c a722 773c e197 b33c 2474 a23c
00000140: 9310 a73c 8d30 b23b 3dd7 963c ad91 e83c
00000150: f587 233c b402 f53b 20c8 a03b 740c 893c
00000160: a8d5 093d 3bd6 443c 6017 7f3c 3419 123d
00000170: 7f82 133c 45d2 873c 6205 7d3c 7b03 ba3c
00000180: 2140 ff3c 0301 2a3c 4d33 213d 686c 203d
00000190: 23b6 c23c 435e 663c 37e7 a43c 0a73 083d
000001a0: e086 673c 673e 713b 8b19 733c 43ae f63c
000001b0: fa13 a23c f1ea ac3c 02d4 c83c dd53 b33c
000001c0: e92a 3d3c 21ad 5c3c 466d 963c 77fc f83c
000001d0: 6aeb 1b3c ad1f 993c 81b2 c83c 678d a53c
000001e0: f25b 7e3c 4254 d03c 4c84 a53c 4e5b 5c3c
000001f0: 7054 553c 4521 943c 68ae 8e3c de51 de3c
00000200: 0ec6 b03c 8b9a 133d 8584 363c ad16 ee3b
00000210: 04a7 963c 0721 8a3c 9d44 823c 5dcd 3c3c
00000220: 2cc5 853c e026 9e3b ae91 b03b e325 0a3c
00000230: 1358 d53b b29b 423c 2987 9f3c 29ed ec3c
00000240: c5bd 1b3c 780c 003c ef29 bb3c 8b09 cf3c
00000250: 4b29 de3c fad1 0f3c 3b8f cc3c b335 503c
00000260: 65e4 9b3c 162d 013d 1ec5 b93c 2e03 103d
00000270: aaf3 df3c 72b1 af3c 5107 bd3c 757a 153c
00000280: ff8b fb3c c2a3 953c 570c b63c bef2 fd3c
00000290: c714 433c 013e f83b b50e 1b3c 4ef9 9c3c
000002a0: b086 203c 6a82 1d3c 8777 ab3c 0312 953c
000002b0: f148 d43b b463 d63c 50dd a03c bcd2 8e3c
000002c0: fe69 c83c fc08 ca3c 8ed9 473c b6fc af3c
000002d0: 710c 5d3c a6ff 613c f91d 943c 362e 633c
000002e0: b501 8f3c 3404 eb3c a546 ac3c 9758 833c
000002f0: a751 ca3c 7248 b03c 4640 a43c fcde 0c3d
00000300: bf18 f33c 31c7 a83c 0b83 303c 1bfc 673c
00000310: bfb9 e83b 5b34 0a3d 8f1c d33c 1ccc 233c
00000320: 5779 f93c d4af a33c e480 ee3c 67f7 e93b
00000330: b146 823c 0942 be3c 81d2 b83c c1d0 dc3c
00000340: ea6c 0d3d e46a 023d c313 b03c 8f74 f83c
00000350: 7d15 8c3c b0dc 183c 2bfb a23c 6ce9 ae3c
00000360: fc31 773c e979 b43c 500f 933c fdf8 ac3c
00000370: 5362 b93c 3830 713c 50f2 343c 0509 813c
00000380: afc4 f93c c883 123d 6b23 af3c 2f5b 543c
00000390: db78 bb3c b4f2 2f3b ec55 d13c 5c2d ba3c
000003a0: 5808 ad3c 7982 823c 9463 2e3c 6867 a53c
000003b0: 68da 8f3c 8d87 7d3c a46a 863c c43e 083d
000003c0: 54f8 5b3c 3adc e03c 4854 a63c ab2e 803c
000003d0: 25ff a63c 4035 fc3c bc01 d03c 181e c23c
000003e0: f151 bd3c 5e99 ba3c ace6 3a3c d982 4e3c
000003f0: 69be a03c 5de8 333c 04bc 593c 46ac 503c

blocks.block0.fc2.weight f4 [384, 384]
0.017672751 -0.021462372 0.053289868 0.0031078772 -0.022403164 0.004767762 0.024905564 0.0010878205
0.033074267 -0.03670102 0.019027844 0.008317352 0.04353656 -0.014780639 0.0058850367 -0.06494262
-0.04332463 -0.012303949 -0.020273607 0.03971263 0.023044882 0.04013712 -0.021016307 -0.03881579
-0.05935596 0.0065699825 -0.03887648 -0.04586462 -0.020986987 -0.04776763 -0.0183825 -0.039280076
-0.028013464 0.035642903 -0.01670304 0.038083777 -0.004247768 -0.022081992 -0.021039523 -0.038246453
-0.05341853 0.036805324 -0.041951288 -0.055271715 0.046558958 -0.010136963 -0.03198244 -0.052372847
-0.051732954 -0.04890703 0.031230014 0.030580036 -0.0012869542 -0.06155407 -0.008599285 -0.02965404
0.016919328 -0.021324573 -0.020164145 -0.032051817 0.02137564 0.016305618 0.012573692 -0.006641242
-0.009023084 -0.0032757118 -0.041339096 0.05357372 -0.023453742 0.033960406 -0.039394382 -0.0029445672
0.024802156 -0.035291594 0.009321675 -0.03627191 -0.0020390353 -0.021074986 0.020408927 0.048906576
0.00054944324 0.004419878 -0.035104174 0.013453358 -0.023959678 0.02517781 -0.037743255 0.037105795
0.018019041 0.029490199 0.004274078 0.011486146 -0.034435853 0.03735895 -0.003958978 0.01644241
-0.023271468 -0.011980821 -0.023283321 0.026419168 -0.03657232 -0.00988291 0.023750486 -0.035996955
-0.048188787 -0.04096689 -0.029584931 0.037596513 -0.049203254 0.027004518 0.028556278 -0.031810775
-0.039735287 -0.032847498 0.01085459 -0.020711198 0.0016735145 0.030045599 0.012430879 -0.019718142
0.0055439277 0.002063798 -0.016096724 0.020190349 -0.01259324 0.032208283 0.0002828998 0.00027882305
-0.0446875 -0.04102255 -0.008458389 -0.00042587332 -0.027427187 0.011468804 0.0060524475 0.017603235
0.034190763 -0.016533291 -0.03583189 -0.0075353323 -0.011349474 -0.022407716 -0.022963738 -0.0056947856
0.021113364 0.0032329625 0.023250312 -0.0033590044 -0.013941422 0.009605132 0.0013550498 -0.0052396464
-0.002746109 -0.043377914 -0.039470162 -0.002436006 -0.023610309 -0.034792263 -0.05210369 0.041348815
0.00088755565 -0.027703298 -0.023863425 0.01138377 -0.05212362 0.0109743215 -0.0048693637 0.001866566
0.008202043 -0.01805289 0.0012143939 0.03560848 -0.006363846 0.016355569 -0.01838143 -0.0036234783
0.010330021 -0.028858675 0.025450578 -0.04548832 -0.024016917 -0.033692025 -0.04062547 -0.030242745
-0.053486247 -0.0013842355 -0.013698626 -0.052291177 -0.0065454543 -0.019292923 0.01932658 -0.059926156
-0.019783743 0.01401028 0.021506181 0.0018398372 0.003556292 0.058170274 -0.020681528 0.033222284
0.050557107 -0.04700829 0.013038694 0.041812994 -0.029100325 0.03209547 0.0053196135 0.027343303
-0.015224379 -0.037171055 0.040789664 0.01705774 0.0455276 0.013955742 -0.0034691987 0.020693868
0.015506298 -0.032849964 -0.0023337447 -0.03284871 -0.0015372126 -0.02319996 0.012593235 -0.051538523
0.022865562 -0.043353327 0.025841538 0.0265206 -0.05413205 0.03778202 -0.041912105 -0.020793889
0.03503281 -0.017062865 0.036199614 -0.02305206 -0.013550003 -0.03382942 -0.031753495 0.04385312
0.04135711 0.0034727163 0.010347652 -0.05448267 0.03586551 -0.019290484 -0.014729262 -0.05230608
0.039481454 0.031332225 0.036515333 -0.0031286555 -0.04399241 0.0008603527 0.006687486 0.020280989
00000000: 72c6 903c dbd1 afbc 7a46 5a3d 87ad 4b3b
00000010: d786 b7bc e33a 9c3b c106 cc3c 3395 8e3a
00000020: e278 073d cf53 16bd 48e0 9b3c 8145 083c
00000030: 6453 323d 7e2a 72bc 44d7 c03b a300 85bd
00000040: 2b75 31bd 8196 49bc d614 a6bc b6a9 223d
00000050: 9fc8 bc3c d266 243d 642a acbc 4efd 1ebd
00000060: 3c1f 73bd 0249 d73b f23c 1fbd 8adc 3bbd
00000070: e7ec abbc fea7 43bd e696 96bc 25e4 20bd
00000080: 7e7c e5bc 4bfe 113d d0d4 88bc bcfd 1b3d
00000090: dc30 8bbb 4be5 b4bc 145b acbc 50a8 1cbd
000000a0: 63cd 5abd 2ec1 163d 1dd5 2bbd 9864 62bd
000000b0: 9bb4 3e3d 8115 26bc 0500 03bd e984 56bd
000000c0: efe5 53bd bd52 48bd 16d6 ff3c fc82 fa3c
000000d0: 04af a8ba 1f20 7cbd 04e4 0cbc 07ed f2bc
000000e0: 679a 8a3c dfb0 aebc 472f a5bc c448 03bd
000000f0: f71b af3c 5c93 853c e301 4e3c c79e d9bb
00000100: 8fd5 13bc 53ad 56bb 2f53 29bd 1e70 5b3d
00000110: 1022 c0bc 111a 0b3d 015c 21bd a4f9 40bb
00000120: e42d cb3c eb8d 10bd f0b9 183c db91 14bd
00000130: 56a1 05bb 73a5 acbc 9f30 a73c 4352 483d
00000140: 8308 103a a0d4 903b 65c9 0fbd 796b 5c3c
00000150: 1647 c4bc b241 ce3c ac98 1abd 3ffc 173d
00000160: ab9c 933c 6e95 f13c 910d 8c3b 6330 3c3c
00000170: 9c0c 0dbd b305 193d 51ba 81bb 3cb2 863c
00000180: cea3 bebc 354b 44bc aabc bebc 036d d83c
00000190: dbcc 15bd eeeb 21bc 6190 c23c 8b71 13bd
000001a0: 9b61 45bd e6cc 27bd 195c f2bc cdfe 193d
000001b0: 5a89 49bd 9438 dd3c dbee e93c 044c 02bd
000001c0: 78c1 22bd 198b 06bd 73d7 313c 88aa a9bc
000001d0: d459 db3a 3022 f63c e3aa 4b3c f187 a1bc
000001e0: d6a9 b53b c940 073b 47dd 83bc 3b66 a53c
000001f0: e053 4ebc d5ec 033d 2b52 9439 ff2e 9239
00000200: 3d0a 37bd 4307 28bd 0e95 0abc c047 dfb9
00000210: fbae e0bc a7e7 3b3c 9c53 c63b a934 903c
00000220: 9d0b 0c3d d370 87bc 76c4 12bd f3ea f6bb
00000230: 25f3 39bc 6390 b7bc 731e bcbc 539b babb
00000240: eff5 ac3c 1ce0 533b 7077 be3c be22 5cbb
00000250: 906a 64bc d85e 1d3c ed9b b13a 57b1 abbb
00000260: 10f8 33bb 0aad 31bd 77ab 21bd 66a5 1fbb
00000270: 686a c1bc 5582 0ebd ae6a 55bd 605d 293d
00000280: daaa 683a 07f2 e2bc 3b7d c3bc fe82 3a3c
00000290: 947f 55bd a4cd 333c 2f8f 9fbb 90a7 f43a
000002a0: dd61 063c a8e3 93bc 4c2c 9f3a 33da 113d
000002b0: cf87 d0bb 1dfc 853c a794 96bc e177 6dbb
000002c0: 403f 293c 0769 ecbc bb7d d03c f651 3abd
000002d0: 20bf c4bc a600 0abd e566 26bd a2bf f7bc
000002e0: 6514 5bbd 3c6f b5ba 3470 60bc 462f 56bd
000002f0: 407b d6bb 310c 9ebc c752 9e3c 2175 75bd
00000300: 8411 a2bc 608b 653c bb2d b03c b126 f13a
00000310: ae10 693b f443 6e3d 4f6c a9bc 1714 083d
00000320: f814 4f3d c48b 40bd 3fa0 553c 1a44 2b3d
00000330: ce63 eebc 8a76 033d 2750 ae3b 10ff df3c
00000340: ac6f 79bc ad40 18bd 1013 273d acbc 8b3c
00000350: 267b 3a3d a0a6 643c 7f5b 63bb 3086 a93c
00000360: 210e 7e3c af8d 06bd bdf1 18bb 5e8c 06bd
00000370: 4c7c c9ba d80d bebc db53 4e3c 0f1a 53bd
00000380: 8f50 bb3c 4293 31bd a2b1 d33c bb41 d93c
00000390: 92b9 5dbd 52c1 1a3d 07ac 2bbd f257 aabc
000003a0: 907e 0f3d 6cc7 8bbc 0c46 143d acd7 bcbc
000003b0: d500 5ebc b890 0abd f40f 02bd 549f 333d
000003c0: 1366 293d 8396 633b 3389 293c 3829 5fbd
000003d0: b7e7 123d 1407 9ebc 0153 71bc e63e 56bd
000003e0: 4eb7 213d 3856 003d 1a91 153d 210a 4dbb
000003f0: 6331 34bd 4b89 613a b322 db3b 5124 a63c

blocks.block0.fc2.bias f4 [384]
0.012622493 0.0073971474 0.012657274 -0.0049530696 0.0042488934 -0.011025255 0.026205104 -0.045427907
-0.011505361 -0.00915686 0.023591816 0.042021368 0.030469183 0.028871335 0.045944404 -0.020561744
-0.0060723964 0.04349051 0.005867558 0.043185875 0.017953243 0.04752464 0.04224433 -0.046568006
-0.030663492 -0.017633896 -0.020669388 0.040085327 -0.04927833 0.05244564 0.03490007 0.02274191
-0.039099958 -0.031468663 -0.009305962 -0.0359426 -0.006975614 -0.041414533 -0.020310467 -0.026031472
-0.016484743 -0.015429521 -0.027975874 0.0152288815 -0.026071606 0.040231287 0.020916948 -0.0051379916
-0.0006262382 0.032110855 0.04956722 0.03500367 0.019555096 -0.043312605 -0.008308687 -0.025398467
0.009793942 -0.049412064 0.044732127 -0.015073941 0.0413732 -0.038014542 -0.003262029 0.021136167
0.030089026 -0.024643384 -0.014685814 0.0045274002 0.024735684 -0.015852252 0.0184945 0.046210267
-0.0035792047 -0.036422655 -0.0021660584 0.025176467 -0.02465329 0.00862045 0.0329223 -0.003477577
0.040623218 0.005739603 0.050404053 -0.0059471084 -0.026562534 -0.03304408 0.014388476 -0.028385015
-0.049700763 0.0132536525 -0.047513958 0.040911157 0.016565636 0.010360467 0.026459709 -0.029437024
0.007978467 0.0044261506 -0.005108691 0.0064270166 0.016438518 0.021113575 0.0067399726 -0.026273295
-0.0133213615 -0.023840437 0.03878852 0.04324663 -0.02127988 -0.043895528 0.0044087847 -0.04599098
-0.020434955 -0.01048109 -0.0055852956 -0.0068610706 -0.047580816 0.032878496 0.015293679 0.04531452
0.03629845 -0.011499268 0.027304916 0.028661236 0.012872602 -0.028597765 -0.023674577 -0.007222884
0.026561199 -0.040083423 0.033600494 0.04345 -0.009836274 0.030887071 0.040598523 -0.006008766
-0.021523844 -0.022929763 0.037627727 -0.03736105 0.006732859 -0.0057360334 0.0043081413 -0.0045915777
0.01409642 -0.024530705 0.035724368 -0.047654632 0.049733732 -0.014390768 -0.03609727 0.017890844
0.036800645 -0.042472754 -0.048463073 0.03147084 -0.016894741 0.0415884 0.041951958 0.04633631
-0.019700337 0.01943163 -0.024584401 -0.040008094 -0.04171712 0.014271546 0.045154307 -0.019581202
-0.0054392004 0.0024281263 -0.017239597 -0.045878526 -0.013198589 -0.016635777 -0.04902998 -0.017384142
0.01810703 0.016670505 -0.011536874 -0.004926903 0.037798412 -0.026625937 -0.009837717 -0.04272131
0.013400139 0.016684862 -0.0063064145 0.030973824 -0.013179771 0.038827892 0.03981223 0.04646646
-0.04800063 0.03853165 0.013675368 0.040150706 0.010002897 0.022566335 0.03196561 -0.00057090615
0.010313397 -0.007819236 0.01773564 0.0006096852 0.03181619 -0.00692611 0.040566146 -0.00062572304
-0.03299324 -0.012058403 0.04452439 -0.014497872 -0.014802652 0.007771131 0.05002762 -0.012856664
-0.031568542 0.020820163 0.03212781 0.03402648 -0.02841003 0.044123497 0.018474737 0.007214354
0.04658662 0.0083983075 -0.011073231 -0.023445902 0.02377683 -0.033032786 0.024530662 -0.017162675
0.016128954 0.017979974 0.04053802 -0.0035560746 0.011032642 0.016962888 0.04268131 -0.010611466
0.0067407554 -0.043743845 0.038027097 -0.040031597 -0.008166985 -0.047490824 -0.0004984557 -0.030765502
-0.019834254 0.0028420435 -0.018890778 -0.003234197 0.03583789 0.013901596 -0.031474933 -0.045262396
00000000: 93ce 4e3c c563 f23b 7460 4f3c 5c4d a2bb
00000010: 4d3a 8b3b 45a3 34bc 16ac d63c 9d12 3abd
00000020: fb80 3cbc a806 16bc a043 c13c 991e 2c3d
00000030: 829a f93c 9483 ec3c 3330 3c3d 1a71 a8bc
00000040: f4fa c6bb 1b23 323d a544 c03b ace3 303d
00000050: ae12 933c 32a9 423d 6408 2d3d 18be 3ebd
00000060: 0132 fbbc f674 90bc d952 a9bc 8330 243d
00000070: 13d8 49bd 3dd1 563d 60f3 0e3d 3e4d ba3c
00000080: 4727 20bd 49e5 00bd 0978 18bc 8c38 13bd
00000090: b193 e4bb 49a2 29bd 2362 a6bc f43f d5bc
000000a0: 030b 87bc 1acc 7cbc a92d e5bc 8f82 793c
000000b0: 1f94 d5bc 90c9 243d 055a ab3c 995c a8bb
000000c0: 222a 24ba ac86 033d ff06 4b3d 0260 0f3d
000000d0: 0232 a03c 8f68 31bd 2921 08bc 7210 d0bc
000000e0: c576 203c 4e64 4abd 0939 373d b1f8 76bc
000000f0: f276 293d 23b5 1bbd c4c7 55bb c125 ad3c
00000100: 437d f63c ece0 c9bc c59c 70bc 965a 943b
00000110: 7da2 ca3c 95dc 81bc c781 973c fa46 3d3d
00000120: 1791 6abb ec2f 15bd 6ef4 0dbb e13e ce3c
00000130: b2f5 c9bc ca3c 0d3c 89d9 063d 0fe8 63bb
00000140: 8864 263d 4813 bc3b 7b74 4e3d f6df c2bb
00000150: ac99 d9bc 3b59 07bd a4bd 6b3c b187 e8bc
00000160: 0793 4bbd d925 593c ff9d 42bd 7592 273d
00000170: a8b4 873c f3be 293c 08c2 d83c ea25 f1bc
00000180: 1eb8 023c 3e09 913b ce66 a7bb b999 d23b
00000190: 12aa 863c 60f6 ac3c fdda dc3b 183b d7bc
000001a0: d741 5abc 054d c3bc b6e0 1e3d 6123 313d
000001b0: 2553 aebc cccb 33bd 9177 903b 0a61 3cbd
000001c0: 3567 a7bc e1b8 2bbc db04 b7bb d5d2 e0bb
000001d0: 1ae4 42bd 9aab 063d 5792 7a3c b89b 393d
000001e0: afad 143d 6d67 3cbc 8fae df3c f8ca ea3c
000001f0: 9be7 523c dc45 eabc 30f1 c1bc f1ad ecbb
00000200: df96 d93c 842e 24bd aca0 093d a1f8 313d
00000210: 5328 21bc e206 fd3c a34a 263d 2fe5 c4bb
00000220: c652 b0bc 33d7 bbbc 881f 1a3d e607 19bd
00000230: 519f dc3b 56f5 bbbb 4f2b 8d3b f274 96bb
00000240: acf4 663c 9ef4 c8bc b753 123d 8131 43bd
00000250: 99b5 4b3d 41c7 6bbc bbda 13bd d28f 923c
00000260: 46bc 163d e9f7 2dbd 3781 46bd 91e7 003d
00000270: d766 8abc 9958 2a3d d1d5 2b3d 25cb 3d3d
00000280: 9a62 a1bc 152f 9f3c 3a65 c9bc 87df 23bd
00000290: 92df 2abd 34d3 693c b9f3 383d c268 a0bc
000002a0: 523b b2bb 3321 1f3b 0e3a 8dbc 1feb 3bbd
000002b0: e53e 58bc c147 88bc a9d3 48bd 3069 8ebc
000002c0: 3255 943c 9590 883c 2805 3dbc dc71 a1bb
000002d0: 82d2 1a3d a31e dabc 602e 21bc 8afc 2ebd
000002e0: 428c 5b3c b1ae 883c 0aa6 cebb d1bc fd3c
000002f0: f7ef 57bc ff09 1f3d 2612 233d 9d53 3e3d
00000300: 4f9c 44bd 5dd3 1d3d a70e 603c 1175 243d
00000310: 31e3 233c 09dd b83c 5fee 023d dda8 15ba
00000320: 86f9 283c 411c 00bc 554a 913c 48d3 1f3a
00000330: b151 023d 6cf4 e2bb b028 263d 9007 24ba
00000340: eb23 07bd 9c90 45bc 355f 363d 7c88 6dbc
00000350: d386 72bc f9a4 fe3b c3e9 4c3d c2a4 52bc
00000360: 044e 01bd 0c8f aa3c 7398 033d 5a5f 0b3d
00000370: 27bc e8bc d7ba 343d 5558 973c 6366 ec3b
00000380: 9dd1 3e3d 0e99 093c 7f6c 35bc 9f11 c0bc
00000390: a0c7 c23c 634d 07bd 87f4 c83c bd98 8cbc
000003a0: de20 843c bd4a 933c 320b 263d 080d 69bb
000003b0: 41c2 343c c1f5 8a3c 99d2 2e3d b7db 2dbc
000003c0: 8ee1 dc3b bf2c 33bd 4dc2 1b3d 2cf8 23bd
000003d0: d1ce 05bc bd85 42bd ccaa 02ba ef07 fcbc
000003e0: 727b a2bc 9441 3a3b d5c0 9abc d2f4 53bb
000003f0: c0ca 123d 85c3 633c dceb 00bd 1065 39bd
